CNN Models/OU_H_Weights.pt (torch_old, 811425 bytes, 22 tensors)

layer.0.weight f4 [50, 1, 3, 3]
-0.21857837 -0.25485078 0.21026388 -0.17520836 0.3051638 0.40045318 -0.02916954 0.3442927
-0.33992463 0.08640388 0.75073415 0.23577203 -0.06471338 -0.0676901 0.094678015 -0.6248767
0.77224964 -0.16994579 -1.0636494 -0.3921836 -0.29370862 -0.58756083 -0.13191746 0.50341785
-0.24782623 -0.67161787 0.3200073 0.19034863 -0.10951658 -0.06255208 -1.1105616 -0.69195795
0.25283217 0.48099697 0.040490467 0.18124643 0.49907836 0.40261683 -0.3112077 0.002333702
0.623826 0.40609175 -0.30694517 -0.765296 -0.29350826 -0.5215639 0.13303196 -0.5904976
0.5335353 -0.019332558 -0.70176226 0.3951351 -0.30617774 0.5174805 0.5072762 0.037406128
0.08258258 -0.35440454 0.4167021 -0.90272593 1.0381879 -1.142946 0.58731246 0.4626657
0.7271632 -0.056030672 -0.29482707 -0.30915937 0.016278366 0.5414665 0.45362565 -0.12833142
0.16750893 -0.4422686 -0.010252913 0.41600993 -0.20061198 -0.34477174 0.8048276 -0.26775512
-0.67071205 -0.36923495 0.5562141 -0.023981769 0.5762541 0.36508313 -0.3087098 0.15519658
-0.3485718 -0.31031346 -0.5101253 -0.0015380348 -0.749497 -0.041076757 0.54426247 0.2766523
0.56510884 -0.1031453 0.33992386 -0.07889102 0.30216423 -0.18750387 -0.19363515 0.0055851713
0.5330081 -0.8349635 0.84254426 0.16078083 0.0029949446 -1.1552315 0.0240118 0.14500533
0.20181526 -0.44075006 0.27190867 0.61811984 0.20430632 -0.36673236 -0.09668082 0.46848494
-0.46664047 0.33066702 -0.016177915 0.4039298 -0.19449599 -0.0064915637 -0.51783246 0.08601459
-0.89225256 -0.3488088 -0.6740433 -0.14313143 0.06377766 -0.14170273 0.9201377 -0.39818507
-0.60855585 0.1885768 -0.4508214 0.2027304 0.24203311 0.06663206 0.5958986 0.402253
0.6277664 0.19924371 0.028780254 -0.24028786 -0.18703836 -0.14196186 0.23064375 -0.1609085
0.086633876 0.30283764 -0.34366384 -0.55057013 -0.4448495 -0.019985085 0.5273875 0.39044777
0.46119398 -0.44154403 0.23737133 0.64672625 0.28944317 0.207074 -0.5383508 -0.5587349
0.91951144 -0.14574039 -0.6233039 -0.080699086 0.82811904 -0.3606004 0.3853688 -0.55618906
-0.25307235 -0.41091996 0.5634751 0.5880853 0.2812259 -0.07724218 0.14118446 -0.6552252
-0.53198344 -0.13774028 -0.48653764 0.85323733 0.41365236 -0.57887954 0.15992817 -0.43081135
-0.36298388 0.046432752 0.72769576 -0.34766635 0.13962898 0.31082788 -0.30145317 -0.7054543
0.46026644 0.26180562 -1.1434377 0.43188298 0.39401928 0.10038984 0.24389233 -0.20130214
-0.5757322 -0.5625859 -0.27131847 -0.3989679 0.55258787 -0.014574161 0.58901846 0.76450175
0.75422764 -0.48163906 0.14849296 -0.20561044 0.79480076 0.7458739 0.28237054 -0.6836178
-0.29134485 -0.2916195 -0.56882817 -0.35396656 -0.18387347 0.5419421 0.004498731 -0.18523595
0.31208855 0.45053807 -0.32675654 0.30106527 -0.2436306 0.08902943 0.8706268 0.57136035
-1.1938839 0.43583655 -0.07554401 -0.32678503 0.17562218 0.76616275 -0.4532913 0.116369195
-0.04332672 -0.14125285 -0.00034888618 -0.42675444 -0.01911206 0.5136274 -0.17455271 -0.09521874
00000000: 02d3 5fbe cd7b 82be 6a4f 573e d269 33be
00000010: 6e3e 9c3e 3308 cd3e f6f4 eebc 2247 b03e
00000020: 9a0a aebe 84f4 b03d 1d30 403f 396e 713e
00000030: 7388 84bd 1ba1 8abd 8ce6 c13d ebf7 1fbf
00000040: 27b2 453f 4506 2ebe aa25 88bf 4acc c8be
00000050: fa60 96be 636a 16bf 5f15 07be fedf 003f
00000060: 29c6 7dbe 26ef 2bbf ffd7 a33e c0ea 423e
00000070: 3b4a e0bd 4e1b 80bd e226 8ebf 2824 31bf
00000080: 3873 813e 3c45 f63e 55d9 253d aa98 393e
00000090: 3387 ff3e cb23 ce3e 9e56 9fbe 06f1 183b
000000a0: 10b3 1f3f 42eb cf3e eb27 9dbe 70ea 43bf
000000b0: b746 96be 3685 05bf 8839 083e da2a 17bf
000000c0: c595 083f 505f 9ebc b1a6 33bf 264f ca3e
000000d0: 54c3 9cbe 9a79 043f dadc 013f 2b37 193d
000000e0: 0e21 a93d 8374 b5be fa59 d53e 0c19 67bf
000000f0: 57e3 843f 0e4c 92bf 1c5a 163f 85e2 ec3e
00000100: 5e27 3a3f 6b80 65bd 93f3 96be 234a 9ebe
00000110: 355a 853c 8c9d 0a3f 9f41 e83e 5069 03be
00000120: 7687 2b3e 0871 e2be d6fb 27bc 41ff d43e
00000130: 3a6d 4dbe ec85 b0be 2e09 4e3f 3317 89be
00000140: c9b3 2bbf 5d0c bdbe 0c64 0e3f 6a75 c4bc
00000150: 6485 133f 2dec ba3e 360f 9ebe daeb 1e3e
00000160: 0178 b2be 68e1 9ebe 9297 02bf e297 c9ba
00000170: 09df 3fbf 1a40 28bd c954 0b3f 5fa5 8d3e
00000180: f9aa 103f d83d d3bd 800a ae3e 9d91 a1bd
00000190: 45b5 9a3e 0401 40be 4b48 46be d003 b73b
000001a0: 3873 083f 2bc0 55bf fbb0 573f bba3 243e
000001b0: d546 443b a0de 93bf 65b4 c43c 477c 143e
000001c0: a9a8 4e3e fea9 e1be 9d37 8b3e 1a3d 1e3f
000001d0: ad35 513e 58c4 bbbe 9800 c6bd 42dd ef3e
000001e0: 80eb eebe 304d a93e 8c87 84bc e3cf ce3e
000001f0: f529 47be 2fb7 d4bb ab90 04bf 6b28 b03d
00000200: aa6a 64bf 1197 b2be 1a8e 2cbf 0c91 12be
00000210: dd9d 823d 851a 11be 258e 6b3f eade cbbe
00000220: 51ca 1bbf 471a 413e 10d2 e6be 8f98 4f3e
00000230: 87d7 773e 6476 883d d08c 183f 1bf4 cd3e
00000240: 4cb5 203f 8b06 4c3e 91c4 eb3c 050e 76be
00000250: fc86 3fbe 735e 11be e02d 6c3e 33c5 24be
00000260: 1a6d b13d 890d 9b3e b5f4 afbe 2af2 0cbf
00000270: 50c3 e3be c3b7 a3bc de02 073f c5e8 c73e
00000280: 9e21 ec3e 0f12 e2be 7811 733e da8f 253f
00000290: e531 943e 350b 543e 5cd1 09bf 4009 0fbf
000002a0: 1a65 6b3f f83c 15be d890 1fbf 9045 a5bd
000002b0: 9cff 533f 9ea0 b8be 0f4f c53e 6862 0ebf
000002c0: b392 81be 1a64 d2be e73f 103f c28c 163f
000002d0: d7fc 8f3e 2631 9ebd a992 103e d7bc 27bf
000002e0: 1130 08bf ca0b 0dbe 761b f9be c36d 5a3f
000002f0: 3eca d33e 7331 14bf 36c4 233e 4e93 dcbe
00000300: 06d9 b9be 4530 3e3d 454a 3a3f 5301 b2be
00000310: e6fa 0e3e d524 9f3e 1258 9abe a798 34bf
00000320: 0ba8 eb3e 630b 863e 2b5c 92bf c41f dd3e
00000330: e5bc c93e 3099 cd3d e9be 793e 2622 4ebe
00000340: 2f63 13bf a105 10bf 41ea 8abe 8545 ccbe
00000350: 6676 0d3f 76c8 6ebc eac9 163f 63b6 433f
00000360: 1015 413f 6599 f6be 8a0e 183e 8b8b 52be
00000370: 1078 4b3f 98f1 3e3f df92 903e 9301 2fbf
00000380: 272b 95be 274f 95be b99e 11bf 1b3b b5be
00000390: 5449 3cbe b8bc 0a3f 176a 933b 7eae 3dbe
000003a0: 12ca 9f3e edac e63e a24c a7be 3a25 9a3e
000003b0: 4d7a 79be 1055 b63d 66e1 5e3f ac44 123f
000003c0: 30d1 98bf f825 df3e d1b6 9abd 5e50 a7be
000003d0: 4dd6 333e 3e23 443f cc15 e8be f952 ee3d
000003e0: 5c77 31bd 96a4 10be b6ea b6b9 8f7f dabe
000003f0: e590 9cbc 167d 033f f2bd 32be 0b02 c3bd

layer.0.bias f4 [50]
-0.014676807 -0.033951893 0.010060138 0.01106505 -0.0066385856 0.0009381626 -0.0043409234 -0.023384841
0.00069018273 -0.0070974794 -0.009760318 -0.01061778 -0.0014241915 -0.001138259 0.0064532403 -0.0005299174
-0.051753476 -0.0007884102 -0.020418726 -0.0091633275 -0.0007094272 0.0043365858 -0.00036940948 -0.00031701138
-0.117314674 -0.00031120796 -0.0045254356 -0.00090863963 0.0010548315 -0.00021617256 -0.00039174646 -0.0026282284
-0.0034231732 -2.339368e-05 -0.010766175 -0.0010135695 0.002331241 0.008749334 -0.049735095 -0.00479829
-0.0016382295 -0.0002538438 0.0061111823 9.958481e-05 0.004416983 -0.0010831405 -0.008587337 -5.07578e-06
0.0066911634 -0.0117260255
00000000: fe76 70bc 2411 0bbd 47d3 243c 2f4a 353c
00000010: 7e88 d9bb 07ef 753a 4e3e 8ebb 9191 bfbc
00000020: 61ed 343a f991 e8bb bee9 1fbc 32f6 2dbc
00000030: f0ab baba a231 95ba b475 d33b 28ea 0aba
00000040: 74fb 53bd 50ad 4eba 2c45 a7bc c821 16bc
00000050: daf8 39ba eb19 8e3b 4dad c1b9 8c34 a6b9
00000060: ad42 f0bd a029 a3b9 1b4a 94bb c631 6eba
00000070: 4642 8a3a 61ac 62b9 5263 cdb9 5b3e 2cbb
00000080: 5157 60bb 8c3d c4b7 9c64 30bc c0d9 84ba
00000090: bcc7 183b 5e59 0f3c 07b7 4bbd f93a 9dbb
000000a0: dcb9 d6ba 5716 85b9 5040 c83b 30d8 d038
000000b0: 57bc 903b 2af8 8dba e7b1 0cbc 9e50 aab6
000000c0: 8c41 db3b 841e 40bc

layer.4.weight f4 [50, 50, 3, 3]
-0.09517345 0.0850251 -0.029257443 -0.07232672 0.015391243 0.07824663 -0.05359027 -0.032979377
-0.0059717707 -0.13781163 0.055268753 0.02464511 0.0013654158 -0.004947969 0.06442885 -0.1365813
0.043496512 0.041117232 -0.23887576 -0.32756487 -0.19262671 -0.21381547 -0.3076054 -0.07594827
-0.07245953 0.031431377 -0.022185802 0.123582795 -0.101494044 -0.4231953 -0.065459535 -0.15260825
-0.12983999 -0.047565456 0.09829863 -0.035009008 -0.17378186 -0.16513415 -0.09387084 -0.060131494
0.032465152 0.042067543 -0.11012265 -0.032417055 0.082179815 -0.05856746 -0.108014226 -0.09473367
-0.11636069 -0.07432254 0.1415472 0.016944187 -0.016052216 -0.083546504 0.021832636 -0.04973213
0.08912424 -0.026014842 -0.1067119 0.11521143 0.0878035 -0.11590766 -0.06646013 -0.057815257
0.07575866 0.09430677 -0.054638688 -0.026410054 -0.0232211 -0.03563641 0.020127863 0.05573069
0.0005698413 -0.22574261 -0.049381305 -0.047451474 -0.11533963 -0.009544217 0.02815162 0.015688136
-0.0030581781 -0.032389287 -0.14460269 -0.16452831 -0.19533113 -0.06830024 0.077511996 0.028828532
-0.065204896 -0.009959084 -0.0010499326 0.08866559 -0.0037397589 -0.05054541 0.10276375 0.022662766
0.026426142 -0.03021056 -0.016743127 -0.016431998 -0.004737429 0.009448387 -0.024533149 0.02813917
0.17393182 0.06295762 -0.0132825365 0.20037122 0.004722014 -0.062168743 -0.06424449 -0.077924035
0.049783003 -0.02102455 0.077773094 0.019012658 -0.039175984 0.025243519 -0.123585716 -0.024579654
-0.055387843 -0.13811167 0.053744834 -0.098427154 0.07997076 -0.008042483 -0.13160908 -0.24057654
-0.1439957 -0.26567197 0.119792975 -0.11781279 -0.00426542 -0.2923515 -0.13013825 0.12432106
0.010986162 0.08248805 -0.062192082 0.1309288 -0.004056435 -0.0018657777 -0.023583341 0.061678786
-0.062419206 -0.106231876 0.07379678 -0.24432248 -0.028478498 -0.08621096 -0.045136247 0.029856304
0.10983362 -0.0799939 -0.033270497 -0.056271948 -0.038280945 0.093919 -0.111029305 0.02752777
-0.095023975 0.031089194 -0.105012886 -0.1624519 -0.04937427 -0.22010864 0.00643818 -0.052986495
-0.024124289 -0.12891982 -0.107581995 -0.060321435 -0.08159697 0.0023369957 -0.041959833 0.028721277
0.00535001 -0.014703346 -0.10151948 0.14001355 0.09501653 0.05353812 -0.00442882 -0.0598899
-0.0564397 -0.00062652933 -0.004455449 -0.050259244 -0.09755816 -0.030468522 -0.021611214 0.054597314
-0.043999355 0.15360984 0.033417027 -0.06659023 0.098700084 0.07863758 -0.04627851 -0.08329223
-0.03940165 -0.12975429 -0.035102423 0.11325474 -0.01501202 -0.0053826445 0.034154877 0.031373784
-0.08656798 0.05921445 -0.10843119 0.15097174 0.014177213 0.11902909 0.06633241 -0.0086277
-0.06384993 -0.056214172 0.04613004 -0.14404899 0.047370356 -0.0021337967 -0.040924218 -0.053474355
-0.076860264 0.077612825 -0.0060397037 0.041218173 -0.09174089 -0.032152537 0.09931953 -0.060395367
-0.05442548 0.021190092 -0.018869016 -0.058320306 -0.0005578284 -0.009954978 0.04232218 0.04799352
0.02755304 0.05227746 0.03957565 0.007580756 -0.057656296 -0.030138107 -0.15705049 -0.09826384
0.012391778 -0.14052789 0.15016772 0.06629868 -0.18062514 -0.3209091 -0.2006411 -0.2809124
00000000: 4cea c2bd a421 ae3d 4ead efbc 0820 94bd
00000010: 8d2b 7c3c c53f a03d 7981 5bbd 6215 07bd
00000020: d8ae c3bb 7e1e 0dbe 7d61 623d 8be4 c93c
00000030: c0f7 b23a 9322 a2bb 46f3 833d f8db 0bbe
00000040: 6629 323d 8b6a 283d d99b 74be 95b6 a7be
00000050: f03f 45be 71f2 5abe 747e 9dbe c48a 9bbd
00000060: a965 94bd 30be 003d 00bf b5bc fa18 fd3d
00000070: 1cdc cfbd 0ead d8be a60f 86bd 5645 1cbe
00000080: c6f4 04be ffd3 42bd cb50 c93d 9b65 0fbd
00000090: dff3 31be ed18 29be 5b3f c0bd 714c 76bd
000000a0: 2efa 043d 044f 2c3d fc87 e1bd bfc7 04bd
000000b0: e44d a83d 6fe4 6fbd 9036 ddbd ba03 c2bd
000000c0: 834e eebd 6a36 98bd c0f1 103e 89ce 8a3c
000000d0: f07f 83bc 6e1a abbd 5bda b23c ebb3 4bbd
000000e0: c586 b63d 141d d5bc c58b dabd f8f3 eb3d
000000f0: 52d2 b33d ff60 edbd 401c 88bd b1cf 6cbd
00000100: 5b27 9b3d e823 c13d d1cc 5fbd e659 d8bc
00000110: 2d3a bebc 7cf7 11bd 30e3 a43c dd45 643d
00000120: 6761 153a 1229 67be 0d44 4abd 7a5c 42bd
00000130: 2f37 ecbd 595f 1cbc 3a9e e63c 6884 803c
00000140: b76b 48bb a1aa 04bd ba12 14be 1c7a 28be
00000150: e204 48be ffe0 8bbd 9cbe 9e3d d029 ec3c
00000160: 258a 85bd 6d2b 23bc e49d 89ba 4e96 b53d
00000170: be16 75bb b408 4fbd cd75 d23d 44a7 b93c
00000180: a37b d83c 237c f7bc e228 89bc 669c 86bc
00000190: 6f3c 9bbb 68cd 1a3c bef9 c8bc 1e84 e63c
000001a0: 2f1b 323e edef 803d ff9e 59bc 1d2e 4d3e
000001b0: 20bb 9a3b a7a4 7ebd 9d92 83bd a396 9fbd
000001c0: 43e9 4b3d ad3b acbc 8047 9f3d 6fc0 9b3c
000001d0: ff76 20bd 7fcb ce3c 821a fdbd 455b c9bc
000001e0: 5dde 62bd 256d 0dbe 8b23 5c3d 2d94 c9bd
000001f0: b6c7 a33d 9ec4 03bc 88c4 06be b259 76be
00000200: 9c73 13be 2806 88be 0556 f53d d547 f1bd
00000210: f0c4 8bbb 19af 95be f642 05be 0a9c fe3d
00000220: 4eff 333c 7fef a83d 20bd 7ebd 3312 063e
00000230: d8eb 84bb 1c8d f4ba da31 c1bc e5a2 7c3d
00000240: 48ab 7fbd 1990 d9bd c422 973d ac2f 7abe
00000250: bd4b e9bc 5f8f b0bd c9e0 38bd 3595 f43c
00000260: 73f0 e03d d8d3 a3bd a546 08bd 6a7d 66bd
00000270: 7bcc 1cbd 9b58 c03d 5563 e3bd eb81 e13c
00000280: ee9b c2bd c4ae fe3c ff10 d7bd ca59 26be
00000290: ad3c 4abd 2964 61be 5ef7 d23b 5e08 59bd
000002a0: 4da0 c5bc 8f03 04be f353 dcbd 9c13 77bd
000002b0: 501c a7bd 4828 193b 13de 2bbd e248 eb3c
000002c0: 234f af3b 4ee6 70bc 72e9 cfbd b65f 0f3e
000002d0: 0798 c23d ca4a 5b3d a31f 91bb 1d4f 75bd
000002e0: 512d 67bd ac3d 24ba 04ff 91bb a3dc 4dbd
000002f0: 93cc c7bd 1f99 f9bc 000a b1bc 6fa1 5f3d
00000300: ab38 34bd e64b 1d3e 4be0 083d 7560 88bd
00000310: 4523 ca3d bd0c a13d 898e 3dbd 1e95 aabd
00000320: a063 21bd 4fde 04be 8fc7 0fbd 1af2 e73d
00000330: faf4 75bc e560 b0bb fce5 0b3d cc81 003d
00000340: 8e4a b1bd da8a 723d 2c11 debd 5698 1a3e
00000350: 8b47 683c 86c5 f33d 49d9 873d 325b 0dbc
00000360: c1c3 82bd d540 66bd daf2 3c3d 9481 13be
00000370: 6b07 423d 2bd7 0bbb 27a0 27bd ed07 5bbd
00000380: ea68 9dbd 79f3 9e3d b5e8 c5bb 63d4 283d
00000390: a6e2 bbbd 61b2 03bd 0a68 cb3d 2261 77bd
000003a0: 41ed 5ebd d896 ad3c 3293 9abc 46e1 6ebd
000003b0: 3b3b 12ba 341a 23bc 065a 2d3d da94 443d
000003c0: eab6 e13c e420 563d 141a 223d fe67 f83b
000003d0: 0229 6cbd 31e4 f6bc d8d1 20be 8d3e c9bd
000003e0: e206 4b3c 8be6 0fbe 91c5 193e 9ac7 873d
000003f0: ccf5 38be 334e a4be dc74 4dbe c0d3 8fbe

layer.4.bias f4 [50]
-0.008463791 0.031156069 0.007380786 0.019600375 0.0013820529 0.022123838 0.05140083 0.014736416
0.008284456 0.007469762 0.018501095 0.030791957 0.017392946 0.020342112 -0.0006438401 0.017426332
0.0062125423 0.008150001 0.020850178 0.003934901 0.021174878 0.0043428494 -0.007049709 -0.12315498
-0.078539446 0.015029957 0.009771499 0.024245048 -0.009351072 0.03773838 -0.041040298 -0.014922608
0.018055547 -0.001886716 0.030826401 -0.011495847 0.037011627 0.025048414 0.015817478 0.0033152194
-0.065902665 0.014406779 0.022206778 0.0031034264 -0.04955498 0.021534845 0.017979253 0.033502
0.02553834 0.0029072645
00000000: b6ab 0abc 033b ff3c 85da f13b f790 a03c
00000010: 0026 b53a 0d3d b53c ad89 523d 0271 713c
00000020: 87bb 073c e8c4 f43b 9c8f 973c 6a3f fc3c
00000030: a77b 8e3c 80a4 a63c 61c7 28ba abc1 8e3c
00000040: 9592 cb3b 9587 053c fecd aa3c 58f0 803b
00000050: f076 ad3c 764e 8e3b 3f01 e7bb ae38 fcbd
00000060: 4ad9 a0bd 3540 763c a318 203c 8d9d c63c
00000070: 3d35 19bc 8f93 1a3d df19 28bd f47d 74bc
00000080: 3ae9 933c af4b f7ba a687 fc3c 1459 3cbc
00000090: 8199 173d 5532 cd3c a893 813c 2744 593b
000000a0: faf7 86bd 690a 6c3c fdea b53c db62 4b3b
000000b0: 2afa 4abd d869 b03c 3a49 933c 6539 093d
000000c0: c835 d13c ce87 3e3b

layer.7.weight f4 [50, 50, 3, 3]
0.01291153 -0.022385776 0.07165848 0.03620807 -0.0793576 0.04247327 0.037952494 0.057993367
-0.017748628 -0.0024219577 -0.024603557 -0.025213666 0.10565367 -0.1027429 -0.099336855 0.02026396
-0.042444915 0.042866237 -0.07291266 -0.03217677 -0.1255005 0.012990862 -0.07111285 -0.18382879
0.04919787 0.088157415 -0.04874738 -0.26081496 0.020519637 0.16850558 -0.037601717 0.07630881
0.15709636 0.10039258 -0.023255782 -0.1475073 0.016995609 -0.088020176 0.07702969 -0.010836771
0.043405283 -0.26095515 0.0011140967 0.014970894 -0.04612627 -0.07676909 -0.07368487 -0.10581783
-0.009008908 -0.10990383 -0.17793413 0.020455187 -0.04671011 -0.05715092 0.09722579 -0.063779935
-0.05504985 0.16663805 0.14880551 -0.025280638 0.15863702 0.15749933 0.18572949 -0.013608071
-0.09700413 -0.053078156 0.029770156 0.040005833 -0.015596543 -0.07610892 0.0039808257 0.06802474
0.00075308734 -0.001894629 -0.14426821 0.13270594 0.062010527 -0.06472234 0.024795044 0.01864579
-0.04776391 -0.06635939 -0.03145649 -0.031251315 -0.09596756 -0.07205499 -0.17288329 0.010676052
-0.02216114 -0.0748376 -0.12932642 -0.046037957 -0.13150607 0.02195787 -0.077092715 -0.08315379
0.0066035534 -0.0489873 -0.05838583 -0.0913369 0.08481843 0.07716965 0.07903435 0.051388286
0.059115615 0.06659991 -0.059259437 -0.1016828 -0.033219837 -0.099137284 -0.04771702 -0.038879406
-0.1407752 -0.12506981 0.024316154 -0.007639201 -0.13002394 0.0071607577 -0.02917801 0.01826855
0.008331627 0.022488263 0.036439918 -0.05522123 0.12188155 -0.14357938 -0.06463907 -0.018611457
-0.022704875 -0.032585163 -0.11853134 -0.03241795 -0.051546544 -0.22441144 -0.269648 -0.0028191782
-0.09610302 -0.102266006 -0.09081713 0.08532731 -0.11129417 0.05823374 0.0033082026 0.017686352
0.07831084 -0.025886789 -0.042373426 0.12562306 0.0035606246 -0.03340568 -0.0015013205 0.054419897
-0.046781547 -0.006929516 -0.117822446 -0.04457712 0.0070114243 0.04641003 -0.041909922 0.14360368
-0.05800834 -0.0155721465 -0.09161723 0.03429282 0.15438507 -0.034499355 0.023056515 0.15123916
0.12080886 0.017051337 0.05644306 0.059336204 -0.1364397 -0.09771211 0.07915296 -0.038504034
0.038490266 -0.07680755 0.09086522 0.014519691 0.040262762 0.06841397 0.0032632446 0.0047776015
0.028111983 -0.058120858 0.14602166 -0.016633527 -0.053621214 0.049946163 0.019124255 -0.065999895
0.08714303 -0.053499516 -0.2429866 0.06661667 -0.056487955 0.04111404 -0.072684415 0.032495372
0.003958984 -0.13416642 -0.0250473 -0.00897296 0.14933303 -0.015046548 -0.017010765 0.04510341
-0.15085104 -0.15280582 -0.010157025 0.027669234 0.068932615 0.061852735 0.002660685 0.03867039
-0.02402806 0.0473407 0.106687106 0.049005046 -0.06777245 -0.08340699 -0.027217912 -0.031150578
-0.041384872 0.022251973 -0.062263224 -0.029857988 -0.09524935 -0.008215678 -0.14775051 -0.05247931
-0.041983083 -0.0062285885 -0.07305575 -0.019938746 -0.010201215 -0.11701818 -0.006208182 -0.0763787
0.028586626 -0.016446376 0.09127234 0.065881476 -0.13345714 -0.17258562 -0.06870503 -0.029379902
-0.007968382 0.0006048856 0.077464655 -0.0048357123 0.05161444 -0.09479954 -0.07720104 -0.028829208
00000000: e28a 533c 6062 b7bc aec1 923d ea4e 143d
00000010: 3d86 a2bd 74f8 2d3d 1374 1b3d 748a 6d3d
00000020: 9265 91bc b5b9 1ebb 668d c9bc e48c cebc
00000030: f460 d83d df6a d2bd 1f71 cbbd 9b00 a63c
00000040: b8da 2dbd 8294 2f3d 3c53 95bd cacb 03bd
00000050: 3483 00be a0d7 543c 9da3 91bd 9d3d 3cbe
00000060: b583 493d e08b b43d 55ab 47bd 8a89 85be
00000070: cc18 a83c ba8c 2c3e 4204 1abd cb47 9c3d
00000080: dedd 203e a09a cd3d e982 bebc 270c 17be
00000090: 603a 8b3c ec43 b4bd bec1 9d3d b68c 31bc
000000a0: bdc9 313d ea9b 85be e206 923a 7b48 753c
000000b0: e6ee 3cbd 1d39 9dbd 18e8 96bd 05b7 d8bd
000000c0: 199a 13bc 4215 e1bd 5d34 36be a391 a73c
000000d0: 1a53 3fbd 1517 6abd 511e c73d 0e9f 82bd
000000e0: f47b 61bd 2aa3 2a3e 7960 183e 5719 cfbc
000000f0: be71 223e 8147 213e df2f 3e3e 63f4 5ebc
00000100: 1aaa c6bd 7b68 59bd 8be0 f33c 28dd 233d
00000110: a588 7fbc fede 9bbd 9671 823b 8e50 8b3d
00000120: d66a 453a 3355 f8ba 0cbb 13be 11e4 073e
00000130: c0fe 7d3d 258d 84bd fa1e cb3c 0ebf 983c
00000140: 17a4 43bd 6fe7 87bd 85d8 00bd 6101 00bd
00000150: a48a c4bd 9191 93bd 5108 31be 9cea 2e3c
00000160: 478b b5bc 7544 99bd 256e 04be 4c92 3cbd
00000170: 87a9 06be fee0 b33c c9e2 9dbd 894c aabd
00000180: 9f62 d83b e8a6 48bd fb25 6fbd d70e bbbd
00000190: 49b5 ad3d 1f0b 9e3d c3dc a13d 867c 523d
000001a0: 3723 723d 8965 883d 06ba 72bd 123f d0bd
000001b0: 8611 08bd 7d08 cbbd ec72 43bd 0340 1fbd
000001c0: 6027 10be 4d12 00be ac32 c73c 4352 fabb
000001d0: ff24 05be caa4 ea3b b906 efbc eda7 953c
000001e0: 6081 083c 4e39 b83c 0642 153d a82f 62bd
000001f0: 099d f93d 7906 13be 7d61 84bd 0e77 98bc
00000200: 93ff b9bc 0578 05bd 8fc0 f2bd afc8 04bd
00000210: 7822 53bd 1dcc 65be 4d0f 8abe f6c1 38bb
00000220: a9d1 c4bd d770 d1bd 55fe b9bd 16c0 ae3d
00000230: 33ee e3bd 8186 6e3d 6ece 583b f8e2 903c
00000240: 6f61 a03d 8810 d4bc c28f 2dbd 55a3 003e
00000250: 5e59 693b 65d4 08bd f5c7 c4ba 66e7 5e3d
00000260: 029e 3fbd fe10 e3bb e54c f1bd 8096 36bd
00000270: 17c0 e53b 7218 3e3d bda9 2bbd d80c 133e
00000280: 279a 6dbd 5122 7fbc d0a1 bbbd a176 0c3d
00000290: 1f17 1e3e 324f 0dbd 04e1 bc3c 70de 1a3e
000002a0: a36a f73d 3faf 8b3c d730 673d 850a 733d
000002b0: d9b6 0bbe 491d c8bd f21a a23d 68b6 1dbd
000002c0: f8a7 1d3d 474d 9dbd 8b17 ba3d ffe3 6d3c
000002d0: 91ea 243d a01c 8c3d 29dc 553b 6d8d 9c3b
000002e0: 1a4b e63c 2310 6ebd b486 153e 0943 88bc
000002f0: eba1 5bbd 5994 4c3d 78aa 9c3c f42a 87bd
00000300: 0b78 b23d 4f22 5bbd 7bd1 78be 526e 883d
00000310: ea5f 67bd 3267 283d 91db 94bd de19 053d
00000320: 5dba 813b ec62 09be ff2f cdbc 5203 13bc
00000330: c2ea 183e cc85 76bc 295a 8bbc 5abe 383d
00000340: b278 1abe 2179 1cbe a769 26bc 97aa e23c
00000350: 8b2c 8d3d 4b59 7d3d e35e 2e3b d864 1e3d
00000360: 7ed6 c4bc 52e8 413d c57e da3d 84b9 483d
00000370: 48cc 8abd 49d1 aabd 19f8 debc 7f2f ffbc
00000380: 2f83 29bd c549 b63c b907 7fbd bd98 f4bc
00000390: 1712 c3bd 0d9b 06bc e94b 17be 8cf4 56bd
000003a0: 74f6 2bbd 3019 ccbb 419e 95bd 9556 a3bc
000003b0: ff22 27bc 3aa7 efbd 016e cbbb 706c 9cbd
000003c0: 802e ea3c 8dba 86bc feec ba3d deec 863d
000003d0: fda8 08be 49ba 30be 39b5 8cbd 1fae f0bc
000003e0: d18d 02bc 2f91 1e3a caa5 9e3d e574 9ebb
000003f0: aa69 533d 4326 c2bd 941b 9ebd 3b2b ecbc

layer.7.bias f4 [50]
0.024434185 0.031128258 0.022690585 0.019680401 0.008523728 -0.053567152 0.022175772 -0.0110212695
-0.021318708 0.0074813305 0.0063117305 0.0032330672 0.040573098 0.036621194 -0.012197101 -0.0067465254
-0.0005934537 -0.002951907 -0.013052789 0.012121543 0.022122059 -0.011001951 0.00027650862 -0.012386058
0.02186856 0.01715082 0.006044646 0.0042499523 -0.0271917 -0.0016967119 0.012569004 0.010142146
-0.015013669 -0.03358614 0.015081755 0.011360448 -0.018606432 -0.0128962705 -0.012965472 0.007459287
-0.016772196 -0.0033104734 0.0065085287 0.01263378 -0.019632766 -0.022538824 -0.061013427 0.0038251863
-0.00571076 0.045816038
00000000: 332a c83c b000 ff3c 9be1 b93c cb38 a13c
00000010: 1ba7 0b3c 3b69 5bbd f7a9 b53c 8e92 34bc
00000020: 92a4 aebc f325 f53b a2d2 ce3b dee1 533b
00000030: fa2f 263d 1b00 163d 59d6 47bc f511 ddbb
00000040: 0192 1bba c874 41bb 5ddb 55bc 7099 463c
00000050: 5239 b53c 8741 34bc 5cf8 9039 e5ee 4abc
00000060: b225 b33c e07f 8c3c 2a12 c63b 2f43 8b3b
00000070: 21c1 debc 3464 deba 39ee 4d3c 3e2b 263c
00000080: e4fb 75bc 9f91 09bd 7719 773c 2c21 3a3c
00000090: 846c 98bc e14a 53bc 226d 54bc 096d f43b
000000a0: d865 89bc 87f4 58bb 7f45 d53b eafd 4e3c
000000b0: e5d4 a0bc 57a3 b8bc 37e9 79bd faaf 7a3b
000000c0: 5421 bbbb 99a9 3b3d

layer.10.weight f4 [50, 50, 3, 3]
-0.08428668 -0.0697084 0.04232224 0.00037923807 -0.09500713 -0.033463053 0.014518494 -0.13435872
-0.041251432 -0.13227054 -0.08980581 -0.115955524 -0.03924909 0.1098547 0.09802801 0.00398269
0.0014691924 0.13180256 -0.018370636 -0.15626721 -0.066852525 -0.08174055 -0.04524663 -0.18303832
0.0037492446 -0.11700004 -0.010973291 0.11954683 -0.026176326 -0.006740768 -0.12843765 -0.04872766
-0.023416352 -0.0014800124 -0.020175671 0.051383074 -0.06491941 -0.07649492 -4.025887e-05 0.09872365
0.09265614 -0.13769545 -0.097169004 -0.07570269 -0.11621957 -0.012885519 0.040347263 0.07151585
0.09628914 0.012620909 -0.11655268 -0.087804675 -0.006225596 -0.17292346 -0.13438979 0.03915553
-0.07701131 -0.09367296 0.0032870555 0.035758905 0.060369037 -0.139897 0.0038307833 -0.06684768
-0.033582725 -0.011405851 0.09626611 -0.1013803 0.090158425 -0.045270182 -0.13214721 0.10992
-0.09540635 0.011313955 -0.08519369 0.006155007 -0.056159034 0.0684263 -0.042687677 0.04499479
0.057545196 -0.15151215 0.0545604 -0.1444397 0.0689217 0.1594633 -0.002978857 -0.057792246
0.037701745 -0.0074172816 0.03831679 -0.03817642 -0.16459644 -0.03724086 -0.12547666 -0.036132723
0.0858376 -0.031306744 0.03510703 0.042331677 0.017873853 0.02910655 0.065609835 -0.07829565
-0.05748865 -0.023816405 -0.10825656 0.094200544 -0.030499091 -0.0061402274 0.0011519031 0.060780663
-0.08309803 -0.10306632 0.19363531 -0.07997282 0.07509456 -0.07595647 0.13656539 0.0038468174
0.084161386 0.015442799 0.027869409 0.049323868 0.018079754 -0.04229135 0.053141296 -0.0092493575
0.03566147 0.010719845 -0.10429898 -0.0245195 0.057739187 0.041776296 -0.017854925 0.11286418
-0.08121051 -0.133967 -0.052975524 -0.06520949 -0.23078929 -0.021066934 -0.013887556 0.06707044
-0.13875908 0.07444594 0.0811175 -0.13758545 -0.05087117 0.037953466 0.12969485 -0.117532246
0.013474727 0.02204692 0.043870345 -0.030658178 -0.03879136 -0.060817514 -0.106814764 0.079763055
0.012388746 -0.111080736 0.014124631 0.023046438 0.09038489 0.05277095 -0.02574503 0.06817409
0.037994385 -0.0030349693 -0.045983758 -0.13482468 -0.008827039 0.043392528 -0.016139038 0.0629811
-0.12821275 -0.069548056 0.07287508 -0.13593654 0.10173267 -0.074537605 -0.053488564 -0.018906282
-0.022107493 -0.14819518 -0.055474963 -0.0127280615 -0.093741246 0.035344146 0.0239804 0.041220233
0.036732446 -0.11261438 0.028993987 -0.060866605 0.13847268 0.039056454 0.057057526 -0.024364399
0.08644996 0.004417553 0.021462454 -0.02199818 -0.1591216 -0.114041194 0.031871933 0.006010833
-0.20925756 0.07420069 0.006571439 -0.13593297 -0.01084687 0.06499616 -0.08652064 -0.05821536
-0.02708299 -0.15155998 0.03272842 -0.07205829 0.03394826 -0.031710535 -0.0076229423 -0.11606242
0.048499 -0.07538708 0.024034983 0.034597 0.016761016 -0.1247837 0.021206096 -0.04468594
0.09762106 0.075544775 -0.10809416 -0.013767531 0.0029767512 -0.11314623 0.025080498 -0.09624975
0.08379376 -0.045017313 0.07978902 0.11218409 -0.11578481 -0.12197417 -0.02837134 -0.08025711
-0.17533207 -0.02245356 0.047965392 0.034164846 -0.07179299 -0.016340157 0.0030067845 -0.069877565
00000000: 7f9e acbd 47c3 8ebd 165a 2d3d 79d4 c639
00000010: 1993 c2bd 8e10 09bd fade 6d3c 5595 09be
00000020: 43f7 28bd ee71 07be 1cec b7bd 177a edbd
00000030: a7c3 20bd 80fb e03d e9c2 c83d 3a81 823b
00000040: eb91 c03a 40f7 063e 047e 96bc 8304 20be
00000050: fae9 88bd 9767 a7bd 8854 39bd 666e 3bbe
00000060: e3b5 753b b89d efbd 51c9 33bc f8d4 f43d
00000070: bc6f d6bc a9e1 dcbb 2985 03be a896 47bd
00000080: a6d3 bfbc fafc c1ba 7347 a5bc 0f77 523d
00000090: 78f4 84bd 5ea9 9cbd a2db 28b8 a02f ca3d
000000a0: 81c2 bd3d 0900 0dbe 8b00 c7bd 030a 9bbd
000000b0: 8704 eebd c91d 53bc 2c43 253d e776 923d
000000c0: 3e33 c53d eec7 4e3c 2cb3 eebd f0d2 b3bd
000000d0: 1600 ccbb d912 31be 7a9d 09be 8d61 203d
000000e0: 1bb8 9dbd 9cd7 bfbd a46b 573b ee77 123d
000000f0: 8645 773d 2941 0fbe e10d 7b3b 70e7 88bd
00000100: 0a8e 09bd 9bdf 3abc 2b27 c53d 7aa0 cfbd
00000110: fba4 b83d 3a6d 39bd 9951 07be bd1d e13d
00000120: 6864 c3bd 2b5e 393c 087a aebd f1af c93b
00000130: 0407 66bd 1723 8c3d 46d9 2ebd 754c 383d
00000140: 83b4 6b3d 0026 1bbe ba7a 5f3d 00e8 13be
00000150: d226 8d3d 594a 233e ed38 43bb 90b7 6cbd
00000160: 256d 1a3d ab0c f3bb 11f2 1c3d e15e 1cbd
00000170: f88b 28be df89 18bd f47c 00be e8ff 13bd
00000180: a0cb af3d 803b 00bd 64cc 0f3d fb63 2d3d
00000190: 306c 923c dc70 ee3c 735e 863d 7859 a0bd
000001a0: 3879 6bbd 9f1a c3bc 9eb5 ddbd 37ec c03d
000001b0: 3bd9 f9bc f633 c9bb 74fb 963a 25f5 783d
000001c0: 4d2f aabd 6f14 d3bd 5648 463e cac8 a3bd
000001d0: 2dcb 993d 118f 9bbd ccd7 0b3e e31a 7c3b
000001e0: ce5c ac3d cb03 7d3c 634e e43c d307 4a3d
000001f0: fe1b 943c b239 2dbd b0aa 593d 9e8a 17bc
00000200: c311 123d 4aa2 2f3c b49a d5bd 1edd c8bc
00000210: ed7f 6c3d 9f1d 2b3d 7e44 92bc 5625 e73d
00000220: b251 a6bd a52e 09be ddfc 58bd 8e8c 85bd
00000230: 0754 6cbe 9094 acbc a288 63bc 3a5c 893d
00000240: dc16 0ebe 1d77 983d ef20 a63d 33e3 0cbe
00000250: 4a5e 50bd 1875 1b3d bace 043e bfb4 f0bd
00000260: 1ac5 5c3c be9b b43c 64b1 333d dc26 fbbc
00000270: b0e3 1ebd c91b 79bd b3c1 dabd d05a a33d
00000280: 2bfa 4a3c 4c7e e3bd ff6a 673c e2cb bc3c
00000290: b71b b93d 5a26 583d 3ee7 d2bc db9e 8b3d
000002a0: 00a0 1b3d 56e6 46bb 7759 3cbd 7b0f 0abe
000002b0: 499f 10bc 5dbc 313d 0436 84bc 3cfc 803d
000002c0: 344a 03be 366f 8ebd 883f 953d f332 0bbe
000002d0: 3859 d03d 2ca7 98bd d316 5bbd 59e1 9abc
000002e0: c61a b5bc 7ac0 17be b739 63bd 5c89 50bc
000002f0: 69fb bfbd 06c5 103d 8b72 c43c 8cd6 283d
00000300: c374 163d 5ea2 e6bd cc84 ed3c 434f 79bd
00000310: c8cb 0d3e a9f9 1f3d 27b5 693d d997 c7bc
00000320: ad0c b13d 1fc1 903b 07d2 af3c 8735 b4bc
00000330: c6f0 22be 6e8e e9bd 258c 023d 86f6 c43b
00000340: 9d47 56be 88f6 973d 3a55 d73b 0332 0bbe
00000350: 12b7 31bc b51c 853d bc31 b1bd 3b73 6ebd
00000360: 26dd ddbc 8a32 1bbe 3c0e 063d 4c93 93bd
00000370: 550d 0b3d e8e2 01bd e0c9 f9bb 22b2 edbd
00000380: e3a6 463d 8b64 9abd 03e5 c43c 95b5 0d3d
00000390: 664e 893c 998e ffbd 68b8 ad3c 9b08 37bd
000003a0: 8ded c73d 38b7 9a3d 7960 ddbd 3691 61bc
000003b0: 9915 433b 36b9 e7bd 9e75 cd3c 971e c5bd
000003c0: 109c ab3d 1364 38bd 6d68 a33d c6c0 e53d
000003d0: 9620 edbd 98cd f9bd 036b e8bc d75d a4bd
000003e0: 408a 33be 87f0 b7bc 5c77 443d 70f0 0b3d
000003f0: 3408 93bd cbdb 85bc 790d 453b f81b 8fbd

layer.10.bias f4 [50]
-0.004804954 0.010267376 0.024244472 0.037057895 0.00029316748 0.023768036 0.010268436 -0.04346232
-0.008310008 -0.008471424 0.033138122 0.010486065 0.010275612 0.024035582 -0.027009837 0.035667922
-0.0434804 0.0033951662 -0.08054596 0.015693668 0.0129164215 -0.0154816825 -0.0004590371 0.010957506
0.0043260427 -0.03260544 -0.008427676 0.0108260345 0.025147015 0.055418264 0.010324313 0.016050613
0.002625437 0.012250868 0.018638812 0.01918645 -0.0005183352 0.006640626 0.037265446 0.049296908
-0.00730207 0.02128577 -0.008386414 0.0011535613 0.008339099 0.04537335 0.015395283 0.034101583
0.016298596 0.024620656
00000000: e072 9dbb 7f38 283c 589c c63c 05ca 173d
00000010: 46b4 9939 2fb5 c23c f13c 283c 8c05 32bd
00000020: b326 08bc bacb 0abc d7bb 073d bfcd 2b3c
00000030: 0a5b 283c 45e6 c43c bc43 ddbc 8718 123d
00000040: 8118 32bd 7081 5e3b 48f5 a4bd 0290 803c
00000050: 669f 533c e2a6 7dbc ebaa f0b9 1c87 333c
00000060: 7ac1 8d3b 488d 05bd 3c14 0abc ae5f 313c
00000070: 1d01 ce3c 43fe 623d 4f27 293c 937c 833c
00000080: 860f 2c3b ddb7 483c 6cb0 983c e72c 9d3c
00000090: e3e0 07ba 9c99 d93b a7a3 183d 8eeb 493d
000000a0: 3446 efbb 7f5f ae3c 2b67 09bc 1833 973a
000000b0: b7a0 083c 68d9 393d 7f3c 7c3c 1aae 0b3d
000000c0: a284 853c 42b1 c93c

layer.13.weight f4 [40, 50, 3, 3]
0.043864835 -0.06752643 -0.072385564 -0.014331577 0.025137043 -0.05329151 0.12222834 -0.021249183
0.02666888 -0.0023657754 0.024343146 -0.04150289 -0.026246075 0.15911745 0.05163345 0.057857383
0.17526793 0.01155654 -0.09065399 0.04345995 0.009583207 0.0017245194 0.039447647 0.037052933
-0.11259514 0.04871645 0.04211458 0.07769269 0.021140665 -0.034878865 0.12650412 0.22454864
0.092102565 0.18240379 0.14605205 0.024835182 0.015340084 -0.024162294 -0.0040370645 -0.042097747
-0.035133306 -0.106250435 0.008379958 -0.035610516 0.050259624 -0.006589608 0.06526039 0.14807712
0.07112558 0.022584736 0.102899864 0.03417732 0.11740398 -0.009058112 -0.06473477 -0.015291226
-0.17573808 -0.12373448 -0.14762996 -0.12421661 -0.09090004 -0.05114831 -0.16349258 -0.07924892
-0.12525097 0.019860938 -0.11651929 -0.07028059 -0.082949616 -0.18651755 -0.15887846 -0.084488966
-0.124712184 0.11001063 0.04846372 -0.14743195 0.0017491538 -0.04439435 -0.085840955 0.12038083
0.017570995 -0.14711092 -0.06881422 -0.05764515 -0.09103417 -0.038524434 0.028240385 -0.16583778
0.009333366 -0.19723053 0.03215426 -0.060235977 -0.022629326 -0.018588953 -0.07265983 0.06232274
0.022641238 -0.0638625 -0.04217265 -0.026892835 0.0318177 0.006736893 0.017270843 0.100644246
0.09977926 0.057151824 0.019279636 0.081231445 0.05272007 -0.09587633 -0.17939934 -0.03388868
0.026676232 -0.14466274 -0.081286184 0.07982712 -0.041984614 0.11196441 0.15582345 -0.028211592
0.1272702 0.058643937 0.08903126 0.048686195 -0.044087153 -0.00092019787 -0.04173488 -0.016151907
-0.021715682 -0.009355814 -0.113005325 0.033215135 0.004307823 -0.03447719 -0.05281798 0.009996047
0.016515613 -0.010895527 -0.03188527 -0.036437284 0.10259091 0.0059852297 0.010648306 -0.0009020038
-0.022778591 -0.010022669 0.051611096 0.037909675 -0.017670432 -0.13034862 -0.023952648 -0.023451598
0.029643644 0.06041966 -0.05332301 -0.07816491 -0.10482953 0.14322133 -0.10198893 -0.07720332
-0.10860093 0.023611126 0.002288449 -0.004348989 -0.09779991 -0.058334008 -0.009896125 -0.03522086
-0.10114745 -0.015239029 0.08291663 -0.08145207 -0.067755245 0.0017407626 -0.10354902 0.096201636
0.0730774 0.016334862 -0.07340674 0.00037433996 -0.0021320095 -0.005098814 0.043167394 0.06766993
0.09669044 0.07727757 -0.02886898 0.07914317 0.054270517 -0.085609905 0.038640205 -0.04163751
-0.21154974 -0.025551852 -0.10958923 -0.12818557 -0.07387993 -0.12891755 -0.07512012 -0.031245844
0.010677177 -0.2871224 -0.061271556 -0.063738786 -0.14883704 -0.17958733 -0.24468127 -0.15832953
0.07437106 0.006869477 -0.21917586 0.021702051 -0.06217452 -0.036879703 0.07775707 -0.1039063
-0.046449088 -0.041335605 0.060312953 -0.040754087 -0.0250958 -0.046681955 0.01670144 -0.12773757
-0.05624083 -0.07747277 -0.008468117 -0.002519363 -0.11913719 0.0071277292 0.007874497 -0.042567734
-0.1598123 0.044651266 -0.017298618 -0.015617566 0.086615376 -0.048990894 -0.1541107 -0.00074614387
-0.12261712 0.035549875 -0.014739413 -0.0043215575 -0.106726505 -0.22080094 0.010973573 -0.0348517
-0.08127337 0.05567865 0.02608269 -0.030521596 -0.18632999 -0.13798295 -0.00012530522 -0.24078242
00000000: 9dab 333d 4c4b 8abd e23e 94bd fece 6abc
00000010: 33ec cd3c 3348 5abd da52 fa3d c412 aebc
00000020: b278 da3c 200b 1bbb 476b c73c effe 29bd
00000030: 0202 d7bc afef 223e 997d 533d ddfb 6c3d
00000040: 7079 333e a457 3d3c cda8 b9bd 0f03 323d
00000050: e202 1d3c 4509 e23a db93 213d d1c4 173d
00000060: 4898 e6bd e68a 473d 5680 2c3d 581d 9f3d
00000070: 302f ad3c 24dd 0ebd 4c8a 013e 14f0 653e
00000080: 45a0 bc3d 0fc8 3a3e ab8e 153e 2773 cb3c
00000090: fa54 7b3c 01f0 c5bc 5a49 84bb b06e 2cbd
000000a0: f1e7 0fbd d499 d9bd 174c 093c 55dc 11bd
000000b0: 09dd 4d3d a3ed d7bb 3da7 853d 87a1 173e
000000c0: 4aaa 913d a003 b93c 2abd d23d 84fd 0b3d
000000d0: 7f71 f03d 7a68 14bc aa93 84bd 0d88 7abc
000000e0: aff4 33be 8168 fdbd 4f2c 17be 4765 febd
000000f0: cd29 babd e480 51bd 996a 27be 424d a2bd
00000100: ca41 00be 68b3 a23c aaa1 eebd 45ef 8fbd
00000110: 7de1 a9bd 75fe 3ebe 09b1 22be 8d08 adbd
00000120: 1a69 ffbd 414d e13d e581 463d 67f8 16be
00000130: dd43 e53a dad6 35bd 62cd afbd 398a f63d
00000140: 0cf1 8f3c 3fa4 16be 78ee 8cbd 521d 6cbd
00000150: 1f70 babd cccb 1dbd 6158 e73c 61d1 29be
00000160: f9ea 183c cdf6 49be 2fb4 033d 00ba 76bd
00000170: 2361 b9bc dc47 98bc adce 94bd 2146 7f3d
00000180: 1e7a b93c 58ca 82bd 3bbd 2cbd 5d4e dcbc
00000190: 4753 023d 28c1 dc3b 957b 8d3c 921e ce3d
000001a0: 1259 cc3d 0818 6a3d 54f0 9d3c ac5c a63d
000001b0: 00f1 573d cf5a c4bd 76b4 37be dbce 0abd
000001c0: 1d88 da3c 7822 14be 5f79 a6bd 677c a33d
000001d0: 0ff8 2bbd 994d e53d 2f90 1f3e ff1b e7bc
000001e0: 1f53 023e a034 703d 0556 b63d 2d6b 473d
000001f0: bb94 34bd 6f39 71ba 32f2 2abd 0151 84bc
00000200: 16e5 b1bc 2149 19bc 566f e7bd 980c 083d
00000210: a328 8d3b f437 0dbd ab57 58bd 76c6 233c
00000220: c04b 873c 2783 32bc 219a 02bd 433f 15bd
00000230: 2f1b d23d bf1f c43b 3c76 2e3c 7374 6cba
00000240: 2b9a babc 1f36 24bc 2866 533d 2d47 1b3d
00000250: 95c1 90bc 1c7a 05be 5838 c4bc 911d c0bc
00000260: 3ad7 f23c 9b7a 773d 3b69 5abd ed14 a0bd
00000270: ddb0 d6bd 9da8 123e 92df d0bd c61c 9ebd
00000280: 2a6a debd 1f6c c13c cef9 153b f781 8ebb
00000290: 524b c8bd a4ef 6ebd 5b23 22bc c043 10bd
000002a0: 6526 cfbd 1fad 79bc 32d0 a93d 58d0 a6bd
000002b0: 43c3 8abd 4d2a e43a 8211 d4bd 5d05 c53d
000002c0: 9ba9 953d b0d0 853c 4656 96bd 0f43 c439
000002d0: 2fb9 0bbb f413 a7bb 4bd0 303d 8896 8a3d
000002e0: a305 c63d b443 9e3d a47e ecbc d015 a23d
000002f0: c34a 5e3d 3f54 afbd 3145 1e3d 188c 2abd
00000300: 7fa0 58be 1e52 d1bc 5170 e0bd 1443 03be
00000310: 5c4e 97bd f602 04be 94d8 99bd 49f7 ffbc
00000320: 54ef 2e3c b501 93be e2f7 7abd 7b89 82bd
00000330: bd68 18be bee5 37be ba8d 7abe 2321 22be
00000340: db4f 983d 5a19 e13b a36f 60be 80c8 b13c
00000350: b6aa 7ebd 2c0f 17bd 193f 9f3d d4cc d4bd
00000360: 6641 3ebd 864f 29bd b70a 773d c2ed 26bd
00000370: b595 cdbc 9435 3fbd 75d1 883c a3cd 02be
00000380: c95c 66bd 0baa 9ebd dbbd 0abc e61b 25bb
00000390: 33fe f3bd ba8f e93b 0904 013c 815b 2ebd
000003a0: d6a5 23be 3fe4 363d d5b5 8dbc d2e0 7fbc
000003b0: 6763 b13d adaa 48bd 32cf 1dbe de98 43ba
000003c0: af1e fbbd bf9c 113d 947d 71bc da9b 8dbb
000003d0: 6d93 dabd a419 62be 80ca 333c a8c0 0ebd
000003e0: a772 a6bd 4c0f 643d 5eab d53c 6d08 fabc
000003f0: 4acd 3ebe 674b 0dbe 5d64 03b9 ab8f 76be

layer.13.bias f4 [40]
0.017602736 -0.0047328398 -0.0067546866 0.0016113892 -0.008386006 -0.019776374 0.03353038 0.014518903
-0.008403691 -0.017562978 0.026156269 0.025719387 0.023463674 -9.87665e-05 0.010821495 0.018965144
0.00080429966 0.0069711474 0.008215906 -0.015283762 -0.029672664 0.010358147 -0.027352644 0.026323596
-0.02174792 -0.018305402 -0.01552158 0.022579817 0.00478466 -2.4454663e-05 0.006697585 0.008072127
0.00021385819 -0.028121019 -0.020796325 -0.0048150374 -0.0389569 0.0025787856 -0.0050419257 -0.023262395
00000000: 9d33 903c f015 9bbb 6b56 ddbb 4035 d33a
00000010: 7565 09bc 1002 a2bc 2757 093d b1e0 6d3c
00000020: a3af 09bc 3ce0 8fbc ac45 d63c 77b1 d23c
00000030: e436 c03c dc20 cfb8 a44c 313c ca5c 9b3c
00000040: a3d7 523a 396e e43b 029c 063c be68 7abc
00000050: 1614 f3bc 38b5 293c a712 e0bc 95a4 d73c
00000060: b228 b2bc 36f5 95bc 3a4e 7ebc 4ff9 b83c
00000070: a3c8 9c3b fd23 cdb7 6a77 db3b f440 043c
00000080: 1f3f 6039 0d5e e6bc 0e5d aabc 76c7 9dbb
00000090: 4591 1fbd d800 293b bd36 a5bb c790 bebc

layer.17.weight f4 [40, 40, 3, 3]
-0.041464183 0.012541872 0.017055815 -0.07387608 0.11065152 -0.018089758 0.053610858 0.053843845
0.12108126 0.18105327 -0.044213463 -0.053857207 0.093849845 0.0075642182 -0.16314459 0.046167627
0.09694414 -0.019500293 -0.018828372 0.013677122 -0.08279941 0.048645634 -0.055349622 0.087549865
0.05276052 -0.083576 0.0683733 0.05292434 -0.108184285 0.011651153 0.05234316 -0.082265094
-0.20373747 0.08853422 -0.1418507 -0.1989507 0.08438311 0.0020715331 0.12354457 0.026604837
0.059781566 -0.1188316 0.09104399 0.038228 0.07122282 -0.004911576 0.14340739 -0.007094949
0.11711131 0.011396694 0.03782119 0.060612593 0.022486318 0.16170348 -0.12822852 0.019804314
0.111777954 0.03718068 0.11341591 0.09624213 -0.06081774 0.1746046 -0.027102744 0.016498398
-0.25683966 -0.09275886 0.039801266 -0.15963243 -0.117652915 -0.06769654 -0.15258688 0.074094705
0.03359152 -0.09932872 -0.039124165 0.17955875 -0.027715264 0.004775857 0.098460376 -0.2275614
0.04519632 -0.09039571 -0.0945496 0.07150129 0.048580747 0.052188236 0.13322464 -0.05961844
-0.02015116 0.18118139 0.042600952 -0.086292736 0.05636925 -0.028545512 0.0842219 -0.0030005272
0.09833966 0.06519426 -0.04321193 -0.049219858 0.0006067121 -0.08243515 0.060574282 -0.07244298
-0.003680007 0.00092803326 0.13510412 0.06624514 0.06743562 -0.120535105 -0.030559085 0.12781198
0.014618985 0.08748735 -0.0012690577 0.05068813 0.028198736 0.070601605 -0.08400518 -0.104286216
-0.058725707 -0.036859322 0.013436278 0.016002242 -0.07359363 -0.08456808 0.109598964 0.049387526
-0.062709406 0.23517661 -0.04139511 -0.16738808 0.09226424 -0.060787294 -0.17096555 -0.094588734
-0.0859454 -0.060951464 0.103453815 -0.037909526 -0.017953346 -0.005960939 0.032723762 0.053835128
0.021923667 -0.021842452 -0.028466592 -0.00091174507 -0.17207074 -0.024374587 0.015402967 -0.01878704
-0.06552774 -0.014531819 0.05533712 -0.21410862 -0.07754158 -0.04617652 -0.11990758 0.18028578
-0.013823286 -0.10161803 0.17540464 0.003272101 -0.010543903 -0.0057419986 -0.034264073 -0.010822787
-0.110139325 -0.15233588 -0.13674414 0.046545416 -0.026280258 -0.09333881 0.10376016 -0.10728862
-0.1784623 0.062662706 -0.077077374 -0.22618993 -0.0011596435 0.026589254 0.011777567 -0.046986036
0.06839851 -0.14199305 -0.020051556 -0.07946688 -0.0063909674 -0.03174775 -0.06406609 0.009957557
0.0795195 0.016562842 0.01337098 0.05900202 0.008274398 0.118738145 -0.015497276 -0.0050176964
0.09463524 0.07646357 -0.029913872 0.087394744 -0.025236385 0.0407957 0.074657485 0.12137638
0.050088886 -0.04184925 0.068980664 0.040442776 -0.16037858 0.008091416 0.09696628 -0.09390345
0.092051424 0.18482079 0.016750053 0.13707297 0.05679042 -0.06543825 0.08173032 -0.003253355
-0.058891572 0.017761173 0.095487215 -0.19473028 -0.023263369 -0.17163901 -0.050023466 -0.035795573
-0.11101843 -0.13062304 0.024637396 -0.0894437 0.03640496 0.0978313 -0.032706186 0.11032347
0.03496224 -0.16425198 0.10966326 0.046576206 -0.026462238 0.11696318 0.15556902 -0.055428747
0.13490927 0.019053273 -0.06278414 0.041137427 0.19865084 0.07072944 0.029546563 -0.035336487
00000000: 59d6 29bd 6d7c 4d3c a3b8 8b3c 584c 97bd
00000010: 449d e23d f930 94bc 0f97 5b3d 5d8b 5c3d
00000020: 74f9 f73d 0766 393e 2d19 35bd 6099 5cbd
00000030: 5934 c03d 43dd f73b 600f 27be 441a 3d3d
00000040: a68a c63d 14bf 9fbc f53d 9abc 0216 603c
00000050: bd92 a9bd a540 473d 49b6 62bd 584d b33d
00000060: 6a1b 583d e529 abbd 4d07 8c3d 31c7 583d
00000070: b98f ddbd 7ae4 3e3c c865 563d 9a7a a8bd
00000080: 8ea0 50be 6e51 b53d 4f41 11be bbb9 4bbe
00000090: 0dd1 ac3d 8fc2 073b ef04 fd3d 63f2 d93c
000000a0: 84dd 743d fb5d f3bd 4575 ba3d f794 1c3d
000000b0: 45dd 913d 49f1 a0bb 63d9 123e bf7c e8bb
000000c0: 0ed8 ef3d 33b9 3a3c 64ea 1a3d e944 783d
000000d0: 3a35 b83c 9995 253e 564e 03be a83c a23c
000000e0: d7eb e43d c54a 183d 9a46 e83d 981a c53d
000000f0: 061c 79bd 8ccb 323e 9306 debc a627 873c
00000100: 7d80 83be 5bf8 bdbd a706 233d af76 23be
00000110: 03f4 f0bd 7ca4 8abd bc3f 1cbe f7be 973d
00000120: 4397 093d db6c cbbd a940 20bd 40de 373e
00000130: 1f0b e3bc cb7e 9c3b 98a5 c93d db05 69be
00000140: c71f 393d 6321 b9bd 38a3 c1bd 456f 923d
00000150: 9bfc 463d 55c3 553d 0a6c 083e 7732 74bd
00000160: 0c14 a5bc 9d87 393e 567e 2e3d 3fba b0bd
00000170: 71e3 663d 47d8 e9bc 887c ac3d 7ea4 44bb
00000180: 4e66 c93d 9184 853d fefe 30bd c39a 49bd
00000190: c30b 1f3a c3d3 a8bd bd1c 783d fc5c 94bd
000001a0: 462c 71bb 4247 733a bc58 0a3e 88ab 873d
000001b0: b01b 8a3d 1cdb f6bd 0c57 fabc 25e1 023e
000001c0: 7884 6f3c 912c b33d 8356 a6ba 5b9e 4f3d
000001d0: 0901 e73c 9397 903d e80a acbd 0394 d5bd
000001e0: 5e8a 70bd cdf9 16bd d623 5c3c 2217 833c
000001f0: 42b8 96bd 0832 adbd 6c75 e03d 934a 4a3d
00000200: ca6d 80bd 23d2 703e eb8d 29bd c867 2bbe
00000210: 09f5 bc3d 19fc 78bd 9811 2fbe bdb7 c1bd
00000220: 2404 b0bd 3ea8 79bd 98df d33d 0547 1bbd
00000230: e512 93bc fb53 c3bb 5a09 063d 3982 5c3d
00000240: 4399 b33c f1ee b2bc c532 e9bc 2d02 6fba
00000250: 5033 30be 37ad c7bc ba5c 7c3c 47e7 99bc
00000260: 6833 86bd de16 6ebc 2da9 623d 4a3f 5bbe
00000270: 1fce 9ebd 9723 3dbd 1b92 f5bd d69c 383e
00000280: 107b 62bc 1d1d d0bd 469d 333e bf70 563b
00000290: 56c0 2cbc 6027 bcbb 7c58 0cbd 0f52 31bc
000002a0: ba90 e1bd f0fd 1bbe a806 0cbe 68a6 3e3d
000002b0: b249 d7bc 6b28 bfbd 3580 d43d 23ba dbbd
000002c0: d2be 36be 4e55 803d beda 9dbd 559e 67be
000002d0: 2eff 97ba b5d1 d93c b2f6 403c 6e74 40bd
000002e0: 8514 8c3d a066 11be 2943 a4bc 88bf a2bd
000002f0: 526b d1bb ee09 02bd 1535 83bd 0525 233c
00000300: 1fdb a23d ccae 873c f411 5b3c 1aac 713d
00000310: 5791 073c fc2c f33d 49e8 7dbc 7d6b a4bb
00000320: 1fd0 c13d ef98 9c3d f00d f5bc 04fc b23d
00000330: 89bc cebc 6419 273d 06e6 983d 2e94 f83d
00000340: 012a 4d3d 1f6a 2bbd bc45 8d3d 53a7 253d
00000350: 483a 24be dc91 043c 4296 c63d 7450 c0bd
00000360: 7585 bc3d a941 3d3e 6837 893c db5c 0c3e
00000370: 129d 683d 7d04 86bd 3a62 a73d 3d36 55bb
00000380: 4a38 71bd e17f 913c cd8e c33d 6067 47be
00000390: d292 bebc 23c2 2fbe 68e5 4cbd 619e 12bd
000003a0: a15d e3bd 0cc2 05be 5dd4 c93c 422e b7bd
000003b0: 5e1d 153d c75b c83d ecf6 05bd 45f1 e13d
000003c0: 9134 0f3d ac31 28be 2297 e03d b1c6 3e3d
000003d0: 56c7 d8bc 648a ef3d 7c4d 1f3e 4109 63bd
000003e0: a825 0a3e 9c15 9c3c f994 80bd b87f 283d
000003f0: 206b 4b3e 99da 903d a20b f23c febc 10bd

layer.17.bias f4 [40]
-0.0028894432 -0.005245227 0.015215833 0.0027622024 0.0021315182 0.059602503 -0.04093526 0.022115957
-0.026976565 0.04055518 -0.019279463 0.014716374 -0.025541259 0.042483006 -0.022552019 0.05448429
-0.027106551 -0.014712669 0.0017355963 -0.019624017 -0.014657998 0.042468622 0.011596888 -0.018281568
-0.009949225 0.0028554772 -0.01081787 -0.021696523 -0.011061325 0.010418527 -0.013097756 -0.038329184
0.042556368 0.0416343 -0.003019464 0.010396487 0.010952963 0.008619028 -0.038435537 -0.048321664
00000000: d05c 3dbb 27e0 abbb d44b 793c 1106 353b
00000010: f1b0 0b3b c121 743d bbab 27bd 862c b53c
00000020: f5fd dcbc 301d 263d f7ef 9dbc f21c 713c
00000030: e73b d1bc a902 2e3d 03bf b8bc eb2a 5f3d
00000040: 8f0e debc 680d 71bc f37c e33a 8cc2 a0bc
00000050: 1a28 70bc 94f3 2d3d e000 3e3c 3ac3 95bc
00000060: 1302 23bc f522 3b3b 6f3d 31bc e8bc b1bc
00000070: 8f3a 35bc 78b2 2a3c f897 56bc 10ff 1cbd
00000080: 964f 2e3d ba88 2a3d 33e2 45bb 0756 2a3c
00000090: 0e74 333c d336 0d3c 956e 1dbd f0ec 45bd
