CNN Models/OU_JYH_Weights.pt (torch_old, 815025 bytes, 22 tensors)

layer.0.weight f4 [50, 3, 3, 3]
00000000: 06b2 d33d 9992 033d 8856 233f f275 b4be
00000010: 86be f9bd fba1 2d3e 4da1 783e 421a 193f
00000020: 37b2 24be 6838 54bd ab1a a83e 899b cabe
00000030: 8093 6abe 674e 90be 55ce b33d d042 863d
00000040: 3bc0 cdbe 5e19 b0be cb4b 0a3e fcd6 5bbe
00000050: 72a1 45be 7f40 87bc 68b1 e1bd 1a3a a5bb
00000060: 1df0 30be 2080 5c3d 4416 c33e cbaf c4be
00000070: d7dd c2bd af39 e3bd 7242 263e e5fe a2bd
00000080: 9b20 90be 4742 d53d e20a d93d fd1e 46be
00000090: be34 f7bd 4605 05bd d6b0 ffbb ea02 733e
000000a0: 6798 183f a04b d53e 1b65 ff3e 2291 6c3e
000000b0: da2b e8be 5b75 17be f06c 15bf c6d8 d03d
000000c0: 6428 ca3d 3d17 90bd 0b43 c1bd 2bd8 adbe
000000d0: 43ea 82be 0d0d 843c 305b 083e 7cb9 8d3e
000000e0: bd1b 2d3c 737a bb3e fa5a eabd b062 8dbe
000000f0: 36c9 edbd 0637 2c3f 688d 7d3e 10a7 073d
00000100: 66d5 af3d a1a4 153e aac7 eabd 9595 8abc
00000110: e78e a2be e2c4 4abe 2d1a c83e ccdd 66bd
00000120: ef15 1f3e f073 14bf 7deb 04bf 43ce 983d
00000130: 7b43 04bd eb58 4c3e ff64 19bf 8d56 453d
00000140: 34fc 293d 3225 8ebe ed2a 853d 2b48 70be
00000150: 29d9 7f3d c1ab 383e cc53 a3be 536d 1a3e
00000160: 808a 613e 08a0 afbd 7c84 35be 4dc4 c03d
00000170: 948c 3ebc 341f d7be 0b0a 123d 1597 67be
00000180: 5aab 1e3e 445e 953e 5173 153e b4ab 9a3e
00000190: 768b b23d bdfd 99be 39ff 4f3e 4810 aa3c
000001a0: 3e10 4abe 96df bebd 079e 443d 0b23 c5bd
000001b0: cf7c ecbd 2458 9bbe 481d 8fbc 25eb 1bbf
000001c0: d131 40be edc7 4f3e 9f5f 803e 8024 d4bd
000001d0: f899 1c3e eae5 74be 352a 7bbe fe9a 87be
000001e0: 1fc2 09bf 3e8d e3be 8fb2 87be 899c b63e
000001f0: 118a e93e b9c0 f53e dcf7 a9be c9e8 0a3f
00000200: b395 c03e a663 f8bc 83c2 f83d 843c 233e
00000210: 9611 0cbe 1124 a83d 1ee7 ac3c 2cfe 893e
00000220: 8a0f fd3e 561e 493d 1e4a 8cbd 67c4 3abe
00000230: 72e6 24bf f37a b9be 3c4c ff3d 4659 6f3e
00000240: 602c 723e a4c6 fabc a5f3 0fbe 7688 e13e
00000250: 07f2 e0be d19d 1ebd d666 abbe ddde 60bc
00000260: 7c2c dfbc 05b7 07be d818 0abe 8340 263e
00000270: 7002 a03e 1905 8dbe b6d8 3a3e 0ecc bdbb
00000280: d70b 163d 8c5a b33c ac10 313d e7c9 873d
00000290: 7aba 503e fd6b 50bd c873 d83d aee1 2f3e
000002a0: 7e91 cb3e cda4 113f dc4f 6fbe 4c96 3a3e
000002b0: 8765 8c3e 4e8d db3c b114 b23e 4c00 cb3d
000002c0: dcbb 9a3d 4dc0 52bf b029 cfbc 7415 cfbe
000002d0: cf1d ba3d abc9 47be 21e1 98be dfc4 56bf
000002e0: 32e1 59be a85d 11be 6cc7 8bbe 455b 073d
000002f0: 6b98 35bd b60a 03be 0a79 873c 7aed 8bbe
00000300: 2faf b33c 542b c13d 5e84 b5be d46b 9bbc
00000310: 6331 8f3e 0c18 163d 2a8d 013f 5c99 3bbe
00000320: bb01 61be d612 5d3e d204 80bd 2840 e9bd
00000330: f310 0c3f aa6a 7fbc 8f6f a5be dd91 433d
00000340: 9499 373d 9ff0 22be 4d20 88bd dc33 b7be
00000350: 66df e7bc c564 ecbe 9a1a e6bd 373f e63e
00000360: ff28 733e a6b9 ab3e 7b5d dd3d 746b c53e
00000370: 88f8 57be 5d4b b6be 93da a5be 06ae 9e3e
00000380: b0d7 7a3d af23 413f 0cea 94bd dcd9 debe
00000390: c256 89be 134f 0dbc 0c5c 2bbe 2a08 2bbd
000003a0: 9669 133d 26e6 5dbe a316 943e 46b6 6c3d
000003b0: 29ec 1ebe de9d 0fbd baf5 c1bd adb2 cebe
000003c0: cf5a e7be 682f 1c3e 119e c6be 3e18 35be
000003d0: 1d9c 73be 8004 9c3e be46 8abe 7d51 b3be
000003e0: 2f03 36bd 1c16 bfbc 3a49 043d b63a afbd
000003f0: fee1 b8bd a10d 4abe b704 92be 9ec5 6bbe
0.1033669 0.03212223 0.6380391 -0.35246235 -0.121945426 0.16956322 0.24280281 0.5980569
-0.16083609 -0.051811606 0.32832846 -0.3957179 -0.2290783 -0.28184816 0.08779589 0.06555712
-0.40185723 -0.34394354 0.13505475 -0.21468729 -0.19299868 -0.016510246 -0.11020166 -0.0050423266
-0.17279096 0.053833127 0.38102925 -0.3841537 -0.09514969 -0.11094987 0.16236284 -0.079587735
-0.28149876 0.10413032 0.10597779 -0.19347759 -0.12070607 -0.032475732 -0.007803063 0.2373158
0.5960755 0.4165926 0.49881825 0.23102239 -0.45345956 -0.14790861 -0.5836935 0.10197596
0.09870985 -0.07035682 -0.094366156 -0.33953986 -0.25569353 0.016119504 0.13316035 0.27680576
0.010565695 0.3661686 -0.11443134 -0.27614355 -0.116106436 0.6727146 0.24760973 0.033118308
0.085856244 0.14613582 -0.11463864 -0.01691703 -0.3174965 -0.19801667 0.3908247 -0.056363866
0.15535711 -0.57989407 -0.51921827 0.07461216 -0.032290917 0.19955795 -0.5991973 0.048178244
0.041500285 -0.27762753 0.06502328 -0.2346503 0.06246296 0.18034269 -0.3189987 0.15080766
0.2202549 -0.085754454 -0.1772632 0.094124414 -0.011630196 -0.42015994 0.03565411 -0.22616227
0.15495053 0.2917348 0.14594771 0.30209124 0.08718006 -0.300764 0.20312203 0.020759717
-0.19732758 -0.093199894 0.04800227 -0.096258245 -0.11547243 -0.30340683 -0.017470017 -0.6090568
-0.18769003 0.2029111 0.25072953 -0.10358524 0.1529311 -0.2391583 -0.2452782 -0.26485437
-0.5381183 -0.44443697 -0.26503417 0.35666302 0.4561315 0.47998598 -0.33196914 0.5426145
0.3761421 -0.030320954 0.12146475 0.15941054 -0.13678584 0.08210004 0.021106299 0.2695173
0.49425918 0.049101196 -0.06850074 -0.18238984 -0.6441413 -0.36226615 0.124657124 0.23373899
0.2364974 -0.030612297 -0.14057787 0.44049424 -0.43934652 -0.038724724 -0.33476895 -0.01372501
-0.027242891 -0.1325341 -0.1348604 0.16235547 0.3125186 -0.27542952 0.18246731 -0.0057921475
0.036632385 0.021893762 0.04322879 0.06630307 0.20383635 -0.050884236 0.105689585 0.17175934
0.3975944 0.5689209 -0.23370308 0.18221396 0.2742121 0.026800778 0.3478141 0.09912166
0.075553626 -0.8232468 -0.025288433 -0.40446055 0.09087717 -0.19510524 -0.2985926 -0.8389415
-0.21277311 -0.14195883 -0.27300584 0.033046026 -0.04433481 -0.12797055 0.016537208 -0.27329618
0.02193412 0.09432092 -0.3545255 -0.018972315 0.27967367 0.036644027 0.50606024 -0.1832022
-0.21973316 0.21589217 -0.062509194 -0.1138919 0.5471336 -0.015589396 -0.32311675 0.047746528
0.044824198 -0.15912102 -0.06646786 -0.35781753 -0.028304767 -0.4617063 -0.112355426 0.44970104
0.23746108 0.33540076 0.108088456 0.38558543 -0.21090901 -0.35604373 -0.3239332 0.30992144
0.061240852 0.75445074 -0.072712034 -0.4352559 -0.26824003 -0.00862481 -0.16734332 -0.041755833
0.035989366 -0.21669826 0.2892352 0.057791017 -0.15519775 -0.035062663 -0.09470697 -0.40370694
-0.4518647 0.15252459 -0.3879247 -0.17685029 -0.23790021 0.30472183 -0.27007097 -0.35023108
-0.04443663 -0.023325972 0.032296397 -0.0855612 -0.090274796 -0.19731762 -0.28519222 -0.23024604

layer.0.bias f4 [50]
00000000: 8f57 843a 33e4 a2ba f945 05bd d89b 3d39
00000010: 1e5b c03b 62f1 c939 7f49 fb3a fb5f b139
00000020: 9a3d 5c3a 775f 463b 438d d73a 04d8 603b
00000030: bdce 2c3a f1e7 d03c 2b76 91bc 713d 963a
00000040: 5624 833a 402d e6ba 16d8 333a 11bd 65ba
00000050: 0b9a e8ba 3ad2 82ba 32b0 a5b9 478e 28bc
00000060: 8e65 9a39 278a d6bb 0d59 213b 8f3d 683c
00000070: 512c 3e3b fb0d 9f3b 02d8 4b3a 2bfe 9c3b
00000080: 85f5 c43a 26b2 c3ba 653a 1b3b 732b cc3b
00000090: eee6 813b 2f41 563a 1e0d ca3a 44d6 6d39
000000a0: 337f 5fbb a4b5 423a c9dc 2e3a c641 743b
000000b0: 5d69 a6bd 0a2d a73b fb05 fb39 1cd2 27ba
000000c0: 4cdb 9b39 a443 2f38
0.0010096895 -0.0012427628 -0.032537434 0.00018082501 0.005870237 0.00038517552 0.0019171684 0.00033831582
0.00084015133 0.0030269304 0.0016445298 0.0034308443 0.00065920857 0.025501223 -0.017756542 0.0011462403
0.0010005336 -0.0017561093 0.00068605074 -0.000876383 -0.0017746104 -0.0009980865 -0.00031602528 -0.010287828
0.00029448833 -0.0065472308 0.0024619729 0.014174833 0.0029018114 0.0048539615 0.0007776023 0.0047910414
0.0015026784 -0.0014930412 0.002368593 0.0062307655 0.0039642965 0.0008173165 0.0015415286 0.00022681901
-0.0034102916 0.0007427579 0.0006670473 0.003727065 -0.08125565 0.0051018046 0.00047878906 -0.0006401853
0.00029727293 4.1786247e-05

layer.4.weight f4 [50, 50, 3, 3]
00000000: 44dc 90bd e65e cb3c f7f6 7d3d 1536 0cbd
00000010: b360 dc3c 1504 7abd 91c8 363d 6c59 4ebd
00000020: 8954 073e d6d8 24bb d6cc 0a3d fd59 49bb
00000030: 760f c1bd f198 0fbc 252e b73c 6430 15bc
00000040: cade abbc b8ef c93d 27d3 a03d 928a 3bbc
00000050: e49a 263c 4f6e 5ebd 8eda 95bd b254 a6bc
00000060: ad50 45bd cafc 813c c274 82bd a6bd 9d3c
00000070: 7e5d 4d3d d92d 65bd 37c6 d23a 51c0 ee3c
00000080: e7f9 abbd a836 dcbc 9120 033e 0130 9ab8
00000090: 95a1 0e3d 9bc3 123d cc0d a4bd 3131 893c
000000a0: 6e08 95be 158c bcbd fcf1 bcbd 9eb9 213d
000000b0: 20bf 8c39 d439 60bd dad6 f5bc a68c f03c
000000c0: 4dfe f1bc a3b9 b9bc 873d 16bd 200e fa3b
000000d0: 36a7 27be 8675 c03d e078 80bc 9ac0 10bd
000000e0: db7a 973c 9538 02bd cbd1 aa3d 607b 61bd
000000f0: 003a c53c 0639 5f3d fc8e a2bb 6f5f b8bd
00000100: 8ccc 57bd 5705 233b 9fc9 41bd c9a0 003d
00000110: a45f 95bc acb4 13bd e66d cdbd 8845 ae3d
00000120: dedd ccbc 9952 10bd b848 fcbd e52a 853a
00000130: d770 173e 2430 b53d f147 b13c 51fd e0bd
00000140: 21c9 06bc 494d e3bd 6b9b 293e 8759 5abd
00000150: 7f91 4b3d 027b 9bbe 9010 76bc ac67 03be
00000160: 0e44 953d fc08 103d 658a b8bd ae6d 553e
00000170: 9ac6 96bd 56da a03c ff46 2a3e 1d30 cdbc
00000180: 076f b23d 511a d33d 12e7 0abd 0311 dabd
00000190: 4a35 133e 0eda 773d 6f3c b23d e6e3 203e
000001a0: a646 8fbb ae7b 9bbd 4d02 283e e2cb d4bc
000001b0: 4bdb 39bd 8ecf 023e 58e0 113d ca29 6b3d
000001c0: a617 963d 91db 3cbe 9714 7ebc 007b debd
000001d0: 8166 e83c f280 24be de12 2a3d b9a5 1c3e
000001e0: 253b 82bd 0f62 2fbc c8a9 7cbd 228c 4b3c
000001f0: 427f 19be 2c29 0f3d 4add fdbc 11e8 06bd
00000200: 4e69 d63c 7584 cebd 86b8 e0bc b9ed aebc
00000210: fc91 b1bd 846c 22be fea8 03bd cafc f1bd
00000220: fd79 c7bd b6fe 31bd 25eb 053e 0a02 863e
00000230: 0971 c73d 1fa6 663e e76f 353e 74d7 03bd
00000240: 0f1e 38bd 9201 ef3d 4e32 d33d e1ce 1fbd
00000250: 7a98 14bd 09ad 75bd 49aa 57bd e719 ffbd
00000260: 59be 0c3d 2744 f13b c484 743c aba7 d13d
00000270: 09ac 893c c2f4 9c3c d23f 2c3d 3035 043b
00000280: 5dfe 8e3c 5c52 2bbd 16bf 30be 9621 bdbc
00000290: d5d8 103e 6b12 2f3d da93 9f3d d259 5cbd
000002a0: ee4d 97bd 3e79 bb3d b85c 25bd 1756 ac3c
000002b0: 57b8 75bd 8e7b 1a3d 6a14 a7bd 538d 2bbc
000002c0: c166 393d 8cae ae3c b114 59bd ad6d 8cbc
000002d0: 8d09 68bd 546c 793d 472c 493c 24b0 be3c
000002e0: abb8 d43d dbe4 17bd dfb2 debd ab4d 71bd
000002f0: 9680 903d 3bef a5bd 8f6e 55bc 1d74 4abc
00000300: 1f26 9a3d a376 313d 259f 133d 8a14 94be
00000310: e665 04be c151 d7bc 6bed 3a3d b11e 56bd
00000320: b668 713d efff 153e 2e51 a33d 27ff 983c
00000330: 6ee6 633d 91e4 3abe 8305 54bd a03f b03b
00000340: 8544 0bbe 9128 88bb 02dd 94bd b9ce 4cbd
00000350: 9baa 2d3d 5557 87ba 70f0 9ebd 8211 003d
00000360: e0a0 813d cb19 eb3d c6a9 53bd 879d cfbc
00000370: 269c 23be 4c80 fabd 9a49 d9bc 66ba 563b
00000380: d575 6f3d 715d 28bc 00c4 26bd 33fe 96bc
00000390: e403 c6bc b675 5ebc 5297 1dbc 89fb cd3b
000003a0: 33c8 e5bd 4241 e63c 870d 33be de42 88bc
000003b0: 8735 73bc 6853 12bd 3fbb 503d 633c 5bbd
000003c0: 0f1d b9bd 242b 0fbe 797c 19be 8d90 77bd
000003d0: 95de f73d 98a5 99bc 9a11 92bd af09 393e
000003e0: 6bf6 883c 926f 8ebd 35c2 41bd 9d3d 02bd
000003f0: 3b3d 21bd 679f 0abb 15be 643b 1653 ebbc
-0.07073262 0.024825525 0.062003102 -0.034231264 0.026901579 -0.06103905 0.04462487 -0.050378248
0.13215841 -0.0025153658 0.033886753 -0.0030723803 -0.09426777 -0.008764491 0.02236087 -0.0091057755
-0.020980258 0.09860176 0.07852774 -0.011446612 0.010168765 -0.054304417 -0.073170766 -0.020304058
-0.04817264 0.01586761 -0.06369926 0.01925547 0.05013799 -0.055951927 0.0016080801 0.029144438
-0.083972745 -0.02688153 0.12805392 -7.352234e-05 0.034822065 0.035831075 -0.08010444 0.01674709
-0.29107994 -0.09206406 -0.09225842 0.03948366 0.0002684528 -0.05474265 -0.030009676 0.029363941
-0.029540205 -0.022671526 -0.03667977 0.0076310784 -0.1637238 0.09397416 -0.015682638 -0.03533993
0.0184912 -0.031792242 0.08340796 -0.0550493 0.024075508 0.05449774 -0.0049608927 -0.090025775
-0.052685305 0.002487501 -0.04731142 0.031403337 -0.018234082 -0.036060974 -0.10030727 0.08509356
-0.025008138 -0.03523502 -0.123185575 0.0010159878 0.14789139 0.08847073 0.02164075 -0.10985816
-0.008226664 -0.11098725 0.16563194 -0.053308036 0.049699303 -0.30367285 -0.015018597 -0.12832516
0.07288371 0.03516482 -0.09010772 0.2084262 -0.07362099 0.01963536 0.16628645 -0.025047356
0.08712583 0.10307754 -0.033911772 -0.10647776 0.14375797 0.060510688 0.08702933 0.15711936
-0.0043724356 -0.075919494 0.16407128 -0.025976125 -0.04537515 0.12774488 0.03561434 0.0574129
0.07328729 -0.18443133 -0.015507839 -0.10863304 0.02836919 -0.16064814 0.0415219 0.15297593
-0.06358937 -0.010704531 -0.061685354 0.012423547 -0.14989951 0.034951374 -0.030989308 -0.03293616
0.02617326 -0.10083858 -0.027431738 -0.02135359 -0.086704224 -0.15861708 -0.032143585 -0.11815794
-0.09740064 -0.043455802 0.13077982 0.2617343 0.097383566 0.22524308 0.17718469 -0.032187894
-0.04495054 0.116702214 0.10312329 -0.039015654 -0.036278225 -0.059979472 -0.05265263 -0.12456112
0.034361217 0.0073628607 0.014924232 0.10237058 0.016805666 0.019159678 0.04205305 0.0020173304
0.017455274 -0.04182659 -0.17260394 -0.023087304 0.14145215 0.042742174 0.07791872 -0.053796597
-0.07387911 0.091539845 -0.040371627 0.021037145 -0.059990253 0.037715487 -0.081581905 -0.010470706
0.04526401 0.021323465 -0.05299825 -0.017142141 -0.056649733 0.060894325 0.012278623 0.02327735
0.10386785 -0.037083488 -0.10873961 -0.05891196 0.07055776 -0.0810227 -0.0130268475 -0.012356785
0.07526802 0.04332603 0.036040444 -0.2892192 -0.12929496 -0.0262841 0.045636576 -0.052275363
0.05893775 0.14648412 0.07974468 0.018676354 0.055639677 -0.18251254 -0.05176307 0.0053786784
-0.13600357 -0.0041552265 -0.072687164 -0.050001834 0.04239903 -0.001032571 -0.077607036 0.031266697
0.063295126 0.11479529 -0.05167558 -0.02534367 -0.15977535 -0.12231502 -0.026524354 0.003276491
0.058461983 -0.010276184 -0.040714264 -0.018431759 -0.024171777 -0.013577869 -0.009618597 0.006286089
-0.112198256 0.02810729 -0.17485629 -0.016633447 -0.014844305 -0.035724074 0.05095982 -0.053524386
-0.090387456 -0.139813 -0.14988889 -0.06044059 0.12103001 -0.018755719 -0.071322635 0.180701
0.016719064 -0.06954874 -0.04730435 -0.03179704 -0.039365035 -0.002115214 0.0034903337 -0.028726142

layer.4.bias f4 [50]
00000000: 95bc 5239 3eb8 3d3c 3a36 a43b 5c36 193c
00000010: 4479 cd3b 050a 273c aa20 083c 860c 50bd
00000020: b68c 36bd 1d28 04bb af39 18bc 4c82 2b3c
00000030: ba31 9e3c 370a dd3c d9ab 39bc 34d4 ea3b
00000040: 45ca c43c de7b 4d3c 35c8 553c 0287 1b3c
00000050: 43af 223c 0808 883b 3c22 e6b8 f895 683c
00000060: 7ac3 2f3b 36ce fbbc 08ee 363c 2598 38bc
00000070: 4bc0 eb3c b182 813b 40d8 b13b d66f 803b
00000080: 5f96 d93b e1ce ed3a cd85 cb3b aefc 843c
00000090: 1749 d5bd b642 583b b020 29bc 0965 af3c
000000a0: 23bd febb caf6 773c 995c 743c 0fae 4a3c
000000b0: aafe 603c 5177 bb3c 4315 313c 006a 363c
000000c0: 4f4c f43b e35b e13b
0.00020097413 0.011579571 0.005011347 0.009351339 0.0062705595 0.01019526 0.008308569 -0.050793193
-0.044567786 -0.002016551 -0.009291097 0.010468077 0.01931082 0.02698241 -0.011332476 0.00716641
0.02402223 0.012541739 0.013048221 0.009492638 0.009929481 0.004151348 -0.00010973631 0.014195912
0.0026819394 -0.030737977 0.0111651495 -0.011266743 0.028778216 0.003952347 0.0054273903 0.003919582
0.00664024 0.001814332 0.0062110187 0.016233768 -0.104143314 0.0032998747 -0.010322735 0.021410482
-0.0077740117 0.015134523 0.014914655 0.0123706 0.013732592 0.022884043 0.010808292 0.011133671
0.0074553858 0.006877409

layer.7.weight f4 [50, 50, 3, 3]
00000000: 8767 23be 27a4 85bd 5120 80bd 761d a8bd
00000010: 9415 ddbd a029 973d 7970 d9bd 3e83 d6bd
00000020: 7560 bebd 09c5 bebd 7303 cebd 26c3 dabc
00000030: a645 30bc 79e0 5abe d376 4dbe 5657 0fbd
00000040: a280 0cbe 3701 bcbd a87a 28be 2b4d 53be
00000050: 0ef8 923d cb6e d7be 9e58 35be ce40 683c
00000060: 4232 99be be7e d2bd 16d0 94bc 5d9e f43c
00000070: 3853 63be 99d9 51bc c943 38be 0c1f cfbd
00000080: a4d9 73bd ec33 98bd 2cad 04b7 a732 24bd
00000090: 8e65 90bc 783f 35be 4aaa a2bd c797 3abc
000000a0: 860b 98be beb8 90be eb41 76bd ddfe 46be
000000b0: 025b 62be aefa 8d3d 1af9 4c3d 2db6 bbbc
000000c0: 64e4 1ebd e15c 4d3d adfe f5bc 33a3 4d3d
000000d0: ef90 e7bd 0ae2 b9bd b848 3c3d 014b d83d
000000e0: ffad ae3d 9874 623d 735b cd3d d6be d23d
000000f0: 46ae 8abd 4fb7 b2bc 0148 3b3c 8ee5 31be
00000100: 5fa1 cbbd 8295 d4bd b094 b4bc b1f0 d3bd
00000110: 5543 b53d d92b 0fbd 32cc 003e 72e8 673d
00000120: f2bc 043d e852 8abd 7e59 f63c b7b1 b53d
00000130: 5757 11bd ebc7 49be be33 293d bdb1 5dbd
00000140: bfc0 8bbe 04cb d63c e3d0 333d 68e0 d03d
00000150: 3825 713d 980f 353d 42e5 cebd 416a 98bc
00000160: 5e6e 143e 4c1b 13be e75e ac3d 00f9 eb3d
00000170: c67c 723d 6c69 313d 4f13 9ebd 3c54 e73d
00000180: 8569 a3bd 0a61 9e3b b6e8 b63c f724 0abd
00000190: 88e0 70be 6c8a 36be ccae 94bd dffe adbe
000001a0: e387 33be 2dec 0cbd b47c 3dbe 4801 4fbb
000001b0: be4a e13b 863c d53b 3525 7e3d 530c b8bb
000001c0: 1d3e 08bd 81d3 6abd 9b5b eb3c 0c20 9c3d
000001d0: 8cff 833d f1e6 ea3c 5f7e 69bb 964a 04bd
000001e0: 17ba 343d 5425 22be 2230 70be 4eba d23d
000001f0: b8e4 02bd cb5f 80bd c81f f23c 52bf b03c
00000200: 63c9 4cbd 82be c6bd 5e76 76bd f358 563d
00000210: 2dd6 15bc f022 853d bd60 733c 1193 16bd
00000220: a49e 92bd 8b1b e3be a63b 963c d9cc 19be
00000230: c2fe 3fbe f13d 90bb fde4 86bd 4ead 1dbd
00000240: 5d62 bf3b e777 67bd e30b 52bd b8a5 ae3d
00000250: 6010 8cbd 9769 17be fbd6 debd 4c61 a9bd
00000260: fdb2 183d c818 70b9 7b40 573d f904 f23d
00000270: b911 a63d c664 b73d ec74 03be 2240 97bd
00000280: f133 80be b928 98bd 0278 853d d632 373d
00000290: 797c 0a3d 15ee 0dbe 9464 e5bd c559 54be
000002a0: b738 24bd afcf 06be a3da debd d7f7 72bd
000002b0: d33b 0dbe e78e 01be 48c0 a9bd f731 efbd
000002c0: c162 83be 1b27 a13c 34b2 b9bc c840 2bbe
000002d0: 3c99 413d b45d a73d c6fe 313e 95b9 a83d
000002e0: f0c5 f93d eff1 863d fa22 083e 5fe9 bf3d
000002f0: 18a3 33bd 60d7 543c b181 06bd 7c96 c9bd
00000300: 3853 7f3d 98ab 693d fe03 363d b16e b3bc
00000310: 2a4a 91bd bae9 273d d1ab 15be 19f0 28be
00000320: 5a0f 7fbd 972d e4bd ce39 c2bd 0146 13be
00000330: 6f79 c1bd 9c65 73bd 9593 bebd 3a00 283d
00000340: a83c ea3b 37bd 593c b0c8 783d c70d afbe
00000350: f98b 35be 17a0 9cbd 348f b3bd 98ad 803d
00000360: a0a0 4ebd e93b 7ebc 000c e33c 2b8b cc3d
00000370: 0df3 1b3d 8a80 123d 8cc9 e7bc 43fd 8d3d
00000380: d232 3fbd 6ba4 6ebc 2e37 eebb f968 c3bd
00000390: 69c5 ef3c 4297 0fbd 2aa9 bbbd 8bd9 8cbc
000003a0: 6bbd 3cbd 7d95 69bd 40c5 343e 1456 02bc
000003b0: 70dc 513d 291d 7ebe f88e bfbe 56cc 04bd
000003c0: a1e4 11bd 8b65 7ebe 0d2c 40bc da44 a6bd
000003d0: 6b65 15be 4e84 4cbe fcbf d83c 4aab 57be
000003e0: 084d 4cbe 2124 8fbd 2787 91be d583 f7bd
000003f0: 2377 d6bb 433f 5cbd 1d25 98bd f8cb 7e37
-0.15957461 -0.0652545 -0.06256164 -0.08208744 -0.10795131 0.07380986 -0.106171556 -0.10474251
-0.092957415 -0.09314925 -0.10059252 -0.026704382 -0.010758793 -0.21374692 -0.20064859 -0.0349954
-0.13720945 -0.09179919 -0.1645304 -0.20634906 0.07176219 -0.42076716 -0.17709586 0.014175607
-0.29921156 -0.102780804 -0.01816563 0.02986067 -0.22199714 -0.012808227 -0.17994608 -0.101133436
-0.05953373 -0.07431778 -7.908133e-06 -0.04008737 -0.01762655 -0.17699993 -0.07942636 -0.011388726
-0.29696292 -0.28265947 -0.060121458 -0.1943316 -0.22105029 0.06932579 0.05004225 -0.022914017
-0.03879203 0.050137404 -0.030028665 0.050204467 -0.11306941 -0.09076317 0.045967788 0.10561181
0.08529281 0.055286974 0.10027208 0.10290305 -0.06771521 -0.021815924 0.011430741 -0.17372724
-0.099428885 -0.10380079 -0.022043556 -0.103486426 0.08850733 -0.034953926 0.12577894 0.05661816
0.032406755 -0.06754094 0.03007197 0.08871787 -0.035483684 -0.19705169 0.04130911 -0.054124583
-0.2729549 0.026219852 0.04390038 0.10199052 0.058873385 0.044204324 -0.10102321 -0.018605353
0.14495227 -0.14365882 0.08416539 0.11522102 0.059201024 0.04331343 -0.077185266 0.11295363
-0.07979111 0.0048333453 0.022327762 -0.03372666 -0.23523152 -0.17826241 -0.07259902 -0.33983514
-0.17532305 -0.034404922 -0.18504602 -0.0031586457 0.006875365 0.006507459 0.062047202 -0.0056167035
-0.03326236 -0.057330612 0.028730204 0.076233 0.06445226 0.028674575 -0.0035628302 -0.032297693
0.04412278 -0.15834552 -0.23455861 0.10289441 -0.031956404 -0.06268271 0.02955617 0.021575604
-0.049996745 -0.09704305 -0.060171477 0.052330922 -0.009145302 0.065008044 0.014854607 -0.036761347
-0.071591645 -0.4435695 0.01833899 -0.1501955 -0.18749526 -0.0044019152 -0.06586645 -0.038495354
0.0058405832 -0.056510832 -0.051280867 0.08527702 -0.06839061 -0.14786373 -0.10880848 -0.08270511
0.03728007 -0.00022897415 0.052551728 0.11817355 0.08108849 0.08954768 -0.12837571 -0.07385279
-0.25039628 -0.07429642 0.0651703 0.044726215 0.033810113 -0.13860352 -0.112008244 -0.2073737
-0.04009315 -0.13165163 -0.108815454 -0.05931839 -0.13792352 -0.12652169 -0.08288628 -0.11679452
-0.2566128 0.019671967 -0.022667982 -0.16723931 0.047265276 0.08172169 0.17382345 0.08238522
0.12195957 0.06589114 0.13294592 0.09370684 -0.04385671 0.0129908025 -0.032838527 -0.09843156
0.062335223 0.05704841 0.0444374 -0.021903368 -0.07094224 0.040994383 -0.14616324 -0.1649784
-0.0622705 -0.11141508 -0.094836816 -0.14382173 -0.0944699 -0.059423074 -0.09305493 0.04101584
0.007148344 0.013289741 0.060738266 -0.341902 -0.17729177 -0.07647722 -0.08767548 0.062831104
-0.050446153 -0.015517213 0.027715683 0.09987482 0.03807359 0.035767116 -0.028294347 0.069330715
-0.046679325 -0.0145655675 -0.0072697615 -0.09541506 0.029268937 -0.03505636 -0.09163125 -0.017193576
-0.04607908 -0.05702733 0.1765337 -0.007955093 0.051235616 -0.24815811 -0.37413764 -0.032421432
-0.03561843 -0.24843423 -0.0117292525 -0.08118601 -0.14589469 -0.19972345 0.026458733 -0.21061435
-0.1995126 -0.06989313 -0.28423426 -0.12085692 -0.006544964 -0.05377127 -0.07428954 1.518707e-05

layer.7.bias f4 [50]
00000000: 608f ba3c ccd1 e6bc 970e 38bd 65fc 0c3c
00000010: 0644 8e3b 5be1 9ebc 0593 4c3c 136d 74bd
00000020: 0e0a 633b 8f12 63bd 92d7 db3c 5b43 07bc
00000030: bb9d e03c cf74 82bc 29a6 cf3c 9566 b2bc
00000040: 4329 c5bb c2d1 1e3c 276e b23b e43b bc3b
00000050: be15 853c b941 44bc b253 c63c 7242 073d
00000060: aa13 fdbc 91ed babc f969 983c fdbb 1bbd
00000070: 330d 33bc 703c a03b 11b3 18bc 6acb 46bd
00000080: 4cd5 183d 5212 82bc f3b2 ec3a dafc 173d
00000090: 5866 23bd 46de 093c 7139 10bc df98 b7bc
000000a0: b2f2 343b 958a 473c e3cd c33c 2d3b 08bd
000000b0: c242 263c 00e6 f53c 104d a43c 11da 9b3c
000000c0: cd63 93bb ae9c 8f3c
0.022773445 -0.02817621 -0.04493579 0.008605097 0.004341605 -0.019394567 0.012486224 -0.059674334
0.0034643444 -0.05543762 0.02683619 -0.008255805 0.027418962 -0.01592484 0.025347786 -0.02177743
-0.0060168817 0.009693565 0.00544526 0.005744444 0.016245719 -0.01197856 0.02420983 0.03302235
-0.030893166 -0.022818359 0.01860522 -0.038021076 -0.01092844 0.004890017 -0.0093200365 -0.048533835
0.03731279 -0.015877876 0.0018058702 0.037106372 -0.039892524 0.0084148105 -0.008802758 -0.022411762
0.0027610478 0.012179037 0.023901885 -0.03325956 0.010147752 0.0300169 0.020056278 0.01902488
-0.004497981 0.017530765

layer.10.weight f4 [50, 50, 3, 3]
00000000: b02b f13c 43d1 59bc 6d5f 12bb 2496 64bd
00000010: 9966 ebbd a336 37be 3c93 08bc 7e58 99bd
00000020: a95a 55be b34c d6bc 90e2 7f3d d344 cdbd
00000030: 91d7 61bd 0555 083d cb79 1abe ca3a d93c
00000040: 7aa3 98bd b13a 363d 1116 56bc c518 69bd
00000050: 3b02 2dbd 994d bfbd 6ec3 abbd 2304 183b
00000060: f606 b3bd b54d f23c 7ea0 a8bd d3c7 9bbd
00000070: d322 9cbc 684a 19be ffb7 4bbb 0df3 46bd
00000080: 4776 6cbd 302f 83bd 0c9f f4bd 6819 19be
00000090: 2bd7 cc3d bc00 8d3d aae6 703d 55b3 26bd
000000a0: b8c4 2cbb 3ec9 31bd e218 5bbe 7701 fcbd
000000b0: 30d0 1bbd 7a57 a4bc 20e2 193d 26e9 323c
000000c0: 4203 fdbd 89ed 67bd 6c73 8a3c d8ca 0a3c
000000d0: 26a6 8b3d 3424 6a3e f35a 6abc 6284 37bd
000000e0: be86 62bd 6d3c 87bd f2e3 cabd 0bbc 81bb
000000f0: 2744 f9bd eabd dabc be49 58bd 7eae 88bd
00000100: bc49 2c3c 014f 94bd 23b4 54bd 3ddc d73d
00000110: d026 b03d 3394 043d 07b8 a1bd 70df 6a3d
00000120: aa60 e63c a44b 60bd 7811 883e e64c 88ba
00000130: b69e bdbd 5e11 a8bb 0076 bbbc 5128 a2bd
00000140: 1540 4b3d 9cfe 2ebc b14b 363d a890 a53d
00000150: 4f53 cb3c ad2a 2fbd 2f24 313d f58e b83d
00000160: 5c9d b7bd 4731 5cbd 5135 373d 29cd 92bc
00000170: 7cac 4abd 95c3 2a3c 1b56 6b3c 8cb0 be3d
00000180: e437 d73d 5f5c 003d 033b 6d3d 80ec 6ebd
00000190: 10b7 7c3c 48b5 4d3d b97f 053d 8103 95bd
000001a0: 2e28 1b3c 8fd9 803c 5920 03bd 8d72 febd
000001b0: 74bf 43bd 2a9f 78bc ab28 893d aec0 9bbd
000001c0: 27f8 91bd 068e 83bc 54ee ae3b 5e69 883c
000001d0: 4172 a0bd 23eb 733d 1e0c 1cbd be17 48bd
000001e0: 3ad0 47bd e38b 06bd 59c9 463d 3b6c 53bd
000001f0: 9021 aa3c fdce 7cbd d00d 23bc dff6 3ebe
00000200: da34 aebd 8825 8cbd 409b 45bd f3e9 adbd
00000210: 1a72 7cbd 8d97 eebb f770 cebc 913e c3bd
00000220: 59e5 f4bd 762f 94bd 0933 bbbd a3b3 9bbc
00000230: f2a1 36bd c77f 073d a1ad 3bbd c974 a23d
00000240: df7b 4ebc ef3b abbd bd1c aabd 8876 a23d
00000250: 7caf 78bd 7031 f6bc 76e2 693d 2a61 aa3d
00000260: 0adb 75bd 8630 0b3d 71a0 203e d113 3c3d
00000270: 38ef e239 bede 523d 7c7d bc3c 9987 1abe
00000280: f93d 0f3d 355a e53c e03e 953c 1d76 a6bc
00000290: cd0d fbbd 4520 0b3b ba1d 19be 7314 bcbc
000002a0: cd39 a0bd f325 dfbc f979 393e e838 6dbd
000002b0: 3c2e d6bc c35e 16bc f007 98bb edbb 423d
000002c0: 9db1 04bd 4938 393d 1cc9 433d c779 a53c
000002d0: 86da 02be 6e15 093e 592d b4bc 57cc 39bd
000002e0: a84f 61bd 3c06 043d 64d9 cfbd 75fc a5bd
000002f0: 3a50 0f3c 4ab3 80bd 82d6 a7bd a0da 07be
00000300: 35f8 f2bc 7267 17be 71e5 70be 9e9f bf3d
00000310: 58c0 1c3c 3220 7ebd c519 87bd ddc0 d33d
00000320: 8e22 343d 3c71 f0bc a73a 803d f2ec 723d
00000330: db91 5a3d 65a0 033e 0fcc b5bd e10a 583c
00000340: e09b a4bd be43 82bd b6d6 c6bc ab2e a73c
00000350: debe 10bd d7f3 94bc 9a80 973c c88c a93c
00000360: 8fca 22bc 6736 a4bc e697 c5bd 85b4 69bd
00000370: 8e59 05be aad7 d4bc c8a0 9abc 2630 88bd
00000380: b5be a2bb 00ea fcbc c610 073c f51c f1bc
00000390: 1961 5bbe 8316 d5bd 1d50 34bd 41b9 8b3d
000003a0: 39c1 0c3d d003 133d 5060 a73d fedc d43d
000003b0: 0d35 f73d aad2 27bd 8a9f af3d 01b2 773d
000003c0: 1a35 06be bfa3 953d 5e18 1c3c 4e5d b7bd
000003d0: f2c9 05bb 8323 c7bd 4897 263d 32da c8bc
000003e0: 9642 a0bd e26e 86bd 86b5 e53c e7e8 efbd
000003f0: 5dab 853b 23bb 39be 8b7c 93bd a601 a1bd
0.029439777 -0.013294521 -0.002233471 -0.055807248 -0.11494178 -0.17891936 -0.008335885 -0.07487582
-0.20835365 -0.02615962 0.062471926 -0.10022893 -0.05513722 0.033284206 -0.15085523 0.02651729
-0.07453056 0.044489566 -0.0130667845 -0.056908388 -0.042238455 -0.093409725 -0.08386885 0.0023195825
-0.08741562 0.02957807 -0.082337365 -0.07606473 -0.019059574 -0.1496979 -0.0031085012 -0.048571635
-0.057729986 -0.06405485 -0.11944398 -0.14951098 0.100019775 0.06884906 0.05881373 -0.040698368
-0.002636237 -0.04340481 -0.21396211 -0.12304967 -0.03804034 -0.020061243 0.037569165 0.010919845
-0.12354137 -0.056623016 0.01690074 0.008471213 0.068188 0.22865373 -0.014303911 -0.044803984
-0.05530428 -0.06603322 -0.09906758 -0.003959184 -0.12171202 -0.026701886 -0.0528047 -0.06673907
0.0105156265 -0.07241631 -0.051929604 0.10540054 0.08601153 0.032367896 -0.078964286 0.057341993
0.028122265 -0.054759637 0.26575828 -0.0010398894 -0.09258787 -0.0051290235 -0.022883415 -0.07917846
0.04962166 -0.010680821 0.04450578 0.080842316 0.024819998 -0.04276531 0.043247398 0.09011642
-0.08965561 -0.053757932 0.04472858 -0.017920094 -0.0494809 0.010422607 0.014363791 0.093110174
0.10508707 0.031338092 0.057917606 -0.058331013 0.015424505 0.05022171 0.03259251 -0.07276059
0.009470029 0.01572874 -0.03201327 -0.124241926 -0.047790006 -0.015174666 0.0669721 -0.0760511
-0.071274094 -0.016058933 0.0053384695 0.016651805 -0.07834292 0.059550416 -0.038097493 -0.048850767
-0.048782565 -0.03284825 0.048531864 -0.05161689 0.020767957 -0.061720837 -0.009952024 -0.18648861
-0.085061744 -0.06843096 -0.04824376 -0.08491888 -0.061632253 -0.00728125 -0.02520035 -0.09533418
-0.11957807 -0.07235615 -0.091405936 -0.019006556 -0.044588037 0.033080842 -0.045819882 0.07932431
-0.012602775 -0.08361041 -0.08306263 0.07932764 -0.06071423 -0.03005287 0.057100736 0.08319314
-0.060023345 0.033981822 0.15686204 0.045917336 0.0004328431 0.051481955 0.023009054 -0.15090789
0.03497121 0.027997116 0.018218458 -0.020319993 -0.12258492 0.002122895 -0.14952746 -0.02295897
-0.078235246 -0.027239775 0.18112935 -0.0579156 -0.026145093 -0.009177866 -0.004639618 0.0475425
-0.032395948 0.045219693 0.047799215 0.02019967 -0.12778673 0.13387081 -0.02199428 -0.04536089
-0.055007607 0.032232508 -0.10148886 -0.08104793 0.008747155 -0.06284197 -0.08195211 -0.13266993
-0.02965937 -0.14785555 -0.23525025 0.093566164 0.009567343 -0.062042423 -0.06596712 0.1033952
0.043978266 -0.02935087 0.06261187 0.059308 0.053361755 0.12854154 -0.08876812 0.0131861875
-0.08037543 -0.06360577 -0.024272304 0.020407995 -0.035338275 -0.018182678 0.01849394 0.020697013
-0.009935989 -0.020045472 -0.09648113 -0.057056922 -0.13022444 -0.025981743 -0.018875495 -0.066498086
-0.0049665817 -0.030873299 0.008243745 -0.029432753 -0.21423759 -0.104046844 -0.044021714 0.06822444
0.03436396 0.035892308 0.08172667 0.103937134 0.120706655 -0.04097239 0.085753515 0.060472492
-0.13106194 0.07306623 0.009527294 -0.08953343 -0.0020414558 -0.0972357 0.040671617 -0.024518106
-0.078252 -0.06564118 0.028040659 -0.117143445 0.004079266 -0.18137793 -0.07201489 -0.078616425

layer.10.bias f4 [50]
00000000: 4be1 0a3d 1895 74bc 4077 893b 54ba 473c
00000010: 6c57 eabb 5675 b43b 0102 2c39 19e2 bcbc
00000020: a7ea 4a3c 276f 2d3b f6ab 5b3c 744a 9bbc
00000030: fc0e 16ba e6ec a63a c717 a2bc 58a1 35bd
00000040: b6a6 1ebd b3b4 fcbb a429 34bd 9fb5 f8bb
00000050: dcd8 21bd 3f5f f5bc 1d08 ed3c c0c2 15bc
00000060: 82c0 02bd a2ea 0a3c 4fec f839 ccff 77bd
00000070: f4ac 66bd a148 13bb d959 6a3c 331d c0b9
00000080: ece0 b63c ab5e d1bc f78e 99bc 3704 3dbd
00000090: 1b21 9d3b 8eb2 013c a96b 26bc 3d11 a93b
000000a0: 7c71 193c b185 91bc 8efb 883b 1de1 aabd
000000b0: 5423 2cbc 0b76 ddbc 3e01 6b3c 4eda f3bc
000000c0: efe6 f5bc 21f0 d43b
0.033906262 -0.014928125 0.004195124 0.01219042 -0.007151535 0.0055071516 0.00016403945 -0.02305703
0.012385047 0.0026463957 0.013407698 -0.0189564 -0.0005724279 0.0012735396 -0.019786729 -0.044343323
-0.038733207 -0.0077119707 -0.043985024 -0.0075900103 -0.039513454 -0.029952643 0.028934533 -0.00914067
-0.03192187 0.008478792 0.0004747831 -0.06054668 -0.056317285 -0.002247371 0.014303648 -0.0003664285
0.022324048 -0.025557837 -0.018744929 -0.046146598 0.0047952062 0.007916106 -0.010157504 0.0051595257
0.009365436 -0.017763944 0.0041803783 -0.08343718 -0.01050647 -0.027033826 0.014343558 -0.029767182
-0.030017344 0.006498352

layer.13.weight f4 [40, 50, 3, 3]
00000000: c560 f43a a96b 54bd af5d 4dbd f179 51bd
00000010: 4d4b 05be 0af4 a4bd 7d93 1bbd 9942 6e3c
00000020: 5a5c 81bd 7ba1 403d 125b f33c 6467 54be
00000030: 6ed6 d6bd 9009 2e3d b6c9 883c f873 a03d
00000040: cc37 74bd dca0 0dbe bf94 603d 5209 09bc
00000050: 1a14 8dbd 7540 433c 1411 eabd 9846 73bd
00000060: 35cc f13c d8b5 3f3c 575c 433d cceb 3f3d
00000070: a362 213d bf4a 8c3d 3a8f aa3d 0c27 e83d
00000080: 489a 983d 4411 d4bd 68e2 3ebd c953 453d
00000090: b113 bbbc 1e68 a93d 4677 9b3d 777e 12bd
000000a0: b8bc 193d 97e3 023d a8a4 a6bc fa12 c43d
000000b0: f2c6 113d a36f 3a3d 1dd8 cfbc abe4 2abc
000000c0: dad9 b3bd cce6 96bd e060 7fbd e41b 01bd
000000d0: aa19 9f3c 5387 ccbc 0ef0 d53c 7b3f 053d
000000e0: 6df7 1bbc 2933 babd d638 683c a307 0cbd
000000f0: 87c5 3b3d df6c 883d e963 1cbd a505 3a3d
00000100: a6ae 1ebe df56 2cbd 73c3 193c 35a5 8fbc
00000110: b70d 8ebd f4e6 b3bc 34cb c8bd 3328 693d
00000120: 1a7c d8bd 2427 213c 0dfc 7dbd 5f0c 0fbd
00000130: 6359 8d3d be43 61bd bc8a 1cbd ade5 07be
00000140: 01fa 12bc 0f5e df3d 7404 11bc 589f 5a3d
00000150: e732 debb 44ea ce3c ddf6 ffbc 7f6a 0abe
00000160: 13c5 23b9 e1f2 063e 106e 48bd ce16 5ebc
00000170: 96f3 1a3d 92c1 4dbd f4a4 e8bc 6987 40bc
00000180: b339 96bd bffb a83d 386d 82ba 8097 513d
00000190: 38e7 843d 4fbb 6abd 87af 3dbc 0e95 053e
000001a0: 6f05 a2bd 951f 493c 1154 edbd 8eeb 983c
000001b0: 2758 ae3b 0768 efbc 09b3 123d f874 a43d
000001c0: 91e7 413e 33d2 1d3d 7824 0f3e 0124 f6bc
000001d0: 82c4 50bd e5d9 483d ff9d 083d 7cc6 653d
000001e0: 40e6 e03c eb7c 1dbd d497 b43d 1062 803e
000001f0: 9290 1c3e e653 fb3d 57ad 203e d992 dcbd
00000200: 8417 11bd db0c f1ba afee 4dbd 31d6 9ebd
00000210: 15b1 503d 4929 11be 73d3 3a3d b380 36be
00000220: 3e91 f6bd 8883 b2bc 38b6 c4bd 2b9e 18bd
00000230: 1413 69bd 3edc 94bd c399 c6bd 9c4a 89bd
00000240: b37c b73d 5eec 3dbd ff10 3fbd eab8 4ebd
00000250: 9aba 223e b002 15bd 1a90 993d 8bbf 39bd
00000260: 4e2d dabd 08d4 05be 85be 81bd e65f 05be
00000270: 593b e9bd cd99 02be 1be3 c6bd 5342 23bb
00000280: edc8 81bc 93d6 963d 1d5a 82bc 268f 6fbb
00000290: 9dd3 9abc c2de 51bd 0d8c da3c 6111 33be
000002a0: e2e6 2e3d 82bb 7ebd b2e2 8cbd 3536 d8bd
000002b0: 1200 f93d 19a5 4a3d 808c 70bd f35a bc3d
000002c0: 3122 a5bd e0ee d2bc 87cf 0bbe e45a f93d
000002d0: 41e0 08bd fec0 e13c 2a3f 42bd 0b4b 913a
000002e0: 1455 13bd bb2d a03c 085b 05bd 630c 22bd
000002f0: d160 7dbd 9dad 2f3d f4ae f6bc b154 07bd
00000300: e91f bbbb 4268 113c ff87 24be 21bb bc3c
00000310: 5458 083c 4469 2fbe cd57 15bd 23eb 8bbe
00000320: 4776 f2bd 57a1 16be 2ce4 d5bd 70f2 b23c
00000330: f148 77bd 449b 04be de09 eabd 7d5a 783d
00000340: d15f 533d f633 0dbd d1ed 603d abad 473b
00000350: 5019 6ebd 52a0 353e c13f fe3c f610 31bd
00000360: 8990 793c e244 f13b fa6e a0bd afd6 213d
00000370: a7ef b23b 8cda 3cbc 90dd c1bc 559c cb3c
00000380: 1b9d e3bb 69db ca3d deb4 3abd 6b56 103e
00000390: af4d 38bc f2c9 2cbd df26 743d 0359 ad3d
000003a0: 72b6 3c3e ce58 163c e251 bfbc 572b 123d
000003b0: 6e18 023e 7930 b33d 9ae0 223d abb5 cabd
000003c0: 05ee 38bd a0da d83d 6cb3 263e 5c16 143d
000003d0: 0686 9f3d 0bd7 03be 0372 1fbe ca10 e93c
000003e0: f2c9 a3bd 6dfb ddbc 20cc ab3c 83b2 27be
000003f0: 0563 9aba 0a7a e73b f6fc 903d a521 d9bb
0.0018644562 -0.051860485 -0.05013817 -0.051141683 -0.13017006 -0.08054359 -0.037982453 0.014542245
-0.06316443 0.047029 0.029706512 -0.20742565 -0.10490118 0.04248959 0.016697746 0.07834619
-0.059623525 -0.13830894 0.054829355 -0.008364039 -0.068886 0.011917223 -0.11429039 -0.059393495
0.029516319 0.01170107 0.047695484 0.046855733 0.039400708 0.06850194 0.083280995 0.113355726
0.07451302 -0.10354856 -0.046602637 0.048175607 -0.022836538 0.08271812 0.07591109 -0.035765138
0.03753349 0.031955328 -0.020342186 0.09573932 0.03559012 0.04551662 -0.025371606 -0.010430495
-0.08781786 -0.0736824 -0.062348247 -0.03152074 0.019421417 -0.024966871 0.026115444 0.032531243
-0.00951944 -0.09091789 0.014173707 -0.03418697 0.045842674 0.066613905 -0.03818122 0.04541554
-0.1549631 -0.042075034 0.009384978 -0.017534832 -0.0693621 -0.021960713 -0.09804383 0.056923103
-0.105705455 0.009835992 -0.062007952 -0.034923907 0.06901815 -0.054996245 -0.038218245 -0.13271208
-0.008970738 0.10906612 -0.008851159 0.05337462 -0.0067809704 0.02525819 -0.031245643 -0.13517188
-0.00015618307 0.13178588 -0.04893309 -0.013555242 0.037829958 -0.05023343 -0.028398968 -0.011751034
-0.07335224 0.08251142 -0.0009950763 0.051169872 0.06489414 -0.057307538 -0.0115774935 0.13045141
-0.079111926 0.012275596 -0.115883 0.018667009 0.005320567 -0.029224409 0.035815272 0.080301225
0.18935992 0.03853054 0.13978755 -0.030046465 -0.050968654 0.049035925 0.0333538 0.056097493
0.027453542 -0.03844921 0.088180214 0.25074816 0.15289524 0.12271862 0.15691124 -0.107701965
-0.035422817 -0.0018390672 -0.050276455 -0.077556975 0.05095013 -0.14175905 0.04561181 -0.17822532
-0.120394215 -0.021791235 -0.09605068 -0.037260216 -0.05690296 -0.0726857 -0.096972965 -0.06703684
0.08959331 -0.046367995 -0.046647068 -0.050469317 0.15891495 -0.036379516 0.07498188 -0.045348685
-0.106531724 -0.13069165 -0.06335167 -0.13024864 -0.11388273 -0.12753983 -0.09711286 -0.0024911358
-0.01584288 0.073651455 -0.01591211 -0.003655383 -0.018899733 -0.05123783 0.02667811 -0.17487098
0.042700656 -0.06219054 -0.06879176 -0.10557214 0.121582165 0.049473856 -0.05872774 0.09197035
-0.08063162 -0.02574867 -0.13653384 0.12175539 -0.03341699 0.027557846 -0.04742352 0.0011084987
-0.03596981 0.019553056 -0.032557517 -0.039562594 -0.06185991 0.04289018 -0.030112721 -0.033039752
-0.005710591 0.008874955 -0.16067503 0.023038449 0.00832184 -0.1713 -0.036460686 -0.27327833
-0.11838966 -0.14709984 -0.10443911 0.021844119 -0.060372297 -0.12949854 -0.11427663 0.06063317
0.05160505 -0.034473382 0.0549143 0.0030468504 -0.05812961 0.17736939 0.03103626 -0.043229066
0.015232214 0.007362948 -0.07833667 0.03951138 0.0054606977 -0.011526715 -0.02366522 0.024854818
-0.0069462187 0.099051304 -0.045582645 0.14095466 -0.01124899 -0.042184778 0.059607383 0.08464243
0.18428972 0.009176446 -0.023354474 0.035685863 0.12704632 0.0874948 0.039764978 -0.09897932
-0.045148868 0.105885744 0.16279382 0.036154136 0.07789235 -0.12875001 -0.15570836 0.028450388
-0.079975024 -0.027097428 0.020971358 -0.1637669 -0.0011778778 0.0070641087 0.070794985 -0.006626325

layer.13.bias f4 [40]
00000000: af09 83ba 1932 f3bb ab5a 09bc b46b e0bb
00000010: cedd 75bb 7bdd 82bc 6cd6 28bc 5c60 8abc
00000020: 79fb d6ba 63d4 96bb 53b2 01bc d741 9fbc
00000030: bfe9 e7bb a6c9 37bb 6aaf 5fbc 1f4d 35bc
00000040: f8f3 43bc be7a aebb b619 babb d402 8ebd
00000050: d8bc c9bc 35b7 dabc 95e2 6cbc 5b09 fd3b
00000060: c4fc 49bc 5e45 3cbc 8927 0f3a 04bb 6cbc
00000070: 39da 67bc dc42 f5bb 9222 19bc df51 d9bc
00000080: 933a 27ba 19e0 e4bb fbdf 2fbd d9a9 f5bb
00000090: f678 13bd 3729 8e3b e0b9 f039 1563 f6bb
-0.0009997393 -0.0074217436 -0.008383433 -0.0068487767 -0.003751624 -0.01597475 -0.010305028 -0.01689165
-0.0016401849 -0.004602955 -0.007916051 -0.019440575 -0.0070774253 -0.0028043776 -0.013652662 -0.01106575
-0.011960022 -0.0053246906 -0.0056793345 -0.06934133 -0.02462618 -0.026698688 -0.014458318 0.0077220625
-0.01232833 -0.011491148 0.0005460908 -0.014448885 -0.014151149 -0.007484777 -0.009346621 -0.026528297
-0.00063792727 -0.0069847223 -0.042938214 -0.007497054 -0.03600403 0.0043384093 0.00045914855 -0.0075191357

layer.17.weight f4 [40, 40, 3, 3]
00000000: 068a 573e 885f 3e3e 04ce 4cbc 65b3 093e
00000010: 8cf3 bf3d 903a e3bc b3a8 b4bd 9624 84bc
00000020: db9b 1f3b 694d 8f3d 6827 8bbc d738 d73d
00000030: 4214 193d b79a 313d 9513 983d 17e8 af3d
00000040: 1491 99bd a105 13bd b11d 883d d20b 81bc
00000050: 9c4d 90bd d5f0 cdbd 05e0 06bd b72a c7bd
00000060: a691 d43c dd32 2abd 47e7 4cbd 5845 cf3c
00000070: bed4 aa3d 95e1 30be 079f 193e 4aa6 09bd
00000080: f363 20bd d506 52bd d5bd dfbc f9fb aebc
00000090: 6779 d5bd 43d0 aabd d214 903d 799a 463d
000000a0: 540c 4cbd 4820 c93a 2f1b a7bc b21a 893b
000000b0: 1cb9 02be 2501 f03d 3f61 6dbd 242b 7ebe
000000c0: aed3 073c 4b24 0abe f258 bdbc 1295 7ebc
000000d0: a78a f13d 8ce1 3f3d 1c90 e2bd 73ef 65bd
000000e0: b3f7 ad3d 95f3 6c3c 7ce6 803d 19b5 e33c
000000f0: d47e c2bd 6797 85be c858 28be aace 943d
00000100: 5b7d 503d 1d2c a33c 40b8 cebd ed6a ee3b
00000110: 8910 4fbe 853b bf3c 298d 97bc 8eda a5bd
00000120: 3633 193d 00e6 6d3d 4d2e c3bb bacb fd3c
00000130: a7c1 3abd 816a 28bd 7486 94bd c0e3 26bd
00000140: 009e 6c3c a77a c43d 774e eebc 99c8 8fbc
00000150: 5a5e e93b d185 90bd 4158 07bd a847 7abd
00000160: ef28 8dbc 55a8 38bd cab4 253d 1397 e43b
00000170: 0d26 033d 5b4e 0d3e 7338 273e 6d32 b0bd
00000180: 8fe9 543d 8bbf f9bd e7a9 16be 112c 8f3d
00000190: e3b6 a33d 5e55 d53d 4090 8abd 8375 c9bd
000001a0: 87d2 fabc 5175 00be 4516 023c 3575 4ebe
000001b0: 0f06 ee3a bdad 173d f696 dd3d 2415 89bd
000001c0: df21 b6bd 33dd 0ebd 4e3f 113d 8de9 0fbe
000001d0: f718 76be e47e 8dbd 8439 58bd 9e32 d8bd
000001e0: bfaf edbd c34f 12be 7ff6 68bd fd75 06bd
000001f0: 7e7d 963c f33a babd 053a b2bc f4f2 21bc
00000200: 4bd9 b73c 3590 883d 0d8f f7bd 1535 45be
00000210: b16e bfbd 98e9 fabb 90f2 8cbc 70f3 203e
00000220: 366c 893d 8220 1b3e 910d 933c 1657 59bd
00000230: 50be e83d 5cb6 183e 36bb d33c fc1d dcbc
00000240: f337 da3d 03ee df3d 5a84 0cbd 164e 693c
00000250: 9cd5 27bd d587 97be 938b d43c a276 d5ba
00000260: 5ea5 453d b010 97bd 4289 dd3d e227 a7bd
00000270: bc26 2abd 5eed 91bc a590 d23a e7ef 2a3b
00000280: 39e9 92bd 2686 b23d 859f d83d e278 283e
00000290: cba0 253d 1c30 d63c d4bc f73d 1add cb3d
000002a0: a674 9b3d ab29 c1bd 6d5c ef39 61b1 c23d
000002b0: 88a5 1bbc 27ce 47bd 02a0 923c 93cd 8dbd
000002c0: ae93 4b3d b715 d03c b303 b7bd 81d0 2e3d
000002d0: 6c76 d03d 6fe9 f43d 53fd e1bd 26fe 96bc
000002e0: af47 35bc 232d 1b3c f4b2 90bd c595 c4bd
000002f0: d762 59bd 032a 963d b116 62bd ceeb 563d
00000300: 06d3 f53c 4ab1 9bbc 4445 c3bd 3807 d03d
00000310: a614 0bbd 7616 d3bd 1d81 25bb ded5 92bd
00000320: 8d51 09be 7eea 3ebd e174 05be f651 6fbe
00000330: 55f0 99bd 01ec 8c3a b5ec 01bd 1d2b 813d
00000340: 6cf3 46bc 1c8e a53d d2ad f93c b303 db3d
00000350: a815 5bbd 7d94 d5bc b295 e6bd aabd 86be
00000360: cc50 43bd df0e 64bd 83c9 6e3d 937c ccbd
00000370: 5a55 a0bd 39e2 29bd 8f32 11bd e5eb cbbd
00000380: b1aa fb3c 97eb a93d dd37 453c 3635 32bd
00000390: f473 e1bc e58e 7bbd bf5c ce3d e243 dabb
000003a0: 28fb b3bd 9084 173d c6d7 babc c86a f33d
000003b0: cb8a 953c 4da9 8d3d 3392 143d 6010 a4bd
000003c0: 914c bf3d dde1 c3bd 4400 d6bd 6d3b 3e3d
000003d0: d9bf fd3b 09c9 e2bd 6f5e a43d 3c8a 993b
000003e0: a472 383c 7a6e 85bc 210e fc3c efc4 cf3d
000003f0: f86b 68bc e859 743b f094 65bd cf57 5dbc
0.21048746 0.1859113 -0.01250029 0.1344734 0.09372625 -0.027737886 -0.08821239 -0.016130727
0.0024354372 0.06997187 -0.016986564 0.10508888 0.037372835 0.04336044 0.0742561 0.085891895
-0.074983746 -0.03589404 0.06646288 -0.015752707 -0.07046053 -0.10055701 -0.032928485 -0.09724944
0.025948357 -0.041552413 -0.05002525 0.02530162 0.083413586 -0.17273553 0.1500207 -0.03360585
-0.03915782 -0.051276047 -0.027312199 -0.021360384 -0.10423546 -0.08340504 0.07035221 0.04848716
-0.049816445 0.0015344704 -0.020398704 0.0041840905 -0.12765926 0.11718968 -0.05795407 -0.24821144
0.008290214 -0.13490407 -0.023113701 -0.015538471 0.11794024 0.046845958 -0.11062643 -0.05613656
0.084945105 0.014462371 0.062939614 0.027796315 -0.09496847 -0.26092073 -0.16440117 0.072659805
0.0509008 0.019918496 -0.10093737 0.00727593 -0.20221151 0.02334381 -0.018499928 -0.080983266
0.037402354 0.058080673 -0.005956447 0.030980933 -0.045594838 -0.041117195 -0.072522074 -0.040744543
0.014441967 0.095937066 -0.02909015 -0.017551707 0.0071218433 -0.070567735 -0.03304315 -0.061103493
-0.017231433 -0.04508241 0.040455617 0.0069760173 0.03201871 0.13799421 0.16330127 -0.08603368
0.05198055 -0.12194737 -0.1471325 0.06990827 0.07993867 0.10416673 -0.06765795 -0.09836867
-0.030617965 -0.12544753 0.00793988 -0.20161898 0.0018159765 0.037030924 0.10819809 -0.066934854
-0.08893179 -0.03487892 0.035460763 -0.14053936 -0.24032961 -0.06908968 -0.052789226 -0.105565295
-0.116057865 -0.14288239 -0.056875702 -0.032827366 0.018370386 -0.09093275 -0.021756181 -0.009884585
0.02244248 0.0666813 -0.12087832 -0.1925853 -0.093472846 -0.007657241 -0.017205507 0.15717864
0.06710093 0.1514912 0.017950805 -0.053061567 0.11364424 0.14913315 0.025846105 -0.026869766
0.10655203 0.10934069 -0.034305908 0.014239809 -0.0409752 -0.2959582 0.02594546 -0.0016285966
0.04825341 -0.0737623 0.108171955 -0.08161904 -0.041540846 -0.01781338 0.0016064836 0.0026082934
-0.0717339 0.08716993 0.10577301 0.16452363 0.040436547 0.026145987 0.12096563 0.09954281
0.07590608 -0.09431776 0.00045654495 0.095064886 -0.009499915 -0.048780587 0.017898563 -0.06923976
0.049701385 0.02540098 -0.089362524 0.042679314 0.10178837 0.119585864 -0.11034646 -0.018431734
-0.011064454 0.009471211 -0.070653826 -0.09598879 -0.053072777 0.07332232 -0.05519742 0.052470975
0.03000785 -0.019005436 -0.09534696 0.10157627 -0.03395524 -0.103070185 -0.002525396 -0.07169698
-0.13410015 -0.046610348 -0.13032867 -0.2337111 -0.07516543 0.0010751487 -0.031719882 0.06307051
-0.012142997 0.08083746 0.030478392 0.10694065 -0.05348745 -0.026071781 -0.11259021 -0.26316577
-0.047684476 -0.055678245 0.058297645 -0.09984698 -0.078287795 -0.04147551 -0.035448607 -0.09957103
0.03072104 0.08296888 0.012037245 -0.043507777 -0.027521111 -0.06141557 0.10076284 -0.0066609243
-0.08788139 0.036991656 -0.022807967 0.11885601 0.018254658 0.06917057 0.03627224 -0.08010936
0.09340776 -0.095645644 -0.104492694 0.04644339 0.0077438173 -0.11073501 0.08025824 0.0046856683
0.011257801 -0.01628803 0.030768456 0.10144984 -0.014185898 0.0037285034 -0.05605024 -0.013509705

layer.17.bias f4 [40]
00000000: 9312 41bc 7eda 03be 11ec e5bd 0cf2 95bc
00000010: 587b 9cbc 2c4f e5bc d9ab cabc d4ae adbc
00000020: 75a1 6dbc 60ec 72bc f352 853c fbe3 533c
00000030: 4b79 05bb 2a24 3339 50fb 84bd f48e 6a3c
00000040: d014 84bc 9f53 783c d0be 25bc f98f 76bb
00000050: 254a e6bb 39c8 d03c 2a7a a6bc 69d6 3c3c
00000060: 3ea4 c33b bb7c 06bc 41d2 d6bb 57de 91bb
00000070: e055 1639 3dbe b3bc 32bb 023d 053d eabd
00000080: 396b 05ba 2efe 07bc d2ec 83bd a08e 31bd
00000090: 9501 7dbc 812e aebb 2fdd cebb 2662 36bc
-0.011784214 -0.12876317 -0.11226667 -0.018303894 -0.019101784 -0.027991854 -0.024740146 -0.021201529
-0.014503826 -0.014826864 0.016274905 0.012932773 -0.0020366486 0.00017084242 -0.064932466 0.014316309
-0.016123205 0.015156656 -0.010116294 -0.0037622435 -0.0070278817 0.025486099 -0.020321924 0.011525729
0.005970507 -0.008208449 -0.006555826 -0.004451554 0.00014337106 -0.021941299 0.031916805 -0.1143742
-0.0005089525 -0.008300347 -0.06441654 -0.04334891 -0.015442272 -0.0053156023 -0.006312988 -0.011131799
