CNN Models/OU_J_Weights.pt (torch_old, 811425 bytes, 22 tensors)

layer.0.weight f4 [50, 1, 3, 3]
000000 39 14 9d bd f4 2b 57 bf 19 ed f8 3e dd 6c 64 3f
       -0.07669873 -0.8405144 0.4861839 0.8922861
000010 d9 7a 42 bf ff 56 0a 3e 18 ac 7c bf 65 8a 02 3d
       -0.759687 0.13509749 -0.98700094 0.031870265
000020 30 bd a1 3e 66 ae 17 3e c4 b7 af 3e 0d 3e 97 3d
       0.3158965 0.14812621 0.3431989 0.07384882
000030 e3 33 84 bb 94 db 30 be 4c 0f 00 3f 4c 4e 09 3f
       -0.0040345057 -0.17271262 0.5002334 0.53635097
000040 1d 63 c6 be a5 60 19 3e a9 0b 5b 3f eb d1 48 bf
       -0.38747492 0.14978273 0.85564667 -0.7844531
000050 58 11 92 3e c6 6a b9 be 25 22 93 3d 69 ca 2f bd
       0.28528857 -0.36214274 0.07184247 -0.042917643
000060 ff ef f8 be 0c d2 19 bf dd 51 d0 3e ed a2 75 be
       -0.48620602 -0.6008613 0.40687457 -0.23987933
000070 36 c0 cb 3d b1 75 4b 3e bd aa 47 bf 13 3d 80 3f
       0.09948771 0.19869114 -0.779949 1.0018638
000080 95 bb de 3e 07 36 0c 3d 27 68 89 be 32 72 43 be
       0.4350249 0.034231212 -0.26837274 -0.19086531
000090 86 e5 05 bf bf 56 bc bd c4 2d 27 3d 9f 75 46 bf
       -0.5230335 -0.09196233 0.04081513 -0.77523226
0000a0 65 43 d0 3e 65 96 76 be 27 39 3a 3e aa 38 6b bf
       0.40676418 -0.24080808 0.18185864 -0.9188334
0000b0 7a 7b 74 3f b7 15 d7 be e9 be ef bd af c3 b5 be
       0.9550091 -0.42008755 -0.11706335 -0.35500857
0000c0 8d 10 0e bf 36 ab 8f 3e d8 94 bb be 4d 49 1d 3f
       -0.55494004 0.2806031 -0.36636996 0.61439973
0000d0 29 d1 f9 3e bc 3b 6e bc 1e 36 db 3d 46 c4 ba 3d
       0.4879239 -0.014540609 0.107036814 0.091194674
0000e0 f5 2c 13 3f 05 ee 0f bf 06 6c bc be 90 4b de 3b
       0.57490474 -0.56222564 -0.36801165 0.00678391
0000f0 65 3e 69 bf 15 93 36 3d a8 af 98 be b3 07 80 3d
       -0.9111083 0.044573862 -0.29821515 0.062514685
000100 5d 65 4a 3f ba c3 44 be 2c db 81 be 44 3d bd 3d
       0.7906092 -0.19215289 -0.25362527 0.09240201
000110 2b ba 6d 3d eb 40 51 be 05 28 aa be 63 87 91 be
       0.05803887 -0.2043492 -0.33233657 -0.28423604
000120 97 84 46 3d 0a 52 5e 3e 4b 12 ef be f4 df ae be
       0.04846629 0.21710983 -0.46693644 -0.34155238
000130 f0 78 9d be bf 5f 1f be e4 99 84 be 4d ce 8d 3e
       -0.3075633 -0.15563868 -0.2589866 0.27696458
000140 a9 23 1f 3f 9a 8c 00 3f 14 2f be bd 30 ee 68 be
       0.6216379 0.5021454 -0.09286323 -0.22747111
000150 ed 74 2c 3f 25 77 fe bd 7c 06 df bd 32 dc 3f bf
       0.67365915 -0.12425069 -0.10889909 -0.74945366
000160 90 67 cf 3d 57 b7 c3 3d 63 04 9c be 74 20 37 bf
       0.10127175 0.09556454 -0.30472097 -0.71533895
000170 e8 c4 b0 3e 75 93 34 3f 0d c1 05 3e 67 d8 4b be
       0.34525228 0.705375 0.13061924 -0.1990677
000180 16 8a e9 be 50 89 6a be 8e 8e 77 3e 18 e5 d2 be
       -0.45613164 -0.22903943 0.24175474 -0.4119041
000190 ed cf d5 be ba 52 9f be 57 76 3f 3f 3f 86 9d 3e
       -0.41760197 -0.31117803 0.7478995 0.30766484
0001a0 55 5e 31 bf 1a 31 ec 3d 29 cb 98 3c 35 c7 60 3c
       -0.69284564 0.11532803 0.018651562 0.01371937
0001b0 87 1e 99 bd cb be c5 be cc 53 a9 3e 4f b2 b9 be
       -0.07476526 -0.38622126 0.33071744 -0.3626885
0001c0 ae da 30 be 92 e3 1d bf bc cf c8 be 3e 61 ef be
       -0.1727092 -0.6167537 -0.3922099 -0.46753877
0001d0 fe df f5 3e bd 35 56 3f 11 b4 ae 3d 55 c3 a2 3d
       0.48022455 0.8367575 0.08530439 0.07947413
0001e0 c7 ae 89 bc 94 a5 b9 be c0 ad 92 bf a5 84 29 3e
       -0.016806973 -0.3625914 -1.1459274 0.16554506
0001f0 80 29 3f 3e 07 a9 28 3e 59 e2 e9 3e 53 fe e7 bc
       0.18668175 0.16470729 0.45680502 -0.028319513
000200 57 1d c1 be 17 55 9a bf 78 d7 84 3e 1b ce b4 3d
       -0.37717697 -1.2057217 0.2594564 0.08828374
000210 04 f8 c0 bc cb 08 40 be ef 04 03 3f 53 6b ec 3e
       -0.023555763 -0.18753354 0.51179403 0.46175632
000220 89 cd 85 be 74 db b3 3e d9 73 a1 3e 7e 59 2c be
       -0.26133373 0.35128367 0.31533697 -0.16831014
000230 f1 72 99 bf 76 b7 6e bd e7 05 18 be 99 a3 0c 3f
       -1.1988202 -0.05828043 -0.14846002 0.5493713
000240 e6 8b d1 be de 0c d8 3e 8d 2d 13 bf 11 ec aa bd
       -0.40927047 0.42197317 -0.5749138 -0.08345807
000250 14 96 10 3e c2 d4 f3 be 82 0e 22 3f d8 b6 a4 bd
       0.1411975 -0.4762326 0.6330339 -0.08042687
000260 14 07 c9 bd c1 1f 85 be 69 62 58 3e d5 70 46 be
       -0.09815803 -0.2600079 0.2113129 -0.1937898
000270 ce 3a 19 3f fb 70 b1 3e 60 b2 8e be 2d 55 21 bc
       0.59855354 0.3465651 -0.27870464 -0.009846968
000280 d3 7a 0f 3f d2 c5 36 bf a6 49 0e 3f 3b f8 c9 be
       0.5604679 -0.713956 0.5558113 -0.39447197
000290 5a 76 a2 be 34 f7 45 bf eb cd 95 be 00 a9 ff 3d
       -0.3173092 -0.7733033 -0.29258665 0.12483406
0002a0 e0 7f 90 3e 12 7c f6 be f5 02 6f 3f 64 73 b1 3e
       0.2822256 -0.48141533 0.9336389 0.3465835
0002b0 72 56 68 3e aa 61 9c be 3e 26 4f bd 46 4c 85 3e
       0.22689226 -0.30543262 -0.05057358 0.26034755
0002c0 8d b8 c5 3e cd bd f3 bd 41 5b 10 be 67 2d b4 be
       0.38617364 -0.11901436 -0.1409731 -0.3519089
0002d0 15 c7 0d 3f 17 98 28 bf bf 8d 1b 3e 68 fc fc bd
       0.553819 -0.6585707 0.1519079 -0.1235283
0002e0 b4 1e 0b bf 4b 0f 34 3f d1 3d d7 3e 61 b7 82 bd
       -0.54343724 0.70335835 0.4203935 -0.06382633
0002f0 0f b6 b8 be d1 6e 43 bd 34 7a 32 bf be 07 8a be
       -0.360764 -0.047713105 -0.6971772 -0.26959032
000300 9b b7 6b 3e 4e 9b 88 3d 05 a8 05 bf e0 fb 18 3e
       0.23019259 0.06670247 -0.522095 0.14939833
000310 87 d5 a5 bc 5d 5c 2c bf 8e 97 0f bf 06 44 a8 be
       -0.02024342 -0.67328435 -0.5609063 -0.32864398
000320 78 1b 00 bd 39 3b af 3e 35 c8 d1 be ff 4f c3 be
       -0.031276196 0.3422487 -0.40973058 -0.3814697
000330 40 8d 46 3d 6c 54 37 3d 3c 5f 1c 3f 92 f1 a6 3e
       0.04847455 0.044758245 0.61082816 0.3260618
000340 67 85 58 be be 14 86 bf 48 77 87 bd 4b 6a aa bd
       -0.21144639 -1.047508 -0.06614548 -0.08321055
000350 57 ac 5c 3d 94 36 13 be 22 68 56 3f dc bb 29 3e
       0.053875294 -0.14376289 0.83752644 0.16575569
000360 b2 35 a8 3e 17 47 25 3f b9 a1 d4 3d 1e c6 bb be
       0.32853466 0.645616 0.10382409 -0.3667459
000370 14 d0 eb bd 7e 28 48 bf 8e 3e 24 be ac 28 76 3e
       -0.11514297 -0.78186786 -0.16039488 0.24038953
000380 55 4d 1b 3f d2 92 8b be a9 71 70 bc a4 a7 4f 3f
       0.60664874 -0.27260453 -0.014675536 0.81115174
000390 eb 51 64 3f 89 13 91 be a1 0e de 3e bf b6 79 bf
       0.89187497 -0.28335217 0.43370536 -0.97544473
0003a0 3d 55 70 bf 90 66 c0 3e 88 d6 92 be e2 03 2c 3f
       -0.93880063 0.3757825 -0.286793 0.67193425
0003b0 bf c9 c1 be 7e 36 3a bc 15 15 0f bf 45 52 eb 3c
       -0.37849233 -0.011365531 -0.55891544 0.028725753
0003c0 99 fb f1 bd 2f 4f 8d bd 3e 93 ef 3c 32 19 f8 3e
       -0.118155666 -0.06899869 0.029245015 0.48456722
0003d0 64 bb 4b 3f 60 5a b6 bb d4 8d 2e 3f 25 b2 48 be
       0.7958281 -0.0055649728 0.6818516 -0.19599207
0003e0 d3 bf 71 be 88 11 13 bf 24 3b b3 bd a3 70 17 bf
       -0.23608331 -0.57448626 -0.087515146 -0.59156245
0003f0 47 c7 cc be 38 dc aa be 97 91 f7 bd 34 11 7b 3e
       -0.39995787 -0.3337114 -0.12088316 0.24518281

layer.0.bias f4 [50]
000000 b9 81 25 3b b4 f3 33 bd 98 3a f8 b8 26 c3 14 bc
       0.0025254323 -0.043933585 -0.000118364755 -0.00907973
000010 d7 31 74 3c 80 e6 0c bb 61 73 98 3c 8c 25 3e bb
       0.014904461 -0.0021499693 0.018609704 -0.002901408
000020 07 ca 22 3a 35 85 f2 ba 5a 78 3b 3a 16 15 72 3a
       0.0006209914 -0.0018502834 0.00071514177 0.00092347094
000030 88 e2 be 3c f1 ef ed ba 1f 4e c6 3b 53 bf a4 3a
       0.023301378 -0.0018153173 0.006051793 0.0012569226
000040 e9 74 2b 3b 68 b0 86 bb d3 80 47 3a 89 f9 ce bb
       0.0026162213 -0.0041103847 0.0007610444 -0.006316368
000050 ce f9 3f bd 6c 21 44 3c f0 92 d5 3b b5 74 d7 ba
       -0.04686909 0.011970859 0.0065177605 -0.001643798
000060 ef 28 34 bd e8 97 5b ba b2 fa c4 3b 24 93 91 bb
       -0.04398435 -0.0008376823 0.0060113305 -0.0044425894
000070 19 46 78 bb 20 cb 81 ba 35 7a 7a 3a 40 ec 00 bd
       -0.0037883578 -0.0009902455 0.00095549534 -0.031475306
000080 8d de 05 bd 2b 87 70 3a 07 09 8f ba 00 00 00 00
       -0.032682944 0.0009175415 -0.0010912725 0.0
000090 ed 41 69 3b 09 61 dc bb 92 06 6c 3c 93 2f 22 3b
       0.0035592273 -0.0067254347 0.014405863 0.0024747595
0000a0 b2 54 15 bc f4 29 c6 3b d0 e8 3a 3c b7 64 0b bb
       -0.009114431 0.0060474817 0.011408046 -0.0021269748
0000b0 3d 84 32 bd e0 b4 ce 3c 6c e5 2b bc de 9b f5 3c
       -0.043583144 0.025232732 -0.01049171 0.02998155
0000c0 b1 57 f4 3b 0a 7f cd 3a
       0.0074567427 0.0015678119

layer.4.weight f4 [50, 50, 3, 3]
000000 51 36 0f be b9 fe ef bd 1f d6 06 be 1e 90 65 bd
       -0.13985564 -0.11718506 -0.13167618 -0.056045644
000010 8a 65 a6 3d d1 9d 30 be 53 a8 ad 3d 27 b6 51 bd
       0.08124836 -0.17247702 0.08479371 -0.051199105
000020 70 91 35 3d ae d3 1d be 1d 92 8f 3d af d8 a3 3d
       0.044328153 -0.1541278 0.07010291 0.080003135
000030 55 b8 c0 bd 60 76 1c bd 3e 53 cc bd 73 df be bd
       -0.094101585 -0.03819883 -0.09976815 -0.09319963
000040 b2 b9 fb bd af 6c ac 3d 16 a6 dc 3c 87 92 43 bd
       -0.12291278 0.08419167 0.026934665 -0.04774716
000050 65 30 55 3c 88 57 81 3d 98 2e e8 bd ce 19 ab be
       0.013012026 0.063155234 -0.11337012 -0.33418125
000060 00 7d 75 3e ba 7a e5 3d 95 d1 9e bd 54 f6 b8 3a
       0.23973465 0.11205049 -0.07754818 0.0014111497
000070 bb d7 ad 3c 28 45 b3 3c 1b df a0 bd d7 30 b1 bd
       0.021221032 0.021883562 -0.07855054 -0.086518936
000080 08 76 6b bd 6f c4 12 bd 0d 97 15 3e 38 b7 66 be
       -0.05748561 -0.035831865 0.14608403 -0.2253083
000090 b2 67 ad 3b 82 ea 93 bd 55 85 63 3d 6e 08 11 bb
       0.0052919025 -0.07222463 0.055547077 -0.0022130269
0000a0 b4 f4 d4 bd 50 bb 9f bc 42 27 95 bc 13 e7 e7 bc
       -0.10398236 -0.019498497 -0.018207196 -0.028308427
0000b0 13 93 12 be 96 dc 6e 3d 78 27 c0 bd b7 c6 89 bd
       -0.14313917 0.058315836 -0.09382528 -0.06727355
0000c0 69 7b 2a bc 50 72 40 3d dc 84 99 bd 8c 13 43 bd
       -0.0104054 0.046984017 -0.07496044 -0.047626063
0000d0 17 f5 86 bd f2 f2 51 bc 2b 08 2e 3d 22 26 3d 3c
       -0.06589716 -0.01281427 0.04248826 0.011544736
0000e0 cb ea 46 bc e2 b9 19 3d 21 99 79 3d 5b 0d aa bd
       -0.01214094 0.037530787 0.06093705 -0.083033286
0000f0 e1 b9 a7 3d 4b bd 58 be 09 4a 6e bd 58 2b 89 bd
       0.081897505 -0.2116596 -0.058176074 -0.0669772
000100 6b 3c 30 bd 8d 1c c9 bd 93 89 3b 3c b6 67 ee bd
       -0.04302637 -0.09819899 0.0114463745 -0.11640875
000110 3b 46 89 3d 12 e4 99 3d 2c fe 87 bd 6c d9 9e bc
       0.067028485 0.07514204 -0.06640276 -0.019390784
000120 d1 af 0e be 30 cb 4c bc 70 49 f7 bc 8c 11 41 3e
       -0.13934256 -0.012499616 -0.030186385 0.1885435
000130 04 12 96 ba 79 25 b5 3c a9 57 d7 3d 3f cd 1e bd
       -0.0011449461 0.022112595 0.10514767 -0.038769957
000140 22 47 ac ba be 93 fb 3c 3a 58 d1 bd 8e 74 24 be
       -0.0013143758 0.030710097 -0.10221906 -0.16060087
000150 45 e2 a7 bd 42 5c b2 ba 2c 81 0e be 6a d3 59 3b
       -0.08197454 -0.0013607817 -0.13916463 0.0033237585
000160 8f 9d b4 3d b9 be ba 3b 08 d0 ee 3d e4 68 81 bd
       0.088191144 0.0056990054 0.116607726 -0.063188344
000170 46 7e 5b bc a4 77 e7 bd 57 0b 85 bd 6a e0 62 be
       -0.013396805 -0.113021165 -0.064963035 -0.2215592
000180 60 2a d1 3a 62 c4 f0 bc a4 5b 0e bd 62 b9 04 3d
       0.0015958063 -0.029390518 -0.034755364 0.032403357
000190 99 6f 22 be d9 9d f6 bd 09 74 41 3c 83 67 d8 bc
       -0.15862884 -0.12041826 0.01180745 -0.026416546
0001a0 c3 37 9f 3d 99 74 bd 3d 29 b9 3b 3e cf 83 b4 3c
       0.077743076 0.09250755 0.18332352 0.022035507
0001b0 27 2c 05 bd 6e 7a 3b 3d b5 4d 77 3c be 44 53 3d
       -0.03251281 0.045771055 0.01509421 0.05157923
0001c0 fa 3f 22 3d 51 58 5f 3d 6a 0b 1f 3e ec 59 e9 bd
       0.039611794 0.054527584 0.15531698 -0.11394104
0001d0 68 6d db 3d d6 8c 5a bd d9 62 a6 bd ec 2c b3 bd
       0.10714227 -0.053356968 -0.081243224 -0.087488025
0001e0 81 28 52 bd 05 d0 f0 3c e7 53 0f 3e d3 2b 14 bb
       -0.05130816 0.029396066 0.1399685 -0.002260913
0001f0 4e 27 72 bc e1 7e 6e bc 24 8d 71 3d 86 cc 69 3d
       -0.014779879 -0.0145566175 0.058972493 0.057079814
000200 96 f7 81 bd 5d dc 16 be fc 3a 8f bd 61 da e4 bc
       -0.063460514 -0.147325 -0.06993672 -0.027936162
000210 10 b6 72 3d d3 2b 94 bc bf 5e 7c bd a4 a1 87 bc
       0.05925566 -0.018087303 -0.061613794 -0.016556568
000220 14 e3 57 bc 6a ed dc 3b 53 13 85 3d 82 ef a8 bc
       -0.013176698 0.006742169 0.064978264 -0.020622019
000230 39 06 50 3d 35 63 15 3e b6 38 9f 3b 11 43 60 bb
       0.050787184 0.14588626 0.0048590554 -0.0034219662
000240 62 1e 23 be bf e7 07 3d 98 4e 21 bd 7d cf 6d 3c
       -0.15929559 0.033179995 -0.039381593 0.014514801
000250 d3 f2 4a 3c 65 21 73 bc 32 e9 85 bd a2 a0 b7 3d
       0.012386995 -0.014839505 -0.06538619 0.08966185
000260 8c 65 92 bd 3e 4b f6 bc 93 a9 18 bd bc cb 20 bc
       -0.07148275 -0.030065175 -0.037271094 -0.009814199
000270 d5 47 14 bd 71 2d 12 bd 40 e7 c1 bd 08 85 2d 3c
       -0.036201317 -0.035687868 -0.094679356 0.010590799
000280 74 4b 04 3d 71 1c ba 3b 42 19 e2 bc 40 e2 89 3d
       0.03229852 0.00567966 -0.027599934 0.06732607
000290 d2 ee 59 bd e2 60 08 3d 7e f0 ef bd 46 7d 5f 3d
       -0.053206272 0.03329552 -0.11715792 0.05456283
0002a0 03 fd 79 bc 78 34 4e 3d 3b 70 d5 bc fe f1 58 3d
       -0.015258077 0.050343007 -0.026054492 0.052965157
0002b0 98 23 ef bd e5 c3 ea bc 30 83 b2 3b 28 43 12 bd
       -0.11676711 -0.028657863 0.0054477677 -0.035708576
0002c0 f6 bd 0f bd b6 66 f9 bc 86 83 b1 3d 76 f3 f1 bd
       -0.03509327 -0.030444484 0.08667664 -0.118140146
0002d0 93 3e ee bd 69 2e 85 bd e4 7b 14 b9 d5 b2 b3 3c
       -0.11633029 -0.06502993 -0.00014160533 0.02193586
0002e0 f5 fd a3 bc cf b7 d7 bd 30 cd 36 bd c2 1d 37 bc
       -0.020018557 -0.105331056 -0.044629276 -0.011176528
0002f0 30 37 9f bd 57 f5 64 3d 87 ac f3 3d 5a 86 c6 3d
       -0.07774198 0.055898037 0.11898141 0.09693594
000300 71 9f ad bc a6 87 a5 3d 91 f1 31 3e a2 f9 95 bd
       -0.021194192 0.080825135 0.17377307 -0.07323004
000310 bd 23 f5 3c ca b5 ef 3d cd 6e df bc fc 70 9c 3d
       0.029924268 0.117045954 -0.027274514 0.076387376
000320 a2 79 85 3d 09 3f b8 3b 5d 13 a8 3d 7d 83 0d 3e
       0.0651734 0.0056227488 0.08206818 0.1381969
000330 af 2d 24 3e 61 24 bf bd 0b dd 41 3c c0 4b 0a be
       0.16033052 -0.093331106 0.011832486 -0.13505459
000340 c6 b5 59 bd c0 89 4e bd 02 1f 94 3c 98 24 56 3e
       -0.05315187 -0.050424337 0.018081192 0.20912397
000350 62 f2 00 3d 79 5d 4b bd 4b e6 44 3d 0b c3 72 bd
       0.031481154 -0.04964969 0.048071187 -0.05926804
000360 ae 55 22 be 53 4a dc 3b d9 9f 8b be 4a c6 5b bd
       -0.15852997 0.0067227273 -0.27270392 -0.0536559
000370 9c f4 2f bc 46 69 95 bd ee e3 d2 bc d0 de da bd
       -0.010739472 -0.0729547 -0.025743451 -0.10687029
000380 d2 22 f4 bc e1 21 79 bc d7 e5 be bd a7 2b 61 bd
       -0.02980176 -0.015205831 -0.09321182 -0.05497327
000390 1c 40 4f bd ce 9e 61 bb 7c a4 ba be 7e e4 f9 3c
       -0.05059825 -0.003442693 -0.36453617 0.030504461
0003a0 90 f4 d9 3d 38 da a3 bd 7f 1b f1 3d b3 5b f1 3c
       0.1064235 -0.08000606 0.117728226 0.02946267
0003b0 cc 55 3b be dc 2e 03 be a4 e0 da 3b b5 6b 49 3d
       -0.18294448 -0.12810844 0.0066796113 0.049174983
0003c0 c4 86 85 3d d8 1f a4 3c d1 e1 4b bd 42 be 00 be
       0.06519845 0.020034716 -0.049775902 -0.12572578
0003d0 d0 8a 8c bd ea cd a4 bd 31 51 a5 bd 5c be 1b bd
       -0.06862414 -0.080470875 -0.08072127 -0.038023338
0003e0 04 20 19 bd de f3 a4 3d e6 99 6c 3d 81 a8 ed ba
       -0.037384048 0.080543265 0.057763956 -0.0018131883
0003f0 49 23 d6 bd 86 a5 7b be d0 d7 27 be a8 62 0d 3d
       -0.10455949 -0.24574861 -0.1639092 0.034517914

layer.4.bias f4 [50]
000000 e2 3e bc bb d9 ea 9a 3b 82 a0 35 bd 4f ef c4 bc
       -0.005744801 0.004727703 -0.044342525 -0.024039892
000010 95 51 31 bd a6 ca 67 3c 4d ed c5 bc d9 8a 14 bd
       -0.043290693 0.014147436 -0.024161005 -0.036265228
000020 59 fe 9a bd 03 7e 2c 3a b4 bb 66 3c 3a 47 82 3c
       -0.07568044 0.00065800565 0.014082838 0.015903104
000030 46 b8 a1 3c ef 8f 45 3c 37 9f 13 3d a0 4a 61 3d
       0.019741189 0.012058242 0.03604051 0.05500281
000040 fb 5c a2 3c d4 3f e2 3c 34 15 5a 3c f4 24 97 3c
       0.019819727 0.027618326 0.013310719 0.018450238
000050 3d 92 f9 3c 5d 89 b1 3c 6d 0a ed 3c d2 c2 11 bc
       0.03046524 0.021671945 0.028935635 -0.008896546
000060 d6 4b 5c 3c dc a1 55 bd 16 3e 90 3c 8a 96 14 3c
       0.013445815 -0.052156314 0.01760773 0.009069094
000070 58 4b f3 3c 3b e8 8b 39 c0 45 c7 3c 67 b1 8f 3c
       0.029699013 0.0002668517 0.024325252 0.017540647
000080 bb 0c 8e 3c 4f 1d a3 3c e9 82 42 3c fa 13 81 3b
       0.017340055 0.019911436 0.011872032 0.003939149
000090 67 43 de 3b f4 7e 01 3d d6 40 93 b9 6d 15 aa 3c
       0.0067829373 0.031615213 -0.0002808633 0.02076217
0000a0 e5 42 10 3d c5 8d af bd c1 2c 55 3c 2b 45 e7 bd
       0.035220046 -0.08571962 0.013011158 -0.112924896
0000b0 83 db 00 3d 11 aa 1a bd 21 50 b3 b9 6e d0 89 3c
       0.031459343 -0.037759844 -0.0003420124 0.01682302
0000c0 1b ec f4 bd a8 a5 ad 3c
       -0.11959096 0.021197155

layer.7.weight f4 [50, 50, 3, 3]
000000 b9 a2 05 bc 0a ca 1e 3d 02 44 db 3c 97 ec d4 bd
       -0.008156472 0.0387669 0.026765827 -0.103966884
000010 cc 02 1f 3d 17 c2 02 bb cb 76 55 bd f9 1a a0 bd
       0.038821027 -0.0019952112 -0.052115243 -0.078176446
000020 50 b2 8d bd 2c c0 d8 3d cc f0 2d bd 0d 00 0f 3c
       -0.06918776 0.10583529 -0.04246597 0.008728039
000030 2d 02 4b 3d c5 47 12 bb 9b 96 db 3b c0 38 16 3e
       0.04956262 -0.002232061 0.006701303 0.14670086
000040 db 81 37 3e df 70 0d 3e c9 91 ba bc 78 54 7c 3c
       0.1792063 0.13812588 -0.022774594 0.015400998
000050 88 bd 2d bd dd 93 1e 3e e0 aa 49 bd 48 1f 42 bc
       -0.04241708 0.15486093 -0.049235225 -0.011848278
000060 1c dc 2b 3d 2e 0f 9e bd 66 8f e7 3d 52 e0 59 3d
       0.04195796 -0.07717739 0.11306648 0.053192444
000070 08 19 04 be b5 4e ad 3d 45 a6 07 be 26 94 d0 bc
       -0.12900174 0.08462278 -0.1324702 -0.025461268
000080 95 59 d7 bd 81 a9 4e 3d c3 a5 a9 bc 5c 45 b4 bd
       -0.10515133 0.05045462 -0.020708924 -0.08802292
000090 6e 81 d9 3b e9 19 6f bd 81 04 3b be 38 22 98 bc
       0.0066377437 -0.05837432 -0.18263437 -0.018571004
0000a0 6f 1b a2 bd 04 24 11 3b 70 ae 62 bd 48 e4 5e 3c
       -0.07915389 0.002214671 -0.055342138 0.013604231
0000b0 fa 14 a1 bc 56 a6 09 bd 98 14 65 3d bb 6e 19 3d
       -0.019663323 -0.033605896 0.055927843 0.037459116
0000c0 f5 d5 d4 bb 67 93 1d 3d 1c 9b c3 3d 6e 9c df bd
       -0.006495232 0.038470652 0.09551069 -0.109185085
0000d0 2b d8 2b 3d 08 3d f5 bd 86 d1 ee bc 60 27 88 bc
       0.0419542 -0.119745314 -0.029152643 -0.016620338
0000e0 c1 d5 d3 3d 5e ab 97 3c 87 f1 c4 bd bb 47 06 3d
       0.10343505 0.018514331 -0.0961638 0.03278325
0000f0 5e 12 26 3c ce 9f 25 3d 6b 4c 0f be 00 be e9 3d
       0.010136215 0.040435605 -0.13993995 0.11413193
000100 40 63 bd 3c b0 f9 03 be de 04 0e bd ee 3f 56 bd
       0.023118615 -0.12888217 -0.03467261 -0.05230706
000110 89 e9 6b 3d 3b 36 4f bd d6 50 8c bd f5 0d 05 3d
       0.057595763 -0.050588828 -0.06851356 0.032484014
000120 c4 a7 cf 3c 66 16 7f 3c 1b f6 82 be e9 76 0c be
       0.025348552 0.015569305 -0.2557839 -0.13717236
000130 b3 c9 09 be 81 b6 0c be 3a c9 71 bd f4 2d 67 bd
       -0.13455848 -0.13741495 -0.059029795 -0.05644031
000140 88 5d 3f be 6e 3a 8c bd 7f eb c8 bd 94 aa 62 bd
       -0.18688023 -0.06847082 -0.09810542 -0.055338457
000150 94 ed 1d be 6c 5a bd 3c ca 74 e9 bd cd 4f 11 3d
       -0.1542266 0.023114406 -0.11399229 0.035476495
000160 d2 48 ec 3d 30 e9 08 be d1 94 e2 bc cc bf 45 3d
       0.11537327 -0.13370204 -0.027658852 0.048278615
000170 2f 30 91 3d 4f 7d 58 bd 14 21 59 3d cf 1c 01 3c
       0.070892684 -0.05285388 0.05301006 0.007880404
000180 dd 40 0d be dd 9e c6 3c 4f de d5 bd bf 2b 24 3d
       -0.13794275 0.024245674 -0.104427926 0.040080782
000190 e6 c3 05 bd 8f 03 91 bd e6 e2 0f 3d 72 37 41 bd
       -0.032657526 -0.07080757 0.035128497 -0.047172017
0001a0 5a 22 c1 bd ab 4a 44 3d e4 98 de bb a4 fb 68 bd
       -0.0943038 0.04792277 -0.0067931283 -0.05688061
0001b0 88 10 f5 3d a1 da 22 3d 63 2c 04 3d 41 42 a8 3d
       0.11966044 0.039759282 0.032268893 0.08215762
0001c0 15 8b a5 3d 94 8f 43 3d b3 2a aa 3d 95 a4 fc 3c
       0.080831684 0.04774435 0.083089255 0.030840198
0001d0 3a a5 aa 3d b1 d7 98 3c f2 ee 25 bd 6f 85 86 bd
       0.08332296 0.018657537 -0.04051108 -0.06568419
0001e0 fc e5 71 bc 96 bd 32 3c fb b7 1e 3e 3a 12 1f be
       -0.014764305 0.010909459 0.1549987 -0.15534297
0001f0 f3 f3 93 3b 20 01 b6 3c 2d 91 d6 3d b0 34 e0 39
       0.004515165 0.022217333 0.10476909 0.00042763865
000200 76 8e e1 3c a2 4b 1e 3d 61 f0 56 bb b2 4c cd 3c
       0.027533751 0.038646348 -0.0032797086 0.025060985
000210 a6 ca 89 3c d5 8f 85 3c 89 98 32 3d 4d c9 06 bc
       0.016820263 0.016303936 0.0436025 -0.008226705
000220 f5 fd 67 bd 9a 1a 70 3d 4d f7 fd bc df c4 29 3d
       -0.056638677 0.05861912 -0.031001711 0.041447517
000230 10 30 6d bd af 04 be 3c 53 14 68 bc c9 ea 05 bd
       -0.057907164 0.023195593 -0.014165002 -0.03269461
000240 ed e3 0b be b2 67 32 bc ae 8e 83 bd d2 0c 9a 3d
       -0.13661166 -0.010888981 -0.06423698 0.075219765
000250 33 a9 8a bd 03 83 f3 bd a2 f7 89 3d 07 79 9e 3d
       -0.067705534 -0.11890223 0.06736685 0.07737928
000260 d9 c6 81 3c 29 69 85 3d bf 55 6b 3d 7d a2 be 3c
       0.015841888 0.06514198 0.05745482 0.02327084
000270 9a 21 06 bd 45 2f d9 bd 1e 99 88 bd 88 9b 33 be
       -0.03274689 -0.10604719 -0.0666983 -0.17539799
000280 d4 92 22 bd af 2a 99 3d c4 e2 39 bd 6b bc 01 bd
       -0.039690807 0.074788444 -0.045382276 -0.03167383
000290 eb 17 7a bd cc a3 65 3d 0e 86 a7 bd 26 0f cb bc
       -0.061057966 0.056064412 -0.08179866 -0.024787497
0002a0 1c 10 e4 3d 32 cb 13 3e f2 99 61 3d 1e c1 6e 3c
       0.11135885 0.14432982 0.055078454 0.01457241
0002b0 82 fa cb bc 9a 39 09 3d c9 7f 91 3d 42 78 f6 3c
       -0.024899725 0.0335022 0.07104451 0.03008664
0002c0 04 62 95 bc ca ed c8 3c 52 9a 4e bd 3b b9 45 3c
       -0.018235214 0.02452745 -0.05044014 0.012068088
0002d0 e3 39 bc 3c cd 9a eb 3c 00 f1 ac bd da c0 91 3d
       0.022976821 0.028760338 -0.084444046 0.07116862
0002e0 8b db be 3c 62 7d ff bd f4 5c ef bd 56 01 00 be
       0.023298046 -0.12475087 -0.11687651 -0.1250051
0002f0 98 df 54 3d 37 fb cb bd 2f dc 5a bd 44 a6 50 bc
       0.051971048 -0.09960025 -0.05343264 -0.012734953
000300 1f 36 da 3d 7f 19 8c bc 2f 10 15 3a 15 93 3f 3c
       0.10654854 -0.017102001 0.00056863105 0.011692782
000310 3b 02 ba 3d 80 d5 e1 3d 2a c8 30 3d 9f ee 81 3d
       0.09082457 0.1102705 0.04315964 0.063443415
000320 6b 5f 14 bd 19 02 5a 3d 8f da 64 3d 87 3d 18 bd
       -0.03622381 0.053224657 0.055872496 -0.037168052
000330 83 c6 80 bb 09 b8 18 3b 93 24 5b 3d e8 32 59 ba
       -0.0039299144 0.0023303053 0.053501677 -0.00082854787
000340 e3 c7 bd bd 83 77 e6 3c 21 bc 31 3d 86 13 6f bd
       -0.09266641 0.02813316 0.043392304 -0.05836823
000350 a9 b2 f0 3c c0 c0 dc 3c ba 08 b5 bc 60 8c 05 bd
       0.029382067 0.02694738 -0.022098888 -0.032604575
000360 1a 2e f4 3d c2 42 67 3c d6 18 8b bd 54 eb 02 3d
       0.11922856 0.014115037 -0.067918465 0.031962708
000370 21 b9 41 3e 29 43 ec bd 05 4b 2f bd 4b 92 ff bc
       0.18918277 -0.11536247 -0.042796154 -0.031197688
000380 0d 71 1d 3d 19 54 c0 bc 23 1f 34 3c 01 0f 71 bd
       0.03843789 -0.0234776 0.010993752 -0.0588522
000390 c1 87 9f 3d 50 7f fa 3d be 43 6f 3d 53 f7 8c bd
       0.07789565 0.12231314 0.058414213 -0.06883111
0003a0 b1 45 11 bd c4 d1 ad bd 10 69 20 bd 89 73 08 be
       -0.035466854 -0.08487275 -0.039162695 -0.13325323
0003b0 f6 87 f9 bd 4c bc 61 3c ac e8 2e be 1c 52 20 3d
       -0.121841356 0.013777804 -0.17080945 0.039140806
0003c0 98 af f0 bc 7e 63 12 bd b3 29 03 be 1a 9e b4 3d
       -0.029380605 -0.035739414 -0.12808876 0.08819218
0003d0 79 28 12 bd 36 48 89 bd 5f 0f 06 3d 5d 22 64 bc
       -0.03568313 -0.06703226 0.032729503 -0.0139242085
0003e0 9a 83 c6 bd 30 25 a8 3c 1f 6a 25 be 4a 85 1d be
       -0.0969307 0.020525545 -0.16153763 -0.15382877
0003f0 fb c8 93 3c 42 0b 4d bd f5 69 ed bd d1 06 c3 3d
       0.01804017 -0.050059564 -0.11592475 0.095227845

layer.7.bias f4 [50]
000000 20 07 24 bc 81 6d f5 3c 9d 81 a4 bb 76 b4 df bc
       -0.010011464 0.029959442 -0.005020334 -0.02730773
000010 96 5e c5 bc 52 37 af bb 59 ad 8e 3c ff b7 8b 3c
       -0.024092954 -0.005347171 0.017416643 0.01705551
000020 7a 34 18 bc 0a bc 20 3d ae 16 83 3c 9c dc 1e ba
       -0.009289855 0.039241828 0.016002025 -0.0006060095
000030 bd e1 11 3c 6c 6d 7b bd 73 b0 2d 3d 5d a1 9e 3b
       0.008903918 -0.06138365 0.042404603 0.0048410133
000040 e8 12 cc bc 6f 5d a2 3c eb ce 99 bc b8 b5 2c 3c
       -0.024911359 0.019819943 -0.018775424 0.010541372
000050 b2 55 ac bc 5a 67 b0 3c 9f 12 0c 3c 51 d4 2b 3b
       -0.021036956 0.021533657 0.0085493615 0.002621908
000060 3a 31 39 3c 14 25 d1 ba 11 b3 8e bc 98 1c 82 bb
       0.01130324 -0.0015956485 -0.01741937 -0.003970694
000070 d6 72 25 bd 92 f5 e8 3a c8 ac a9 bd 04 12 c5 3b
       -0.04039272 0.0017773381 -0.082849085 0.0060141105
000080 1e 94 80 38 98 0c e1 bc 8e 1f 17 bd 7b bc 4d bd
       6.1311046e-05 -0.027471825 -0.036895327 -0.050228577
000090 1b 4e ff 3c 0e 79 0c bb f1 8e 82 ba a6 6e 54 3c
       0.031165173 -0.002143446 -0.0009960813 0.012965834
0000a0 7e 2c e3 bc 28 cf 03 3c 31 f6 a3 ba 9b f7 9d bc
       -0.027731176 0.008044995 -0.0012509284 -0.019283107
0000b0 6e ff 1e bd 94 58 4c 3d a4 c7 d2 3c fb ed 30 3d
       -0.038817815 0.049889162 0.025729962 0.043195706
0000c0 f5 6e 41 bc bf 7f 10 3c
       -0.011806239 0.00881952

layer.10.weight f4 [50, 50, 3, 3]
000000 e1 45 46 bd 09 7b 99 bd da 40 6d bd bf 6f da bd
       -0.048406485 -0.0749417 -0.057923175 -0.10665845
000010 b1 62 9f bd 41 63 14 bd 20 e1 e0 3d 7f 29 a1 3d
       -0.07782496 -0.03622747 0.10980439 0.07869243
000020 0a 19 fc bc 8a ba 60 3e c6 cb cd 3c 6e d5 ae bd
       -0.030773658 0.21946159 0.02512158 -0.08536802
000030 52 ec 45 bd a9 80 1a bb 80 74 95 bd 5c 02 2f be
       -0.048321076 -0.0023575223 -0.07297611 -0.17090744
000040 55 ab 28 be ff 94 89 be 0d f9 5b 3d 25 70 10 bd
       -0.16471608 -0.26871487 0.05370431 -0.0352632
000050 34 a0 8a bb 84 47 8a bd 6c fa 04 3d cb b6 ba bd
       -0.0042305235 -0.06751922 0.032465383 -0.09116896
000060 2a 36 d1 3d 00 ae 42 3d 79 3f 32 bd 44 da d7 bd
       0.10215409 0.04752922 -0.043517563 -0.10539678
000070 30 d3 1d bd 39 8b 14 3e bf 0e 8f bc f9 4d a4 3c
       -0.038531482 0.14506234 -0.017463086 0.020056712
000080 ac fd 0a be 0c 57 9b bd 8f 26 d6 bd 80 8e d1 bd
       -0.1357333 -0.07584962 -0.10456573 -0.10232258
000090 30 db 64 3d 98 a2 de 3c c1 b4 37 3c 34 1e 14 bc
       0.055873096 0.02717714 0.011212529 -0.009040404
0000a0 be 7f 40 bc 9e 3e 25 bc 7c 90 71 3d fc f0 19 be
       -0.011749206 -0.01008573 0.05897568 -0.15033334
0000b0 6b 67 f3 bd 29 14 ce bd 1a 66 7d ba 6d 63 0e 3d
       -0.1188496 -0.10062439 -0.00096663984 0.03476279
0000c0 9a 5d f5 bd 24 ca 58 3c 05 3e df bc ad e7 20 be
       -0.11980744 0.013231788 -0.027251253 -0.15713377
0000d0 b5 36 71 bd 6f ac 22 bc 11 62 f8 bd 4f 85 b6 bd
       -0.058890063 -0.009928807 -0.1212808 -0.08912145
0000e0 6b c5 41 bd 12 5f b1 bd d3 92 d2 3c 04 f0 0f bd
       -0.047307413 -0.08660711 0.025704777 -0.035141006
0000f0 b7 13 71 bd 82 25 1a 3c 22 33 24 bd c4 de ae 3d
       -0.058856692 0.009408357 -0.040087827 0.08538583
000100 1d 3a 9c 3c 8a 6d fa 3d 96 30 c1 bc 04 bc 1c 3d
       0.01907068 0.12227924 -0.023582738 0.038265243
000110 a2 9b dc bc 15 4a 93 be 75 74 3e be bf 83 21 be
       -0.02692968 -0.28767458 -0.18599112 -0.15772913
000120 6d 2e 7d be b2 67 1e 3d 09 f7 55 3d 05 b9 ab bd
       -0.24724741 0.03867311 0.052237544 -0.08384899
000130 05 bd 9d bd b3 7d ed 3d 6c 60 ea 3b 28 0c c3 bd
       -0.07702068 0.11596241 0.0071526077 -0.09523803
000140 4b c4 85 bc 1c 74 e2 bb 61 97 04 3d 64 1a 39 bd
       -0.016328951 -0.006910814 0.03237093 -0.045191184
000150 38 dd b0 3d fb 61 7e 3b c7 4f 5d bd c3 de e1 bd
       0.08635944 0.0038815725 -0.05403116 -0.110288166
000160 34 2f 99 bd 1c e3 ff bd 92 b4 57 ba 75 2e d8 bc
       -0.074797064 -0.124944896 -0.0008228506 -0.02638934
000170 51 01 9c bd a2 ee 90 3c d4 d7 70 3d 81 fb 46 be
       -0.076174386 0.017691914 0.05879958 -0.19431879
000180 4c fd 02 3e c5 29 fc 3c d8 e5 1a bd 63 f7 f4 3b
       0.12791938 0.030781636 -0.037816852 0.00747578
000190 92 6d 98 3c 42 58 f9 bd df 64 79 3d 64 81 39 3d
       0.018606935 -0.12175037 0.060887214 0.045289412
0001a0 f8 fa 0f be 64 0f 85 bc ac 74 5f bd c2 3e 95 bd
       -0.1406058 -0.01624269 -0.054554626 -0.07287361
0001b0 7d fd e6 3c 82 31 94 3d 57 0d 14 3d 5e 5e 6e bd
       0.028197045 0.07236005 0.036145534 -0.058195464
0001c0 7e a1 51 3d e8 44 14 bd 30 36 6f 3d 40 68 a5 3d
       0.0511794 -0.036198527 0.058401287 0.08076525
0001d0 fb 4a 95 3c a4 d6 8f 3d e9 6e 26 3e 44 d4 9b 3c
       0.01822423 0.07023361 0.16253246 0.019022115
0001e0 f4 35 17 3c 8e ab ca 3d 1c 61 8c bd f7 ef a1 bd
       0.009229172 0.09896003 -0.0685446 -0.07907098
0001f0 79 8f c5 bd a5 1b 39 3c a0 b4 ba bc b9 11 ef 3d
       -0.09646506 0.011298095 -0.022791207 0.11673302
000200 3e b3 17 3d 5e 59 70 3d de 27 6d 3d 8d ed e2 bb
       0.037036173 0.058678977 0.05789935 -0.006925291
000210 00 82 cb 3d fb 14 0d bc b0 f8 29 bd 36 42 da b9
       0.09936905 -0.008610959 -0.041496933 -0.0004162953
000220 25 b1 58 bd e2 78 0e 3d 46 43 cf 3b a9 f4 3b bd
       -0.052903313 0.03478325 0.0063251583 -0.045887623
000230 0b df e9 bd 15 c1 95 3d 33 8f 96 3d 0d 02 68 bd
       -0.11419495 0.07312218 0.07351532 -0.05664258
000240 e8 62 a8 bc 80 f1 a2 3c 99 f5 40 3c 4f 96 18 3e
       -0.020554975 0.019890547 0.011777305 0.14901088
000250 c8 50 97 3c d8 42 e7 3c 0e 0a 07 3d 29 05 99 3d
       0.018471137 0.028230116 0.032968573 0.07471687
000260 db be 99 3b 34 09 52 bc 6c b2 84 3d 8c 53 e7 3d
       0.004691941 -0.012819577 0.06479344 0.11295232
000270 47 f2 44 bc da bc 3a bd 70 b1 a6 bd 14 8e 00 be
       -0.012020654 -0.04559026 -0.08139312 -0.12554199
000280 37 f6 35 bd 95 cc 54 bd c8 fe 81 3d d2 e5 a8 3d
       -0.044424262 -0.051952917 0.06347424 0.0824696
000290 d1 76 86 bd 90 ca 16 3d 2e a3 0e bd 0b ac b6 3d
       -0.06565631 0.036814272 -0.03482359 0.08919533
0002a0 6e 71 0b be 2e 4f 33 be 59 8d 22 be 1a fb 32 be
       -0.13617489 -0.17510673 -0.15874232 -0.174786
0002b0 81 25 d9 bd 39 2e 92 bd 86 23 52 be d6 54 51 3d
       -0.106028564 -0.071377225 -0.20521364 0.051106296
0002c0 0e c4 85 bd b2 1e 59 3d 93 9e 9d bd cc 76 24 bd
       -0.06531535 0.05300779 -0.07696261 -0.040152356
0002d0 81 54 0d 3d e2 6c 0b be 7b 89 3a be 8e 08 1d be
       0.034504417 -0.13615754 -0.18216507 -0.15335295
0002e0 a4 7c bb bd f6 02 9a 3c 6b fc 15 3e 4b a3 9b bd
       -0.09154633 0.01880024 0.14647071 -0.07599505
0002f0 f6 8f 03 be 04 cc 01 be 56 bc 0b bd 2e 11 67 bd
       -0.12847885 -0.12675482 -0.034115158 -0.05641287
000300 2e fe 10 3d 1c 6e 10 bd d1 d9 53 be 3f 85 6b 3d
       0.035398655 -0.03526126 -0.20688559 0.05750012
000310 fb 14 46 3c 6d 23 35 bd f8 35 4a 3a 61 2f 48 bc
       0.012089963 -0.044223238 0.00077137304 -0.012218327
000320 0f a5 13 bd f3 97 a4 bd 09 0f 83 bd 34 eb 96 3c
       -0.036046084 -0.080367945 -0.06399352 0.0184227
000330 27 a5 52 bd c1 6b c8 bd 13 b5 18 be 2f 0c be bd
       -0.051427033 -0.097861774 -0.14912824 -0.092796676
000340 82 44 c2 3c 91 f5 ea bd 21 fc b8 bc 49 cc 24 be
       0.023714308 -0.11472619 -0.022581162 -0.16093554
000350 0f aa bb bd 10 6e 88 3c 19 24 af bd 06 db 32 bd
       -0.091632955 0.016654044 -0.08551807 -0.04366591
000360 21 6e 80 bd 1d 63 4b 3d 3a 1a fa 3d 61 73 12 3d
       -0.062710054 0.04965507 0.122120336 0.035754565
000370 64 0c 8c 3d 8c 25 17 3c a3 e9 b4 bb 3f 6d aa bc
       0.06838301 0.0092252605 -0.0055210157 -0.020804046
000380 9b a0 d0 3d 9b 0e fc 3d d0 76 83 3d d8 3e 9a 3b
       0.10186883 0.12307473 0.06419146 0.0047071986
000390 c9 b8 cf 3b c9 53 db bd 3f e9 9c bc 37 41 d3 3d
       0.006339167 -0.1070934 -0.01915419 0.10315173
0003a0 e7 bf 8a bc 0a a8 52 bd b7 e2 c3 bd d1 d2 8b bd
       -0.01693721 -0.051429786 -0.09564727 -0.068273194
0003b0 19 4c cf bc 3f b2 37 bd 6e 97 41 bd a6 cf e1 3c
       -0.02530484 -0.044847723 -0.047263555 0.027564835
0003c0 10 95 02 be 39 40 48 bd 56 30 46 bd 2f 35 0a 3d
       -0.12752175 -0.048889372 -0.04838594 0.033742126
0003d0 ab c0 82 bd 7b 9b 83 be 82 ff 23 be 5e d5 e8 bd
       -0.06384405 -0.2570456 -0.16015437 -0.113688216
0003e0 c6 5a b6 bd cc 87 dd bd 6f d4 1b 3d c5 6a 3a be
       -0.089040324 -0.10816917 0.03804439 -0.18204792
0003f0 da a4 78 3d ef e8 d1 3d 9e 6a 40 3d bf c7 98 3b
       0.06070409 0.10249507 0.046976678 0.0046624835

layer.10.bias f4 [50]
000000 19 56 f4 bb 19 57 a7 3c 87 19 20 3d fe 81 d6 bc
       -0.0074565527 0.020427274 0.039086845 -0.026185032
000010 54 f4 14 bc fe 28 3f bd a8 de 78 3d 46 91 01 bc
       -0.0090914555 -0.046669953 0.060759217 -0.007908171
000020 90 b7 e1 3a 82 ae b8 bc ad 0d 9d bc 6b 1d 1e 3d
       0.0017220844 -0.02254415 -0.01917156 0.038602274
000030 d1 30 3d 3d 92 43 0a 3c b7 93 6c 3c 97 50 9d bc
       0.046189133 0.008438962 0.014439515 -0.019203467
000040 9e e9 05 3b 6b 40 f9 3c 4f 37 ec 3b 31 0b 6b bc
       0.0020433436 0.030426225 0.0072087417 -0.01434593
000050 69 cb 35 3c 9e 20 07 bd df 04 30 bc c6 46 ea 3c
       0.01109586 -0.03299009 -0.010743349 0.0285982
000060 b5 e7 03 3d c2 4a dd bc 48 ef f3 3c 37 69 c8 bd
       0.032203395 -0.027013186 0.029777184 -0.09785693
000070 7d 54 cf 3b 6a 88 d7 3b 10 82 86 3c 5f 6f 6f bd
       0.0063272105 0.006577541 0.01641944 -0.05845582
000080 04 9c 1e bc e1 d4 b7 bb 11 7a 5e bd d8 8c 16 bc
       -0.009680752 -0.005610094 -0.05431563 -0.009188853
000090 c6 b8 09 bd 06 cc 14 bc 1f 42 b0 bc 92 f2 27 bb
       -0.03362348 -0.009081846 -0.021515904 -0.002562676
0000a0 4e 3b 5e bb 1e 45 4d 3c 20 6d 3d 3d 5a b3 95 bb
       -0.003390986 0.012528686 0.046246648 -0.0045684995
0000b0 f3 5f 1f 3d 71 df bd bd 7c 46 ee 3b 36 a4 8d bd
       0.038909864 -0.09271134 0.007271586 -0.069160864
0000c0 92 4c 15 bd aa 50 4a bd
       -0.036449976 -0.049393333

layer.13.weight f4 [40, 50, 3, 3]
000000 8e 47 09 3e 67 f8 a7 3c d9 3a ee bc ea 0e f5 bc
       0.13406202 0.02050419 -0.029080795 -0.029914338
000010 40 9c 39 3d 67 76 60 3c 2c dc e1 3d ad ca d8 3d
       0.045315027 0.013700104 0.110283226 0.10585532
000020 54 16 1d 3d 53 7a 02 3d da 12 df bd 77 da ea bc
       0.038351372 0.03185494 -0.108922675 -0.028668625
000030 57 94 4c 3c 2c e5 22 3d 93 b1 bd bc 49 c1 37 bc
       0.012486539 0.039769337 -0.023155963 -0.011215516
000040 98 5a 24 be eb f9 18 be 2f 30 b6 bd 74 0c 8e bc
       -0.16050184 -0.14939086 -0.08895909 -0.017339922
000050 f5 17 ad bd 11 fc 9f bd e8 79 84 ba f2 39 64 be
       -0.08451835 -0.0781175 -0.0010107132 -0.2228773
000060 29 fe 78 bd 28 c6 19 bd f0 92 a9 bd ec 35 54 bd
       -0.06078926 -0.037542492 -0.08279979 -0.051809236
000070 64 e6 31 bd 30 a0 2a bd e9 f0 81 3c 83 2a 19 3d
       -0.04343261 -0.041656673 0.015861945 0.037394058
000080 4b cc 6f bd 38 73 71 bb f3 32 31 bd a4 fd 24 3d
       -0.05854444 -0.0036842357 -0.04326148 0.040280953
000090 b3 4a 1c 3e ef f5 ad bd e5 06 4c bd e8 a1 0c 3d
       0.1526287 -0.08494174 -0.049811263 0.034334093
0000a0 1f c4 a3 bd 71 f4 92 3c ea c4 3d bd 76 38 8f bd
       -0.079963915 0.017938824 -0.04633037 -0.06993191
0000b0 d0 ed d0 bd 2c cc 54 3d 36 2f c5 bd 40 72 d7 bd
       -0.10201609 0.051952526 -0.096281454 -0.10519838
0000c0 ea 7e 97 bd 07 1f f7 3d 3b d6 02 be 3a b3 85 3d
       -0.07397254 0.12066465 -0.12777035 0.065283254
0000d0 56 1c 9d bd 82 67 3a be a5 81 ce bc 71 bc 71 3d
       -0.0767142 -0.18203548 -0.025208304 0.059017602
0000e0 08 58 ce bd 8f 3a 27 bd 9f 7b f3 3c 6d 6e 92 bc
       -0.100753844 -0.04082733 0.029722033 -0.01787492
0000f0 ef 2f 20 3e 66 93 3a 3d ed 5f 51 bd 4c 1f 11 3e
       0.15643285 0.045550726 -0.051116873 0.14172095
000100 9c aa 7e bd f6 16 61 3c c7 43 0e 3e 46 67 21 3d
       -0.062174425 0.0137383845 0.13893043 0.03940513
000110 c4 ff 92 3c 20 a2 8c 3d 5a cb 0e 3d f6 91 79 bd
       0.017944224 0.068668604 0.0348619 -0.060930215
000120 07 36 92 ba b3 b2 0b bd 2a e0 e6 bd ad 52 6f 3c
       -0.0011155017 -0.034105968 -0.11273225 0.014607114
000130 ee 92 d0 3d 5d 34 89 bd 2b e1 29 3c a4 b1 8c bd
       0.101842746 -0.06699441 0.010368626 -0.0686982
000140 3f 25 8d bd 88 da c0 3c c6 c9 28 bd c5 14 52 bc
       -0.0689187 0.023541704 -0.04120805 -0.012822335
000150 0c 3c 0d bd b5 fa 11 3d 2e 4e b9 bd df c4 2e bc
       -0.034481093 0.035639483 -0.09048115 -0.010667055
000160 cb ea f8 bd ed 56 77 bd d4 82 35 3b ca ad 8f bc
       -0.12154158 -0.060385633 0.0027696388 -0.017538924
000170 4a de 76 3c 44 3d 38 bd 39 5c 65 3d b0 2a b7 bb
       0.015067646 -0.044980302 0.055996154 -0.0055898055
000180 32 35 0e be 40 b6 58 bc 28 a0 b0 3d da 21 b1 bb
       -0.1388748 -0.013227046 0.086242974 -0.0054056467
000190 3d 75 aa bd d1 42 97 3d 77 d0 8b 3d 0c fe 00 be
       -0.08323143 0.07385791 0.06826871 -0.12596911
0001a0 c5 d6 f2 bd 4a 6b 32 bb 2e 72 26 bd c2 9d 49 bd
       -0.1185737 -0.0027224594 -0.040636234 -0.049222715
0001b0 ed 66 0e 3e a4 57 29 bd dc c4 b4 bc 77 19 e3 bc
       0.1390645 -0.041343346 -0.022066526 -0.027722104
0001c0 a3 05 8e 3d 0f 32 04 bd d9 4e 22 be 5f 52 17 be
       0.06934669 -0.032274302 -0.1585039 -0.14777516
0001d0 cf 31 9d bd 66 57 49 bc 3b 56 85 3d 4e d3 df b9
       -0.07675516 -0.012288904 0.06510588 -0.0004269131
0001e0 31 46 90 3b 6a 5c a8 3d e4 98 02 bd cf 72 f3 bb
       0.0044028987 0.082207516 -0.03188409 -0.0074294577
0001f0 75 f8 5d 3d af 6f df bc a7 59 4b 3e cf 8d 10 3d
       0.054192025 -0.027274935 0.19858418 0.03529149
000200 0a 57 b8 bd f6 07 0b bd d7 0e 41 3e 22 83 83 bd
       -0.090009764 -0.03394314 0.18853317 -0.06421496
000210 b9 39 8a 3d 8c b8 0b be 4a 1f b4 3d d0 0e 93 3d
       0.06749291 -0.13644618 0.087950304 0.0718056
000220 85 c9 f4 bc 3a 1d db bd 3f 2c 09 3e 37 0f ab 3c
       -0.029881248 -0.10698934 0.13395785 0.020881278
000230 df 0f 04 be 42 dc 16 bd df 0b 8d bd 85 05 32 bd
       -0.1289668 -0.036831148 -0.0688703 -0.043462295
000240 3a b7 95 bd a2 4a b4 bd f4 71 47 bd 7f 72 4b bd
       -0.07310338 -0.088032976 -0.04869266 -0.04966974
000250 89 f7 9c bd 31 90 e2 bc 96 d7 ff bc c1 41 9d bd
       -0.07664401 -0.027656646 -0.03123073 -0.07678557
000260 4f 0c 74 bc fd 3e 51 bd cc e9 4f 3d 96 6e c2 3d
       -0.014895513 -0.05108546 0.050760075 0.09493749
000270 bb 6d 44 3d 80 d6 dc 3d 8c f8 36 bc f4 d9 73 3d
       0.04795621 0.107831 -0.011167657 0.05953403
000280 24 41 f4 3c b5 5b e1 3d f7 8d 53 3d b5 5c dd 3d
       0.029816218 0.1100382 0.05164906 0.10808698
000290 b9 3a 36 bc 3d 96 61 3e 20 cd bb bd 78 4f 3d 3c
       -0.011122399 0.22029968 -0.09169984 0.011554591
0002a0 4a 63 8c 3d 35 a6 71 3d ac e5 8c 3d e1 9a 3d bd
       0.068548754 0.058996398 0.06879744 -0.046290282
0002b0 d8 41 3c 3e fd 57 f1 bd 7a 73 f1 bc 9f a3 41 bd
       0.18384492 -0.117843606 -0.029474009 -0.04727518
0002c0 5e ae ef bd de 39 01 3d fa ea 90 bd 26 a1 e8 3c
       -0.1170318 0.031549327 -0.07076068 0.028397154
0002d0 b2 25 4d 3c 4c 00 85 bc 1a 60 02 be 5f 74 cd 3c
       0.012521194 -0.016235493 -0.12731972 0.025079904
0002e0 ea 56 1f be f3 fd 0d be fa 39 04 bd bf 9e 9d ba
       -0.15560499 -0.13866405 -0.032281853 -0.001202546
0002f0 04 43 4d bd 01 36 d9 3b 1c 85 ac bd d6 c4 7e bd
       -0.05011274 0.006628752 -0.08423826 -0.062199436
000300 e0 4b 5d bd 7f 66 38 bd 69 7e 89 bc 27 8d 60 be
       -0.05402744 -0.045019623 -0.01678391 -0.21928845
000310 bd 57 00 bd 98 ce 59 bd ec d4 6c bd b3 ba 89 bd
       -0.031333674 -0.05317554 -0.057820246 -0.06725063
000320 18 57 1e be 68 a4 56 3d 85 41 2c bd a8 9b df bd
       -0.15462911 0.052402884 -0.04205467 -0.10918361
000330 f4 5c 89 3d 25 8e 80 bd 57 5a 24 be 66 36 c5 bd
       0.067071825 -0.06277112 -0.16050087 -0.09629516
000340 49 ec af bd 45 a1 a6 bc ae a3 c2 bc 4d 8e a7 3d
       -0.0858999 -0.020340571 -0.02375969 0.081814386
000350 d3 20 6e bd 57 b6 13 3d a0 b7 5b 3e a2 f0 e6 3d
       -0.058136772 0.036062565 0.21456766 0.11276366
000360 9c 9b 94 bd 18 5c 01 be 2e 16 aa bc 31 22 01 bd
       -0.07256243 -0.12632787 -0.02076253 -0.031526748
000370 84 19 14 3d 69 c8 b6 bd e1 b9 25 be 91 85 23 bd
       0.036157146 -0.08924944 -0.16184188 -0.0399223
000380 b6 35 9e 3c 09 69 0e be 82 8a 05 bb a3 72 24 bd
       0.01931272 -0.13907255 -0.0020376747 -0.04014839
000390 2f 21 2c bd 33 4b 34 3d 88 ba 0d be 08 ab 57 bd
       -0.042023834 0.044017028 -0.13840687 -0.052653342
0003a0 82 c0 12 3e c8 bd eb 3a ec bc 0e bd 2b 30 20 bc
       0.14331248 0.0017985636 -0.03484814 -0.009777109
0003b0 91 37 2d be 10 a6 60 bd 14 59 97 bd 10 19 39 be
       -0.16915728 -0.05484587 -0.07390037 -0.18075967
0003c0 1e 8c 09 3b 79 e2 39 3c 44 76 8c bd b1 6d 99 bd
       0.0020988057 0.011345499 -0.06858495 -0.07491625
0003d0 9c bb 82 3c 63 5b ec bc de 82 3e 3d a9 a4 1a be
       0.0159586 -0.02885217 0.046511523 -0.15101875
0003e0 d7 13 8b be 4b 6d b4 bd 16 cf ef bd 1d 07 45 be
       -0.27163574 -0.088099085 -0.117094204 -0.19240995
0003f0 4f 91 f3 bd 26 33 e2 38 ff f0 04 bd 1f ff bd 3c
       -0.1189295 0.00010786047 -0.032456394 0.02319294

layer.13.bias f4 [40]
000000 75 0e 8c bc d0 e0 1c bd de 15 60 bb 5c 6c d5 bb
       -0.017096737 -0.038300335 -0.0034192721 -0.0065131616
000010 7b e2 e7 3c 5a 40 cb bb e6 59 8c bb 56 9a 92 ba
       0.028306236 -0.0062027397 -0.0042831777 -0.0011184912
000020 71 cd 10 3c cb 35 92 3c a1 64 cc bc 84 6f 1d bd
       0.008838044 0.017847916 -0.024950327 -0.038436428
000030 63 3e 6f 3c e2 4d 5a bd 90 d2 34 bd 17 ed 86 bb
       0.0146022765 -0.05329693 -0.04414612 -0.004117619
000040 e9 40 de 3b 7f 33 04 3d 9f d9 20 bc 60 a7 0d bc
       0.0067826402 0.032275673 -0.00981751 -0.008645862
000050 2e c6 34 3b a3 e6 59 3c 67 db 21 3b 0e 27 a5 3c
       0.0027583945 0.013299617 0.0024697424 0.020160224
000060 3b 0a 34 bd f6 de 89 3c 35 b0 c3 3b 7f 7c 43 bc
       -0.04395507 0.016829949 0.0059719332 -0.011931538
000070 f3 76 7d bc dc 97 3f 3c fa 9b dd 3a 8d 80 dc bb
       -0.015470254 0.011693921 0.0016907447 -0.0067291916
000080 c5 d4 d8 bd 93 12 b0 3c 82 53 ec 3b 01 44 cc bc
       -0.105874576 0.021493232 0.0072121033 -0.02493477
000090 29 26 b2 bb 0b 72 8c b9 5e 16 49 bd ea 28 f4 bc
       -0.005436678 -0.0002678785 -0.049093597 -0.029804666

layer.17.weight f4 [40, 40, 3, 3]
000000 e0 de 1d bd 6d 63 89 3a c4 b5 92 3c 1d 2f ef bd
       -0.03854263 0.0010481902 0.017908938 -0.11678908
000010 12 08 bb bc ca 8f 8e bb 3d 08 88 bd 8b 43 0a bd
       -0.022830997 -0.004350637 -0.06642196 -0.03375582
000020 66 14 4e bd 9d 41 0e 3e ba f6 cf 3d 92 9b bf 3b
       -0.050312422 0.13892217 0.10154481 0.005847403
000030 6d f3 c7 3d 8c ff d0 bc 45 d4 14 bd a9 f7 78 bd
       0.09763227 -0.02551248 -0.03633525 -0.060783062
000040 17 7f 06 be 45 ae f7 3a ab 98 91 be 38 88 76 bd
       -0.13134418 0.0018896541 -0.2843679 -0.060188502
000050 38 cf c2 bd 42 14 04 be 14 7a f1 bd 1b 44 35 be
       -0.0951218 -0.12898353 -0.11790863 -0.17701761
000060 40 e1 12 be 86 a1 75 be be 8d 45 bd e3 44 99 3d
       -0.14343739 -0.23987398 -0.04823088 0.07483842
000070 b6 88 e4 3b 5a 43 b6 bd 95 47 48 3c c3 3f 99 bd
       0.006974305 -0.08899565 0.012224098 -0.07482865
000080 0e c1 c6 3d ea 83 a7 bc 0a 1f 39 3d f0 2f ab 3d
       0.09704791 -0.020448644 0.045195617 0.08358753
000090 03 af 79 3d 60 b8 93 3c 6e 80 be 3c 18 66 c6 3c
       0.06095792 0.018032253 0.0232546 0.024218604
0000a0 4c c0 12 3d 8a 3c c9 3d a2 18 85 bc d1 08 4b bd
       0.03582792 0.09826 -0.016247097 -0.049568955
0000b0 d6 ee d5 bc 83 46 ce bd 07 13 ea 3d 00 7e a4 bd
       -0.026114862 -0.10072043 0.114294104 -0.08031845
0000c0 41 d8 4a bd 05 cf 5b 3d 94 ac b6 bc 95 2b d5 bd
       -0.049522642 0.053664226 -0.022299089 -0.10408703
0000d0 61 78 73 bc f9 ab 9e 3d d1 e9 ae bd 39 7a ef bd
       -0.014860244 0.07747645 -0.08540691 -0.11693234
0000e0 78 b6 bf bc 3e ce 3f be 8c d1 b6 bd f6 6b 22 bd
       -0.023402438 -0.18731019 -0.08926687 -0.03965374
0000f0 a0 48 b0 bd 2f 99 74 bd 16 5c e7 bd 48 e0 fc 3c
       -0.08607602 -0.0597164 -0.11296861 0.030868664
000100 c4 66 5c bd d8 14 ca 3c 6b 82 e4 3d bc 3e 88 bc
       -0.053808942 0.024668142 0.11157688 -0.016631477
000110 a0 0c b7 bd 71 d6 b4 bd ca 3e 48 bd fe 64 0c bd
       -0.08937955 -0.08829964 -0.048888005 -0.034276
000120 4e 4a b6 3c 04 75 a6 3d 7e 6b c8 3c 16 7e 7f bb
       0.022252228 0.08127788 0.024465319 -0.0038985065
000130 a9 88 15 be 5c 79 9f 3d 78 c1 0c bd e4 c7 94 3d
       -0.14602913 0.07786819 -0.034364194 0.072646886
000140 a0 b4 da 3d 25 d0 35 3d de 30 f3 bc 96 2c fc 3c
       0.10678983 0.044387955 -0.029686388 0.030782979
000150 e5 25 90 3c 4c 61 28 bd f3 c9 b5 bd ee 3b af 3c
       0.017596195 -0.041108415 -0.088764094 0.021390881
000160 85 21 4d bd 9b db 9d bd 45 db 63 bd 74 9d 94 bd
       -0.050080795 -0.07707902 -0.055629034 -0.07256594
000170 54 26 3c 3d 67 d2 42 bd ac 30 ad bd 14 f4 63 3b
       0.04593499 -0.047563937 -0.08456549 0.0034782933
000180 d0 3f 1b be b1 9f ee bd 73 47 9b bd d5 c4 bf bd
       -0.15161061 -0.116515525 -0.07581987 -0.093637146
000190 13 87 cd bc 66 c6 39 bc 02 22 ba bd a9 bc 1d 3e
       -0.025088822 -0.011338806 -0.09088518 0.15404
0001a0 51 3f 2a bd 13 12 9e bd 28 cf f9 3c 29 8e 2b 3b
       -0.04156429 -0.07718291 0.030494288 0.0026177263
0001b0 c9 0e a6 3d 14 7c ba 3d 83 9e 5d bd 95 1b 07 bd
       0.08108289 0.09105697 -0.054106247 -0.03298529
0001c0 4c 66 00 be 20 c6 5a bd b4 89 e8 bd 7e b1 17 be
       -0.12539023 -0.053411603 -0.1135439 -0.14813802
0001d0 8d b0 1a be f1 d7 3a bd 36 8c 01 3e 2b be 6b 3d
       -0.15106411 -0.045616094 0.12651142 0.057554405
0001e0 b8 3d 14 be f7 ab f4 3a 97 e9 92 3d 07 e2 c9 bb
       -0.14476669 0.0018666972 0.0717346 -0.0061609778
0001f0 93 ff e3 bd e9 24 81 bd 50 4c 00 3c 23 4b 72 3d
       -0.11132731 -0.06305868 0.007830694 0.059153687
000200 1f 72 42 bd 26 00 4d 3d 04 3e 81 3c d4 88 8c 3c
       -0.047472116 0.05004897 0.015776642 0.017155088
000210 d9 05 8f 3d 1a 11 10 bd 09 e5 c7 bd fb 39 be bd
       0.06983537 -0.03517256 -0.09760482 -0.09288403
000220 fc e5 4c 3d e1 6e a4 3d b2 0a 82 3d a1 04 3a 3d
       0.050024018 0.08028961 0.06349696 0.04541457
000230 bf 5f e6 bd d2 24 2a be 38 b0 aa bd da e9 27 be
       -0.11248731 -0.16615608 -0.08334392 -0.16397801
000240 14 ef 55 3c 37 3c d1 bd 78 18 32 3c 6b b0 75 3d
       0.013057489 -0.10216563 0.010870092 0.0599827
000250 75 3f 4d 3d 8a 4e d8 bd 7e 33 c7 bd 7b a6 b2 bc
       0.050109345 -0.10561855 -0.09726618 -0.0218079
000260 d0 ce 20 be 3f fd 77 3e c9 72 03 3d 42 49 c0 bc
       -0.15703893 0.242177 0.03209189 -0.023472432
000270 29 6a bd bb ae 4e 6f bc 67 48 a3 bd 5b f2 a3 bd
       -0.0057804775 -0.014606161 -0.07972794 -0.0800521
000280 da 85 da 3c 2a 20 d6 bc 1f ba cc bb 79 49 9a 3d
       0.026675154 -0.026138384 -0.0062477733 0.07533545
000290 fd 5d d8 3d f0 0e 03 3c 93 63 59 ba 62 23 b5 bd
       0.10564802 0.007999167 -0.0008292731 -0.08844639
0002a0 42 67 14 be ab 74 1f be e0 a5 5a 3a 4f a1 bf 3d
       -0.14492515 -0.15571849 0.00083407573 0.09356939
0002b0 54 53 95 3d 1e ee d3 3d b8 1e 68 3d b7 be 16 3d
       0.07291284 0.103481516 0.05666992 0.036802974
0002c0 6e 46 3b bd 56 21 03 3d 51 3d f9 3c c7 c1 e8 3d
       -0.045721464 0.032014214 0.030424746 0.11365085
0002d0 11 a2 b6 3d 57 39 fb 3d 59 67 26 3e ea 72 ad 3d
       0.089176305 0.12266796 0.16250362 0.08469184
0002e0 6c e1 3b 3d a5 28 8c 3d 6d dc 1c 3e 40 f9 c8 3d
       0.045869276 0.0684369 0.15318461 0.09813166
0002f0 99 52 d5 3d 70 b0 14 be 1a fa f7 bd 0d e2 24 bd
       0.10416145 -0.1452043 -0.1210825 -0.04025464
000300 78 b2 15 bd 94 a8 eb 3c d5 ed 12 be 6a 30 54 be
       -0.036547154 0.028766908 -0.14348538 -0.20721593
000310 3d 57 2d be a4 33 46 3c 03 0b 25 bd f1 e1 cd 3d
       -0.1692781 0.012097273 -0.040293705 0.100528605
000320 9f 56 ba 3d a5 b1 2f be 5f af fa bc 2c 6b dd bc
       0.09098553 -0.1715761 -0.030601202 -0.027028643
000330 6b 46 f9 bc a1 df 90 bd 09 1e aa bd 43 43 12 3e
       -0.030429086 -0.07073904 -0.0830651 0.14283471
000340 b5 0f 99 3d 13 f5 8d 3d 71 08 2b bb 88 a4 05 3b
       0.07473699 0.0693151 -0.002609756 0.0020392258
000350 c6 4c d9 3c 78 40 ab 3d 9a 19 b9 3d 6c e4 24 3d
       0.026525866 0.08361906 0.09038086 0.040256903
000360 41 bc 15 3e bc 56 aa 3b 8d 10 aa bd 38 2f 52 3e
       0.14622594 0.005198328 -0.08303938 0.20525825
000370 de a8 80 bd 85 70 a2 3d d4 fe 3f 3d 6f 12 f7 3c
       -0.06282209 0.07931618 0.046873882 0.030160157
000380 77 d5 7d bd fd 4c f0 bd c6 e2 3c 3d b2 68 92 bc
       -0.061971154 -0.11733434 0.046114706 -0.017872188
000390 58 84 9a bd e2 be 0c 3d 3c 62 0b 3d 49 27 63 bd
       -0.07544774 0.034361728 0.03402923 -0.055457387
0003a0 5c 20 f5 bd b5 d3 cf bb 11 69 2b be 42 e4 b6 bd
       -0.11969063 -0.006342376 -0.16739298 -0.089302555
0003b0 4a 61 c7 3c 69 11 34 bd c2 c2 e7 bd 1d 6e 0a bd
       0.024338383 -0.043961916 -0.11316444 -0.03379642
0003c0 07 78 eb bd 43 a8 32 be d7 60 37 be f7 ae ab bd
       -0.11497503 -0.17446999 -0.17908035 -0.08382981
0003d0 99 41 0b 3d 2d d5 ef bc 5f d2 2b bd 44 3b 4d 3d
       0.033998106 -0.029276455 -0.041948672 0.05010535
0003e0 52 26 a7 bd 85 70 18 3e 9e 4d 43 be 24 5b d7 bb
       -0.08161606 0.14886673 -0.19072577 -0.006572144
0003f0 8a 38 45 bd ee 19 0a 3c 63 f0 2a be 4d 18 11 be
       -0.048149623 0.008429034 -0.16693263 -0.14169426
