CNN Models/OU_Y_Weights.pt (torch_old, 811425 bytes, 22 tensors)

layer.0.weight f4 [50, 1, 3, 3]
000000 45 a7 39 3f 52 c7 47 be 67 16 de bd 93 c8 81 be
       0.7252086 -0.19509628 -0.10844117 -0.25348338
000010 65 ad ad 3e 9b 4f 0f 3f e7 74 aa be 6e 3c 28 bf
       0.33921352 0.55980843 -0.33292314 -0.6571721
000020 a9 87 a7 be 90 73 94 3e ec 24 92 be 68 35 e9 bd
       -0.32720688 0.28994417 -0.28543794 -0.113871396
000030 f1 c6 8f 3e cd ac 88 3e 8e f1 e7 3e c3 a2 1a 3f
       0.28081468 0.26694337 0.4530148 0.60404605
000040 8f 7f c9 be a7 14 46 be 39 1e c0 3e b8 a0 98 be
       -0.39355132 -0.19343816 0.37523058 -0.2981012
000050 52 e8 38 be 7a 05 15 3f 81 77 a6 be 10 cc b9 3c
       -0.18057373 0.5821148 -0.3251305 0.022680312
000060 52 46 3d bd 88 65 64 be 2b cc 78 be cd d8 c1 3e
       -0.04620964 -0.22304356 -0.24296634 0.37860718
000070 19 05 92 bf ab 54 38 be 9c 14 08 3e 06 b1 99 3d
       -1.1407806 -0.18001048 0.13289112 0.07504468
000080 82 e2 3e 3f a2 38 77 be 3e 16 8f bf 06 97 23 3f
       0.74564373 -0.24142697 -1.1178663 0.6390232
000090 3b a5 06 bf 5e 9c 37 bf b1 2b 12 3f 82 a5 da be
       -0.5259587 -0.7172297 0.5709792 -0.42704397
0000a0 3b a0 99 3e 2c c8 43 bf 38 f0 24 3f 68 e2 48 be
       0.3000506 -0.76477313 0.64429045 -0.19617617
0000b0 b1 d8 01 3f 4a f7 59 3e d0 b9 59 bf fd b1 b5 3e
       0.5072127 0.2128574 -0.8504915 0.35487357
0000c0 c3 b2 4a 3f 9a cd 80 bf b6 67 01 bd bb eb cf 3d
       0.7917902 -1.0062745 -0.031593047 0.10152384
0000d0 be 56 0e 3f 71 e6 e7 be 30 c8 ed 3e 37 cf 58 bc
       0.5560111 -0.45293 0.46441793 -0.013232998
0000e0 40 c0 04 be 25 7e 28 be 6f 60 ac bf 32 4e 40 be
       -0.12963963 -0.1645437 -1.3466929 -0.18779829
0000f0 3d 35 1f be d0 fe b9 3e 05 68 71 3f 7a 6f 57 3d
       -0.15547653 0.3632722 0.94299346 0.052596547
000100 42 11 19 3f 0c 93 ab bf bb 11 35 3e 65 d1 7b be
       0.5979196 -1.340425 0.17682545 -0.24591596
000110 63 82 3f 3f ba d9 8a 3e bc 22 0d bf 2a 75 4a 3e
       0.7480833 0.27119237 -0.55131125 0.19771257
000120 d6 9e d6 bd 7a 77 c7 3d 08 6a 16 be 31 37 9b 3e
       -0.10479514 0.09739585 -0.14688885 0.30315545
000130 8c f0 57 3e f9 3a 13 bf 13 ea 5d 3e 65 99 44 3f
       0.21087855 -0.5751186 0.21671323 0.7679656
000140 ac 39 fb be 3e 36 cd 3d d9 bd 9f be 98 38 b9 be
       -0.49067438 0.100201115 -0.3119953 -0.3617599
000150 16 61 ab be 94 46 bf be 73 7a 67 bf c2 d0 d4 be
       -0.33472508 -0.37358534 -0.9042122 -0.4156552
000160 d7 25 84 bd c0 61 89 3f f3 c9 2d be 2a 59 0c 3f
       -0.0645253 1.0732956 -0.16971569 0.54823554
000170 53 1e a9 be 11 a3 da be d0 7a 06 bf 2a 18 56 3d
       -0.33030948 -0.42702535 -0.52531147 0.05226914
000180 b4 77 0a 3f aa 54 4f bf dc 06 af 3d d8 fa 8c 3d
       0.540889 -0.8098856 0.0854623 0.06883782
000190 f4 e4 a1 3e af 47 9b 3e 7e 2d c8 3e 8a f0 90 be
       0.3161999 0.30328128 0.39097208 -0.28308517
0001a0 9f b9 17 3e 30 19 e5 be 01 db b8 be 81 07 5d be
       0.14816903 -0.4474578 -0.36104587 -0.21584894
0001b0 6a 4e 3a 3e bd 4b f6 3e 29 89 ce 3e 9c 73 fd 3d
       0.18193975 0.4810466 0.4033902 0.12375566
0001c0 ed 0e f0 be ef 9b ab be 1c 53 0b bf 99 e4 49 bd
       -0.46886387 -0.33517405 -0.5442369 -0.049290273
0001d0 d7 3e b8 be a9 3a af 3d da e8 d8 bd 8e d8 f8 3e
       -0.35985443 0.085561104 -0.10591288 0.48602718
0001e0 40 70 0b 3f a4 cc 50 be c1 f8 8d bf 84 f6 a8 3e
       0.54468155 -0.20390564 -1.1091539 0.33000576
0001f0 be 5d 5c 3e 3c f8 40 3e a9 94 76 3e 7b 25 29 be
       0.21520135 0.18844694 0.24080147 -0.16518204
000200 30 a9 b9 3e ca 26 27 bf 8f c9 1a 3c b5 02 a1 bd
       0.36261892 -0.6529356 0.009447469 -0.078618445
000210 80 47 59 bf ae 5a 35 3f ff c3 54 3e 66 1f 49 3f
       -0.84874725 0.7084149 0.20777892 0.78563535
000220 5a 01 b7 be 15 76 b5 3e d0 5b ae bf e4 19 bb bf
       -0.3574322 0.35441652 -1.3621769 -1.4617276
000230 47 98 c3 3e ed e0 e5 be e0 3a 05 be 20 7d e9 3e
       0.38202116 -0.44898167 -0.1301074 0.45603275
000240 23 0d 8c be 3e 0a 2a 3f 9e c6 cd be c8 a0 57 3f
       -0.27353773 0.6642188 -0.40190595 0.8422971
000250 53 01 43 be c8 9a 24 bf e3 74 85 3d 29 98 c0 be
       -0.19043474 -0.6429868 0.06516435 -0.3761609
000260 41 d9 26 bd 22 74 75 3d 0c dd 4c 3f b2 3d d2 bc
       -0.040734533 0.059925206 0.8002479 -0.025664184
000270 68 0c 1d bd 3a 98 7f be 80 65 f3 3d 35 32 0c bd
       -0.03834191 -0.24960414 0.11884594 -0.03422757
000280 2d 7a 40 be 09 90 59 bf 18 10 01 bd 37 fa 6b 3e
       -0.18796606 -0.84985405 -0.03150949 0.23044668
000290 f3 86 a5 3e e9 42 d2 be 04 7a b1 be 92 bb e8 be
       0.3232952 -0.41066673 -0.34663403 -0.45455605
0002a0 89 04 20 bd 15 b9 1f 3f 70 e0 4b bd 0a 4b 75 ba
       -0.039066825 0.6239179 -0.049774587 -0.000935719
0002b0 c4 f7 29 3e 35 69 93 bf 6e 9a a8 3e c0 b9 c1 3c
       0.16598421 -1.1516482 0.3293032 0.023648143
0002c0 4b 75 09 3f b4 f8 c8 bd ce 15 13 3e f8 1b 54 bd
       0.536946 -0.09813061 0.14363787 -0.051784486
0002d0 66 4b 9f be ad 56 9f be 72 e5 47 3f f4 92 a6 3d
       -0.31112212 -0.31120816 0.7808448 0.08133498
0002e0 59 2a 60 bf 5a 53 da 3e 87 c7 00 be 2e a9 ae be
       -0.8756462 0.42641717 -0.12576114 -0.3411345
0002f0 3d 49 d9 bd cc 6f 9f be 44 a5 db 3e 72 1a 38 3e
       -0.10609672 -0.31139982 0.42899525 0.17978838
000300 c8 35 0b be f7 c8 f1 be 07 a7 12 3f f0 8e 9c 3e
       -0.13594735 -0.47223637 0.57286114 0.30577803
000310 cb a9 17 3f cf 78 eb be 86 1a 07 bf f0 44 98 bd
       0.5924346 -0.45990607 -0.52774847 -0.07435024
000320 5c a1 a1 3e af f7 db be 9f ea f3 be 42 31 e3 3e
       0.3156842 -0.42962405 -0.4763994 0.44373518
000330 09 31 b4 be 42 e7 63 bc 7a 8b 12 3f 07 38 ee 3e
       -0.3519366 -0.013910117 0.57244074 0.4652712
000340 68 db ee 3e 67 4f 19 bd 69 e4 e5 be 76 32 4f bf
       0.4665177 -0.03742924 -0.44900826 -0.8093637
000350 ed 77 c9 be e2 f0 08 3f f2 90 c3 3e d8 37 96 3e
       -0.3934931 0.5349256 0.38196522 0.2933948
000360 a3 4e 87 be fd 11 1c 3f cc cf f0 be 96 b3 26 be
       -0.26427183 0.6096495 -0.47033536 -0.16279444
000370 95 50 50 3f 00 8d d5 be 25 7d 98 be e7 f7 d8 3e
       0.8137296 -0.41709137 -0.29782978 0.42376634
000380 cf 9c 4d bf 2c 1e 3d be d0 db a2 be d3 32 a2 3e
       -0.80317396 -0.18468541 -0.3180833 0.316794
000390 7f e2 69 bf fb 26 0a 3f 1d 37 cf 3e 6f 2e 1b bf
       -0.9136123 0.5396573 0.40471736 -0.6061773
0003a0 23 99 aa 3d 6a 01 1c bf d3 a8 bd be 0f 2b 25 bf
       0.0832999 -0.6093966 -0.37042865 -0.6451883
0003b0 50 b4 17 be 7e c8 8d bb b6 fa b3 3e 6f a0 f3 3e
       -0.14814878 -0.004326879 0.35152215 0.4758334
0003c0 75 d6 29 be ad c5 d8 3d 00 13 e0 3e 9c 81 97 be
       -0.16585715 0.10584579 0.43764496 -0.29591072
0003d0 32 58 7b bd a5 3d ca 3e 80 6e b6 3d 96 d5 1a 3f
       -0.061363406 0.39500156 0.08907795 0.60482156
0003e0 6a 7b e4 be 78 40 10 3f fa f0 d8 be 28 63 54 be
       -0.44625407 0.5634837 -0.4237135 -0.2074095
0003f0 45 ee 55 be 6e 42 1c be 2e 2b ae be 9b 22 25 3f
       -0.20891674 -0.15259716 -0.34017318 0.6450593

layer.0.bias f4 [50]
000000 43 53 95 ba ea 9f af bd 4d 04 9c 3a 3c 48 91 3b
       -0.0011392612 -0.08575423 0.0011903137 0.00443366
000010 b2 4a 81 3b b0 99 39 3b 4d 20 1e ba 46 f0 5a ba
       0.003945672 0.0028320365 -0.0006032035 -0.00083518436
000020 d8 4d e6 ba 72 b9 e0 3b 5c a1 3a 3c 85 41 de ba
       -0.0017570807 0.0068580443 0.01139101 -0.0016956782
000030 13 dc 25 3b d1 56 5f bc 11 d5 11 3a 0b 76 40 3c
       0.0025308176 -0.0136315385 0.00055630604 0.011746894
000040 a0 40 89 3a b7 38 af ba 88 17 a9 bb 38 8a 39 3b
       0.001047153 -0.0013368343 -0.005160276 0.0028311145
000050 fc 93 94 3b 5b 2d c0 bd d6 26 87 3a 53 1a 05 bd
       0.0045342427 -0.09383651 0.0010311257 -0.032495808
000060 db 6d 9e 3b 76 2d eb bc 19 f1 8d bb ce f9 2a bd
       0.004834873 -0.0287082 -0.0043317196 -0.04174214
000070 30 ae 5e 3c 11 cf 22 b9 a3 46 79 ba 74 df df bb
       0.013591334 -0.00015526662 -0.0009509122 -0.0068320576
000080 c4 b4 f7 3a ec 6f 60 3b 7b e8 7c 3b 96 ab 0c 3a
       0.0018898477 0.0034246398 0.0038590718 0.00053661445
000090 65 a0 dc 3a bd 84 73 3c f6 df 3d bd 96 6d 07 bb
       0.0016832469 0.01486319 -0.046356164 -0.0020664684
0000a0 fb 5f be bb c9 a0 ac 3b 62 6d 0f 3b e7 68 36 bc
       -0.0058097816 0.0052681905 0.0021885266 -0.011133409
0000b0 e2 85 c1 3a 70 88 3d 3c b1 da bc 3b a2 3d 16 39
       0.0014764632 0.011568174 0.0057633747 0.00014328075
0000c0 a6 06 c3 bc 8a 59 16 3c
       -0.023806881 0.009176621

layer.4.weight f4 [50, 50, 3, 3]
000000 a8 85 95 3d ab 0e b2 3c ad 11 87 3d 04 60 30 bd
       0.073008835 0.02173551 0.06595168 -0.043060318
000010 13 7c 22 3d f1 4d 81 3d ce 9f ee bc ac 66 a9 3c
       0.039669108 0.06313694 -0.029128935 0.02067884
000020 89 c5 65 3e 5e 21 80 bc 04 fa 8b be 93 96 9c 3d
       0.22438635 -0.01564091 -0.27339184 0.07645907
000030 15 a3 55 bb 24 64 95 bc 2c 91 df bd 3d be 31 3e
       -0.0032598425 -0.018236227 -0.10916361 0.17357726
000040 0b a4 ad 3c 4e 23 99 bd 5e 1e b3 3d 35 a7 bb bd
       0.021196386 -0.07477437 0.087460265 -0.091627516
000050 52 01 95 3d 86 cf 17 be e2 60 b8 3c 18 b9 91 3d
       0.072756425 -0.14825258 0.022507135 0.07115382
000060 1e df c0 3c a9 7a 7e bd 8c 51 83 be 8c ea 73 3d
       0.02354389 -0.062128697 -0.25648153 0.059549853
000070 71 0f 1d 3d 56 35 3b 3d 80 f9 fb bb da de 2c 3d
       0.038344804 0.045705162 -0.007689655 0.042204715
000080 b7 84 6d bb 67 a9 97 bd cd 23 25 bd f5 1a 8b 3d
       -0.0036242434 -0.07405358 -0.040317345 0.06792251
000090 c3 15 a3 bc 7e 0d 0b bb 2e 39 0f 3d f2 3b f7 3a
       -0.019907838 -0.0021217759 0.03496664 0.001886247
0000a0 e1 ed 5a be c4 1c 4e be 2c 52 bb 3b 74 8e 25 bd
       -0.21379806 -0.2012816 0.0057165828 -0.040419057
0000b0 ae ea 08 be 4a 6a 43 bd 2e 48 48 bd 76 9a 5e 3d
       -0.13370773 -0.047708787 -0.04889696 0.054346524
0000c0 0b 98 f0 3c 46 f7 9d bd 00 76 eb bd 78 57 c1 bb
       0.029369375 -0.07713179 -0.11497116 -0.0059003197
0000d0 60 9f 2c 3c 94 8a 15 3d 5b 77 28 3d ff 9d 46 3c
       0.010536045 0.03650911 0.04112945 0.01212263
0000e0 c2 71 41 be 7d a5 41 bc 0e b0 ff bd 8c b5 91 bd
       -0.18891051 -0.011819241 -0.12484752 -0.071147054
0000f0 d3 c0 62 bd c4 8b 2a 3d a5 66 99 3d c5 bf 75 3a
       -0.055359673 0.041637197 0.07490281 0.0009374584
000100 5b 1e 30 3b e5 9b 1a bd dd 50 39 be a6 8c 90 3d
       0.0026873562 -0.03774633 -0.18097253 0.070580766
000110 e9 64 80 bd d2 7f fe bd e6 77 b2 bd 6d 10 bc bc
       -0.06269247 -0.124267235 -0.08714275 -0.022957051
000120 27 57 21 3c 67 81 c9 3d 95 f3 ff 3c 01 a3 8a bb
       0.009847439 0.09839135 0.031244079 -0.0042308574
000130 00 d2 26 bc 73 68 8a bd 10 26 86 3d 70 c2 76 3d
       -0.010181904 -0.06758203 0.065502286 0.060244024
000140 ab d3 ac bc f8 dd 05 3b de 55 90 3d c4 e8 05 bc
       -0.021097025 0.0020426493 0.07047628 -0.008173171
000150 fe 66 e3 3b 70 47 00 3e 63 7f 90 bd cb 6c c2 bd
       0.006939768 0.12527251 -0.07055547 -0.09493407
000160 a7 54 3a 3e 49 a3 86 bc f2 80 19 be 77 bd 10 bd
       0.18196355 -0.016435282 -0.14990595 -0.035336938
000170 58 79 95 bd e5 31 a0 bd 69 51 83 bd 27 d4 de bc
       -0.07298535 -0.078220166 -0.06412012 -0.027200771
000180 00 00 a9 bd 6c 70 93 bc d3 1f 15 bd f4 86 86 bd
       -0.08251953 -0.017997943 -0.036407303 -0.06568709
000190 31 ef 0e 3d 73 b9 e9 bd 11 90 d9 bb 0f bf e8 3a
       0.03489608 -0.11412325 -0.0066394885 0.0017757135
0001a0 62 d2 b6 bd 73 10 b8 bd ef 6d 4d 3b 38 97 19 3d
       -0.08926846 -0.089875124 0.0031346043 0.03749773
0001b0 c6 22 7b be 69 bd 36 bd 82 56 1a bd 4e aa 84 bd
       -0.24524984 -0.04461423 -0.037680157 -0.064777955
0001c0 90 f7 7a 3c 1b 97 8d 3d 0d ca 4b be 1f 74 46 3d
       0.015317813 0.06913587 -0.19901295 0.048450585
0001d0 13 2a b7 3d 72 f3 55 bd 47 74 03 bd 46 5f 33 3d
       0.08943572 -0.05223412 -0.032093313 0.04379203
0001e0 84 c5 41 3d 56 e5 51 bd 47 80 82 bd c7 db 1c bd
       0.047307506 -0.051244102 -0.06372123 -0.038295534
0001f0 69 ee 64 bd 71 af 9b bd c7 6e 05 bd e7 1b 4f 3d
       -0.05589143 -0.07601822 -0.03257635 0.05056372
000200 48 20 e4 bd 5a 1b cd 3d 14 f9 0a 3e 68 76 db bc
       -0.1113897 0.100149825 0.13571578 -0.026789859
000210 98 1b f4 bd ac 63 fe 3d 2d d1 fd bd b6 b1 6f bd
       -0.119193256 0.12421355 -0.12393413 -0.058519088
000220 92 dd 88 3b 97 44 11 be 01 c0 33 bc a5 1d f5 3d
       0.004176804 -0.14186321 -0.01097107 0.11968545
000230 61 4f 5f be 1a 90 88 bd 16 c1 61 be 65 9f d4 bd
       -0.21807624 -0.0666811 -0.22046313 -0.103819646
000240 39 54 be 3d ff 6b 2e 3d 31 65 f3 bd 83 f3 30 3d
       0.09293408 0.04258346 -0.11884535 0.04320098
000250 5a 2b 60 3d 7f f8 c2 bd 76 84 2b 3b bf b3 1a bd
       0.054728843 -0.09520053 0.0026171482 -0.037769075
000260 bf cd 79 3c de c1 7b be a1 bf 5f bd 73 cc dc bd
       0.015246808 -0.24585673 -0.05462611 -0.10781183
000270 1e e7 98 bd 9b e7 f9 3d ea bb 70 3d ed 23 68 bd
       -0.07465957 0.12202378 0.05877296 -0.056674886
000280 bf f6 10 3d 10 ac 39 3d 3c 34 13 be 9d 88 8e bd
       0.035391565 0.045330107 -0.14375395 -0.06959651
000290 9b 8b db bd b4 4b 6f 3c c9 ab 90 bc 49 9d 8f bd
       -0.10719987 0.014605451 -0.017660039 -0.07012422
0002a0 92 10 80 3a cb 0d f8 3c 2c 4c 44 3e ac 15 58 3c
       0.0009770563 0.030280015 0.19169682 0.013188761
0002b0 d8 fc 96 3c c5 75 8e bd 1c 02 51 bd 55 46 23 bd
       0.018431112 -0.069560565 -0.051027402 -0.039861996
0002c0 5b 60 74 3d 06 6a c0 3c e9 ea 42 3b 43 ca 90 3a
       0.059662204 0.023488056 0.0029742068 0.0011046607
0002d0 66 0c 7a 3d 90 dd 99 3c 9b 10 08 be 59 6a e9 bb
       0.06104698 0.018782407 -0.13287584 -0.0071232733
0002e0 6f 5b 27 3d f3 44 ce be 1c 96 e7 3d 96 f0 32 be
       0.040858682 -0.4028698 0.11307928 -0.17474589
0002f0 d4 68 88 bd b2 f9 e3 bd 8a da 2a 3c d8 7f 8d bd
       -0.066606194 -0.1113161 0.01042808 -0.0690915
000300 0a b1 38 3c f4 2b 08 3e 73 28 f0 bd 08 28 e2 bc
       0.011272678 0.13298017 -0.11726465 -0.027606979
000310 6a 9e b0 bd 33 33 f8 3c 31 f8 95 3d be 93 50 3d
       -0.08623965 0.030297851 0.073227294 0.050922148
000320 00 e6 c3 bd d2 57 ea 3d 8e ce b1 bc 7e 75 93 be
       -0.095653534 0.11442532 -0.021704938 -0.28800577
000330 5c 75 4e bc 17 02 29 be 51 3b 2c be e2 50 13 be
       -0.012601223 -0.16504703 -0.16819502 -0.14386323
000340 d6 09 2e be 1f f3 e6 bd 91 1e 60 bd 93 15 85 bd
       -0.1699594 -0.112768404 -0.05471665 -0.064982556
000350 cd c8 28 bd ae 9a 0a 3d 6d 6f 7e 3d 91 bf a9 3c
       -0.041207124 0.03383892 0.062117983 0.020721229
000360 8c d7 65 3b 1d 25 13 3e b9 a1 a6 bb 57 5e 99 bc
       0.0035071103 0.14369626 -0.005085197 -0.018721743
000370 2d 6e 94 3d c9 e8 e3 bd 39 82 95 bc 81 97 50 be
       0.07247577 -0.111283846 -0.018250572 -0.20370294
000380 b6 22 a2 be 29 1a eb 3d 9e 5b 2e 3d 44 48 39 3d
       -0.31667107 0.11479599 0.04256784 0.045234933
000390 25 2a 0e bc 87 ff ac 3d e2 8f 4a bd 89 34 ba 3d
       -0.00867704 0.084471755 -0.049453624 0.090920515
0003a0 d9 50 8d bd 46 8b 2a bd fe be ab bd d9 7a 5a bd
       -0.06900186 -0.041636728 -0.08386038 -0.053339813
0003b0 2a d8 25 be de 33 02 be c8 fe 89 bd d7 90 b1 bc
       -0.16195741 -0.12715098 -0.06738049 -0.02167551
0003c0 5c 31 67 bc 33 4d 7b bd e7 f5 9f bd 05 82 24 bd
       -0.014110889 -0.06135292 -0.07810574 -0.04016306
0003d0 b1 61 c6 bd 0a f9 91 3d c4 52 67 bd 69 e8 47 bd
       -0.09686602 0.071275786 -0.056475416 -0.048805628
0003e0 5e 12 9c bd 0b 4e 21 3e 50 13 21 3e 2e 2a 55 bd
       -0.07620691 0.15752427 0.15730023 -0.05204218
0003f0 4a 9d 80 bd 03 1d f8 3d b7 8f 02 3d 8b 56 e2 bd
       -0.062800005 0.121149085 0.03187534 -0.11051663

layer.4.bias f4 [50]
000000 b7 d3 43 3c bf dc 75 3c 53 b9 b6 3b 97 d1 5d bc
       0.011952332 0.015006243 0.0055762916 -0.01353874
000010 2b 81 a0 3a 0c 79 04 bd 12 41 82 3b 27 c5 6b 3c
       0.0012245526 -0.032342 0.003975042 0.0143902665
000020 88 c3 5e 3c 54 b0 2f 3d 13 a8 a5 ba 75 b6 9a 3b
       0.013596423 0.04289277 -0.0012638591 0.0047214576
000030 37 6a 31 3c 92 e9 0e 3c 5b 97 1e 3c 0c c7 89 3b
       0.010828546 0.00872268 0.009679641 0.0042046364
000040 cf bd b8 3c 10 0c b4 3b 4b 33 9d 3c 4e 2e ef 3b
       0.022551445 0.005494602 0.019189497 0.007299221
000050 60 5b 04 bd b4 5a 76 bb d5 f6 93 3c 33 84 c0 bd
       -0.032313704 -0.0037590684 0.018062035 -0.09400215
000060 f9 66 07 3b 61 ff 58 3c ee df 3a 3c 25 19 4d 3c
       0.0020660742 0.013244481 0.011405928 0.012518202
000070 9a b7 38 3a 0b 8b 57 3c 14 fd ed 3b a4 63 be 3a
       0.0007046402 0.013155709 0.0072628353 0.0014525545
000080 a2 dc 3f bb a7 ba df 3c 2b 4a 0d 3d af 70 99 3c
       -0.0029275795 0.027310682 0.03449456 0.01873049
000090 c6 61 c6 3b 3b d0 21 bb ce d8 e0 3c 00 36 b2 3b
       0.006054136 -0.0024690765 0.02744713 0.005438566
0000a0 26 68 93 3c 96 04 91 3c 50 8a 1b 3c bc d9 10 3c
       0.017993998 0.017702382 0.0094934255 0.008840974
0000b0 8a fe 84 bb aa 22 95 3c 4f 75 51 3c 27 1f 3f 3c
       -0.0040586637 0.018205006 0.012784316 0.011665142
0000c0 27 39 1d 3b 00 b3 2f bd
       0.0023990364 -0.042895317

layer.7.weight f4 [50, 50, 3, 3]
000000 b0 0b 19 3d 17 32 a2 bd 17 cc be bd b5 88 48 bc
       0.03736466 -0.0791971 -0.09316271 -0.012239625
000010 1c 4e 6f 3d 45 dd d4 bd 7d 6f 0d 3b 3c d1 b0 bc
       0.0584241 -0.10393766 0.0021581345 -0.021584146
000020 29 a4 b8 bd 50 16 c4 3d 9a b7 aa bc 5d 71 e0 3c
       -0.09015686 0.09574568 -0.020839501 0.027397806
000030 4b 01 2e 3d a0 a9 62 bd e3 54 3b bd c1 c9 0d bd
       0.0424817 -0.05533755 -0.04573525 -0.034616236
000040 4a c6 96 3c 3b fd 9f bc c7 28 0f 3e e7 6d 3c bd
       0.018405098 -0.01952993 0.13980399 -0.04600325
000050 ee a6 dd bc e5 31 cb 3d 8d 3a 81 3d 24 b4 1b be
       -0.027057137 0.09921626 0.06309996 -0.15205437
000060 10 96 09 3d e2 15 83 bc 1c 29 9e 3c 5e 0b 8f bc
       0.033590376 -0.016001645 0.019306712 -0.017461475
000070 8f ae 9b 3d c9 28 a8 bc d3 39 0e 3d f1 a6 e9 bd
       0.07601654 -0.02052726 0.034723114 -0.11408795
000080 c6 bd 80 3d fb 1e 8e 3c ec 05 b1 3d d2 9d e2 3c
       0.062861964 0.017348757 0.08643708 0.027663145
000090 8f 87 1d be 08 dc 15 be 47 87 55 bc b7 f7 31 bd
       -0.15383743 -0.14634717 -0.013032741 -0.04344913
0000a0 e5 44 fb bd a2 d2 c6 bc a0 48 58 3c d0 0d 14 bd
       -0.12269 -0.02427036 0.013200909 -0.036145985
0000b0 2a c1 02 3d ea fe 09 be cc a0 a0 bd 00 f1 1e bd
       0.031922497 -0.13476148 -0.078431696 -0.038804054
0000c0 ca 88 1d bd 96 d4 10 be d6 84 53 bd cd e5 07 bd
       -0.03846053 -0.14143595 -0.051640354 -0.03317814
0000d0 48 fa 31 3d 3f 13 4d ba 8f 54 d1 3a 7d d5 e3 3c
       0.043451577 -0.0007822997 0.0015970635 0.02781176
0000e0 bd dd 7d 3c fb d4 57 bd ce 30 ba bd 3c b1 94 bd
       0.015494761 -0.05269335 -0.0909134 -0.07260367
0000f0 fc 5b e1 3c 33 62 2c bd 82 40 0f bc ad 9d 64 bd
       0.027509682 -0.042085838 -0.008743407 -0.055814434
000100 f4 f4 47 be 1f d6 9a 3c b6 2b a1 3d e2 71 39 be
       -0.19527036 0.018900929 0.07869665 -0.18109849
000110 25 77 8c be de da 9d 3d 88 78 07 3d 51 bf b5 bc
       -0.2743465 0.07707761 0.033073932 -0.022185953
000120 88 01 92 3d e2 a1 21 3c 03 0a 94 bd 6f e2 86 bc
       0.07129198 0.009865256 -0.07228472 -0.016465394
000130 69 04 33 be cf 7a 8c bd 60 d2 84 3d 5d 93 eb 3c
       -0.17482151 -0.068593614 0.06485438 0.028756792
000140 d5 8c c8 bc 46 3b 48 3e a2 a5 05 bd d6 db 60 bd
       -0.024481216 0.19553861 -0.032628663 -0.054897152
000150 a1 bd 8a 3d 8b 42 f3 3c ae a1 61 be 2f 69 5a bc
       0.0677445 0.029694816 -0.22034332 -0.013330742
000160 50 67 b5 3d 2e 04 9f bc 4a 63 b1 3c 62 9b a6 bd
       0.08857596 -0.019411173 0.02165379 -0.08135106
000170 c5 47 14 3d 0a a2 18 3c 16 b6 cd bc 8a f4 bb bb
       0.036201257 0.009315977 -0.02511124 -0.0057359384
000180 ff 40 ac bb 94 9b 33 bc e3 d4 fd bc b8 36 e2 3d
       -0.0052567716 -0.010962386 -0.030985301 0.11045593
000190 00 43 a8 bd 78 e0 44 bd 3e 70 b9 3d 94 ef b8 3c
       -0.08215904 -0.048065633 0.090546116 0.022575177
0001a0 e8 3a b5 3c 3e b8 29 3e ce 8b bb b9 f3 e4 fc 3d
       0.022122815 0.16574189 -0.00035771582 0.12348356
0001b0 f5 6c 3e 3e 6f 0c 51 3d 9b 22 c0 bc 31 dd 2c bc
       0.18596251 0.05103725 -0.023454001 -0.010550783
0001c0 8f 4c 8a 3d 0b 06 df 3d 0c 3b a9 bc 8e 44 a4 bd
       0.06752884 0.108898245 -0.020658039 -0.08020888
0001d0 ab 57 0e 3e f7 c8 9f bd e4 f8 0a bd bd 54 4d 3d
       0.1390063 -0.07802003 -0.033928767 0.05012964
0001e0 5b 2b a9 bb d0 64 2c be 57 e7 94 bb b8 1d f2 39
       -0.005162639 -0.16835332 -0.0045441794 0.0004617998
0001f0 19 b9 37 bd aa a4 d8 3c 91 13 c0 bd cb f6 d2 bd
       -0.044854257 0.026445705 -0.09378732 -0.10300978
000200 5a 9f 6a bc b6 b9 0c 3b 9e 98 1b 3e a1 5d 14 bd
       -0.014320219 0.0021472997 0.15194938 -0.036222104
000210 dc 07 99 3c e5 ee 33 3d d7 c0 e4 3c 52 a2 7e bd
       0.018680505 0.043929 0.027923984 -0.06216652
000220 8b 59 a2 be 3b bb 41 be 49 52 9b bd 1e 93 84 be
       -0.3170894 -0.18919079 -0.07584054 -0.25893492
000230 95 83 4b be 37 19 9e bd e0 61 f8 bd af d7 b5 3d
       -0.19874413 -0.07719653 -0.12128043 0.08879029
000240 48 aa bc 3d 55 b2 96 bd 21 46 91 bb e4 f8 a6 3d
       0.09212166 -0.07358233 -0.004433409 0.08152941
000250 1c 28 17 3d 44 cc 97 bd 4e 4d 3c 3e 05 c0 33 bc
       0.036903486 -0.074120075 0.18388864 -0.010971074
000260 f8 53 d0 bc 37 52 7b 3b ea 48 5a be d7 ef 42 be
       -0.025430664 0.0038348564 -0.21316877 -0.19036804
000270 f3 bf 94 bd bd 0b 3e bb d2 12 92 bd 51 db d2 3c
       -0.07263174 -0.0028998696 -0.07132496 0.025739344
000280 be bc e6 bd 4b 1b 91 3b 3f c1 8f 3d 85 f1 62 3c
       -0.112664685 0.0044283024 0.07019281 0.013851528
000290 fe 08 93 bd db 2d ae bc 5a 07 9e bd 4e 41 b2 bd
       -0.071794495 -0.0212621 -0.07716246 -0.08703862
0002a0 d7 f6 b1 3d 40 0d de 3d 95 09 d2 3d 5c 33 ec bd
       0.08689659 0.10842371 0.10255734 -0.115332335
0002b0 ca 0a 8f bd ce 9f 6a bd ec c5 8c bd 3b c1 42 bc
       -0.0698448 -0.057281308 -0.06873688 -0.01188689
0002c0 88 b5 90 bd f6 94 d4 3c 16 19 5c bd 6b e2 67 bc
       -0.07065874 0.025949936 -0.05373486 -0.014153103
0002d0 58 18 5a 3d 4c 73 b3 bc a5 55 19 bd b1 16 b7 bd
       0.053245872 -0.021905564 -0.037435193 -0.08939875
0002e0 8c 7c 3d 3d 9f c0 f3 3c ec ee f1 bd f6 ad cb 3c
       0.046261355 0.029754935 -0.11813149 0.024863224
0002f0 18 ae 88 3d 0b 56 e7 bd 84 89 8c bd fd ea 2d be
       0.06673831 -0.11295708 -0.068621665 -0.16984172
000300 7c f6 80 3d e4 a4 45 be d3 e5 88 be e5 b6 0f 3d
       0.06297013 -0.19301182 -0.26737842 0.03508653
000310 88 6b 28 bd 21 ad 8b bd ef 0e 15 3d c2 07 55 bc
       -0.041118175 -0.06820131 0.036391195 -0.013002338
000320 4c 68 f0 bd 1d 58 f5 bc 6a aa f9 3d 0c 6f 9e bd
       -0.11738643 -0.029949242 0.12190707 -0.07736024
000330 ed 14 b4 bc 25 03 cd bd 66 3f b0 bd 7c ba 0c be
       -0.021982634 -0.100103654 -0.08605842 -0.13743013
000340 e8 1e d1 bd dc 8b b3 3d 4b bc 74 3c 48 b2 31 bd
       -0.10210973 0.087669104 0.014937471 -0.043382913
000350 85 f0 bb 3d 5a a1 0d 3c 27 96 2c be ef cb 04 bd
       0.09176735 0.008644426 -0.16854154 -0.03242105
000360 ab 88 0f 3c fb 88 23 3e e2 8d 2f be d9 20 a2 bd
       0.0087606115 0.15970223 -0.17143968 -0.079164214
000370 57 06 d1 bc 1c 17 c8 bd c3 6b 07 be 09 ac 2d 3d
       -0.025515718 -0.09770033 -0.13224702 0.042400394
000380 93 78 0c bd 2e f9 4b 3d 83 61 d8 bd 0e e3 38 3d
       -0.034294676 0.049798183 -0.10565474 0.04513841
000390 0b 54 9a 3d 6b e6 41 be eb cf 5c be e1 77 fb 3b
       0.07535561 -0.18935554 -0.2156369 0.007674203
0003a0 eb 9c 6b be d5 e9 29 be 06 57 a0 bd e8 46 3c 3d
       -0.23009078 -0.16593106 -0.078290984 0.04596606
0003b0 52 1e 1f bd 34 4f 68 3d 99 e2 5c 3e d8 69 a7 3d
       -0.038847275 0.05671616 0.21570815 0.08174485
0003c0 be 3c c7 3a 57 67 52 3e 3b d1 d9 3a db eb 0e bc
       0.0015200598 0.20547234 0.0016618142 -0.0087232245
0003d0 16 48 a0 bd 07 ee d1 3c 08 56 2b bd 91 09 11 be
       -0.07826249 0.025626196 -0.041830093 -0.14163806
0003e0 43 12 b3 bd fe 02 8a bd c5 13 6d 3c d9 72 a9 3c
       -0.087437175 -0.06738852 0.014470045 0.020684646
0003f0 03 2a b1 bc 1d e3 d2 3d 5d 46 dd 3d e6 a0 bd bd
       -0.021626478 0.10297225 0.10804436 -0.092592046

layer.7.bias f4 [50]
000000 67 e1 39 3c c3 a8 01 3d 2f af 43 bd fb 04 1f bd
       0.011345244 0.031655084 -0.04777449 -0.03882311
000010 ce e9 0f 3d a3 b9 c0 3c 4b d3 da 3c f8 d5 f4 bb
       0.035135083 0.023526018 0.02671208 -0.007471796
000020 4e 81 05 bb 6c 1f ac 3c df 57 85 bd 52 02 ec 3b
       -0.002037126 0.021011077 -0.06510901 0.007202425
000030 49 34 76 bc 75 41 28 3d 74 f8 22 bc 42 22 37 bd
       -0.015027114 0.04107805 -0.009946931 -0.044710405
000040 9a 25 ab 3b be d3 70 3c 96 2a d4 3c a5 4f d9 ba
       0.0052229883 0.014698921 0.025899213 -0.0016579522
000050 af b5 c8 bb 22 fd 11 bd 39 36 65 3c f8 7e 5c bb
       -0.006125174 -0.035641797 0.0139899785 -0.0033645015
000060 31 ff 79 3c 7a 56 f4 3b cb f2 1a bb 12 22 21 bd
       0.015258596 0.007456598 -0.002364325 -0.039339133
000070 cd cb 9f 3c af 50 0a 3d 63 c6 82 bc 32 7a c0 b9
       0.01950636 0.033768352 -0.015963739 -0.00036712136
000080 2a 9c 13 bd e4 89 23 3c cc f2 14 ba 55 1d b2 bb
       -0.0360376 0.009981606 -0.00056819315 -0.0054356256
000090 f0 60 b3 bc 40 e1 4f 3c 33 db 97 bc 9c db d2 ba
       -0.02189681 0.012687981 -0.01853714 -0.0016087177
0000a0 a1 c2 a8 3c 28 0b 94 3c e4 84 67 bd be 82 df 3b
       0.020600619 0.018071726 -0.05652322 0.0068210056
0000b0 59 21 60 3c c0 a1 7f bd 90 81 85 bc 57 4e 04 bc
       0.013679826 -0.062410116 -0.016297132 -0.008075318
0000c0 84 50 0b 3d e8 9a 01 bd
       0.034012333 -0.03164187

layer.10.weight f4 [50, 50, 3, 3]
000000 5a 1e db bb 06 5d a0 bd 6f b9 94 3c 94 d2 05 bd
       -0.006686968 -0.07830243 0.018154828 -0.032671526
000010 9d 2c 30 bd 46 4e 1d be f2 9e 1c be 0c 42 77 bd
       -0.043011297 -0.1536189 -0.15295008 -0.06036572
000020 0a 35 d9 bd 66 4a 24 bd 40 5a 51 3e 55 f1 b8 3c
       -0.106058195 -0.040110014 0.20444584 0.022576014
000030 a5 00 0e bb 1c 29 f6 bd 0d be df bd 7e 9b 33 bd
       -0.0021667865 -0.1201956 -0.10924921 -0.04384946
000040 d8 12 12 be 51 00 e6 bd ee df 0a bd 71 fb 3c 3d
       -0.14265001 -0.11230529 -0.033904962 0.04613823
000050 ae d4 14 3c e6 71 c5 3d 59 e8 9e 3d 12 70 86 bb
       0.00908391 0.09640865 0.077591605 -0.0041027153
000060 ca 33 fc bc a2 3e 39 3d f6 e6 a6 3d 1a e3 c6 3d
       -0.030786414 0.045225747 0.08149521 0.09711285
000070 67 97 a2 bd 6e 77 05 3d e2 de de bc 2b f1 3f 3d
       -0.07939034 0.0325846 -0.027205888 0.046860855
000080 a3 15 4d be 86 ca a2 bd eb f1 b9 bc 18 2f 8a 3d
       -0.20027785 -0.079487845 -0.022698363 0.06747264
000090 65 76 7e bd fa 46 c3 3d 22 63 f3 bd 50 0d 9f bd
       -0.06212463 0.09535022 -0.118841425 -0.07766211
0000a0 d3 dc 0d 3d e3 a6 32 be 45 87 07 3b c9 47 f8 bb
       0.034634423 -0.17446475 0.0020679992 -0.007576917
0000b0 8e df 28 3c 81 a3 45 3e d8 55 89 3d 10 34 9b 3d
       0.010307206 0.19300653 0.067058265 0.075782895
0000c0 5e 8e 36 bd 90 7d f7 3c e4 8e 12 bd 34 be 0b 3e
       -0.044569366 0.03021124 -0.035780802 0.13646775
0000d0 1c 78 e6 bd 73 01 60 3d bb 4d 85 bd bd 39 82 bd
       -0.11253378 0.054688882 -0.065089665 -0.06358669
0000e0 00 41 9f bc 3d 70 26 3a 1e 47 9b bd 19 05 65 3d
       -0.019440174 0.0006349122 -0.07581924 0.055913065
0000f0 a3 33 2f 3d 3d d5 fd bd f4 b4 49 bd 94 f9 a3 3b
       0.042773854 -0.123941876 -0.049244836 0.0050041173
000100 6e 28 65 bd b1 65 13 3d 15 ba 92 3c 01 7c b2 bd
       -0.05594676 0.035985652 0.017910996 -0.08715058
000110 d6 a1 06 bd 37 dd 0b 3e 4e c6 08 3e b3 0d 0b 3e
       -0.032869183 0.13658606 0.13356897 0.13579445
000120 6d c5 14 bd bb c5 b1 bd d6 2f 60 bd 6e e2 5e bc
       -0.036321092 -0.08680292 -0.05473312 -0.01360379
000130 6f b7 9b 3d 29 df ed bd d9 f3 12 bd e5 8c 83 bd
       0.076033466 -0.1161483 -0.035877082 -0.06423358
000140 ea 25 b2 3d ab 37 f5 bd c7 7d cd 3d 93 8b 2e bd
       0.08698638 -0.119735084 0.10033756 -0.042613577
000150 82 ca a7 bd d7 4d 9d 3c 29 21 5c 3d cb 03 0f 3d
       -0.08192922 0.019202156 0.05374256 0.034915727
000160 f9 92 9d bd 4e f0 39 bc 2b 55 99 bd 20 3c 20 bd
       -0.076940484 -0.011348797 -0.074869476 -0.03911984
000170 af 35 07 3d e6 e9 58 bd 98 0e 27 bd e0 82 a7 bd
       0.03301018 -0.052957438 -0.040785402 -0.08179259
000180 99 bb 32 bc ae 7d 0b be 3b d7 73 bd fb b6 01 bd
       -0.010908985 -0.13622162 -0.05953143 -0.031668644
000190 df f0 54 3a d2 6f cb 3d 56 07 ad 3d 3b 91 d4 3d
       0.0008123051 0.099334374 0.08448665 0.10379263
0001a0 89 36 81 bd 1e 1c 13 be 45 45 b3 bc c1 0c d8 bd
       -0.0630923 -0.14366195 -0.021883616 -0.105493076
0001b0 23 fc 4a be f7 f1 26 3c 85 5a b9 3d e6 5a 8f bd
       -0.19822745 0.010189525 0.09050468 -0.069997594
0001c0 60 f8 0a 3d 56 bd 16 bd a5 96 5e 3c 6c 8d b8 bd
       0.033928275 -0.03680166 0.013585721 -0.09011349
0001d0 a4 90 03 3d 38 cb b4 3d b2 84 a4 bd 80 ac 9f 3d
       0.032120362 0.088278234 -0.08033122 0.07796574
0001e0 ca 73 db bc 1e 30 b1 3c 49 6f e2 bd 9f 71 3e bd
       -0.026788611 0.02162939 -0.11056382 -0.046495076
0001f0 52 8d 46 3d 18 4b 5b bd 51 06 db bc ec a7 30 bd
       0.048474617 -0.05353841 -0.02673641 -0.043128893
000200 f5 4c f1 3c 1d 50 0e bc 19 86 8e b9 b2 d3 49 bd
       0.029455641 -0.008686093 -0.0002718426 -0.049274154
000210 9a 29 4d 3d 6c 9c 9b bd 2e 03 bb 3d 7d 46 51 bd
       0.050088502 -0.075981945 0.09131466 -0.051092613
000220 e5 e9 72 3d 36 b6 0d be f3 a9 93 bd 82 2f d7 3b
       0.05930509 -0.13839039 -0.072101496 0.0065669427
000230 34 ba 59 3d 8e 2d 8f bd 40 a2 a4 3c 05 b2 39 bd
       0.053156093 -0.06991111 0.020096898 -0.04533579
000240 cb ba fd 3d b2 a7 01 be 2c 4b 00 3d 23 05 7d 3e
       0.123891436 -0.12661627 0.03132169 0.24708991
000250 cf 28 d8 bd d9 2a 66 bd 01 69 98 bd 19 24 c4 3c
       -0.105546586 -0.056193206 -0.07441903 0.023942994
000260 66 18 86 bd ca 7a 07 3d d8 78 dd 3c 67 ae bd bc
       -0.065476224 0.033076085 0.027035162 -0.02315445
000270 54 84 c8 bd 70 79 17 bd c9 dd 95 bc dc 0a 01 bd
       -0.097908646 -0.036981046 -0.018294232 -0.031504497
000280 d1 5b 91 3a c9 d9 a8 3d 74 c3 8d 3c 29 f9 0f 3d
       0.0011089985 0.08244664 0.017305113 0.035149727
000290 a4 8f c5 3c c2 b6 b5 bc f0 bf 98 3c 21 2a 8f bd
       0.024116345 -0.022181872 0.01864621 -0.06990457
0002a0 63 8c b3 bd 8c 91 c6 bb fa 1a 99 bc 2c c0 72 3d
       -0.08767011 -0.006059831 -0.018689621 0.0592653
0002b0 04 9f 38 bd 10 3e 01 3e 53 9f 01 be f8 92 70 bc
       -0.045073524 0.12621331 -0.12658434 -0.014683478
0002c0 2f 81 05 3e d3 a2 08 3d 99 e5 00 bd 29 28 19 3c
       0.13037561 0.033358406 -0.03146896 0.009347954
0002d0 a3 ce 1d 3d 14 e5 fb bc bc 55 99 3d a2 19 8d 3c
       0.038527142 -0.030748881 0.07487056 0.017224137
0002e0 89 e4 36 3d 6b cc a1 3d 02 7d 25 3c 6d d6 ad bc
       0.04465154 0.07900318 0.010100605 -0.02122041
0002f0 3b 02 e2 bd 70 6c a7 3a c1 d6 96 3d b3 e7 03 be
       -0.11035582 0.0012773406 0.0736518 -0.12881355
000300 fd 1e 40 be ad ef 6b bd 32 06 a1 3c a0 2c 1c bd
       -0.18761821 -0.05760162 0.019656274 -0.038128495
000310 4b dd 24 bd f3 9a 48 bd ad f2 fd bb 09 67 7e 3c
       -0.040250104 -0.048975896 -0.0077498765 0.015527495
000320 38 a2 92 3d b6 54 84 3d cd 5b 96 bd 05 de 3f be
       0.07159847 0.0646147 -0.07341728 -0.18737037
000330 c6 3f 85 3c 0b d4 77 3c a3 9e db bd 0b d0 71 bd
       0.016265761 0.015126239 -0.10723617 -0.059036296
000340 92 9e 28 bc f4 b5 24 bd ad 47 a8 bb 31 d8 a9 bd
       -0.010291712 -0.040212587 -0.0051354975 -0.08293188
000350 4d 90 84 bd 3d 59 5d bc 14 dd c9 3c 1e 4b 55 3c
       -0.06472836 -0.013510046 0.024641551 0.013018398
000360 e8 04 f9 3b 96 3e 4d bd 26 bc 7e 3b 35 8d 28 3c
       0.007599462 -0.050108515 0.003886947 0.010287573
000370 80 c0 92 bb 45 f5 c9 bd 81 7a d7 bd 77 ff 1d be
       -0.004478514 -0.098612346 -0.10521413 -0.15429483
000380 ef 33 24 be 98 4b 00 3d d9 7f 83 bc 6a cc d9 bc
       -0.16035436 0.03132209 -0.016052173 -0.02658673
000390 42 cc 1e b9 8e 14 8e bd 4c 90 14 3c ad bb 37 3d
       -0.00015144146 -0.06937514 0.009067606 0.044856716
0003a0 fe 80 5b bd c0 c7 33 bc 4f 9f 80 3c e7 ce 9f 3c
       -0.053589813 -0.010972917 0.015700964 0.019507838
0003b0 79 c9 8c bc e0 2a fa 3c 43 f2 82 3b 53 77 04 bc
       -0.017185913 0.030538023 0.003996165 -0.00808509
0003c0 f5 d5 f6 3c da 9b a2 bd 54 c6 c0 3d b3 9f 19 3e
       0.03013132 -0.079398826 0.09412828 0.15002327
0003d0 1e 1e bf bd dd 3d ef 3d 66 ec 71 3c 88 4d 9d 3a
       -0.09331916 0.11681721 0.014765834 0.0012001256
0003e0 d9 e7 2f 3d 99 56 9c bd ff 86 7b 3b 55 4f ed bc
       0.042945717 -0.07633705 0.0038380024 -0.028968493
0003f0 d5 14 a5 bd 02 00 03 be e9 69 f3 3d 68 ad 25 be
       -0.08060614 -0.12792972 0.11885435 -0.1617943

layer.10.bias f4 [50]
000000 00 30 15 3d 7a 27 09 3d 40 37 e7 bc dd 9c bd 3c
       0.03642273 0.033484913 -0.028224587 0.023146087
000010 d8 d2 1d 3c 76 70 93 bc d8 5c 72 bc 7f 39 21 3d
       0.009632789 -0.017997961 -0.0147926435 0.039361473
000020 f2 5e 06 bd b8 53 e0 bc 99 e7 2a bc 38 ed 48 3c
       -0.03280539 -0.02738367 -0.010431194 0.012263589
000030 7a e4 22 bd 18 88 d6 3b f2 a5 dd 3b e9 5d b2 3c
       -0.039768673 0.0065469854 0.006764167 0.021773295
000040 f9 b1 8d bc 8e 6d 95 3c da 08 02 bd 49 d0 e0 bb
       -0.017296778 0.018240716 -0.031746723 -0.006860767
000050 25 65 5c 3c 91 ab 97 3c 1b 35 ff 3b 5b c3 90 bc
       0.013451849 0.018514426 0.007788313 -0.017671278
000060 46 18 b3 3c 0d d9 20 3d ba 85 29 3c 56 4b ce bc
       0.02186216 0.039269496 0.010346824 -0.025182407
000070 53 2e 3f 3c 79 46 01 3d de 79 60 bb 48 af 29 bc
       0.011668759 0.03156135 -0.0034252326 -0.010356732
000080 9b 16 2d 3c c7 ce e5 bc 75 ef df 3b 66 a1 fd 3b
       0.010564472 -0.0280527 0.0068339654 0.0077401875
000090 73 66 2f 3c 61 46 92 3c e1 8f 1b 3c 1a 49 9a bc
       0.010705578 0.017855825 0.009494753 -0.018833686
0000a0 21 3c af 3c dc af 91 3c 6a f3 da bc 1b 56 02 bc
       0.021390976 0.017784052 -0.026727397 -0.007955099
0000b0 4f 78 a4 bc ed 17 65 bc f1 4a 00 3d f3 58 e2 bc
       -0.020076899 -0.013982755 0.03132147 -0.027630305
0000c0 34 97 8a 3c 14 8a a2 3c
       0.016917802 0.019841231

layer.13.weight f4 [40, 50, 3, 3]
000000 11 e6 81 3d 3d 29 04 be ae ed 25 3a c5 32 ff 3c
       0.0634271 -0.12906356 0.00063296675 0.031152138
000010 ee 26 96 bc 9f 4c d0 3d e5 cf 2e 3d a6 c6 24 3d
       -0.01832911 0.10170864 0.042678732 0.04022851
000020 f5 fd 51 3d 2a 21 69 3d bb 02 52 3d 14 05 ee 3b
       0.051267583 0.056916393 0.051272135 0.007263789
000030 ae 1b 04 be 06 0c c6 bd e4 b0 64 3d 44 4c d1 bc
       -0.12901184 -0.09670262 0.05583276 -0.025549062
000040 b2 8b b3 bd 7e 7c af bd ac 44 87 be 82 cc 92 bd
       -0.08766879 -0.08568667 -0.2641958 -0.07167913
000050 ce 8f df bc ee 41 38 bd 03 74 f3 3d 63 9b 96 3c
       -0.027290251 -0.04498475 0.11887362 0.018384641
000060 ba a6 65 bc b4 fc 92 bd f9 49 c9 bd 21 1e a2 bd
       -0.0140168015 -0.071771055 -0.09828562 -0.07915903
000070 c2 31 06 bd 7a 0f 6e bc d2 fd e7 3c 5e 51 61 3c
       -0.032762296 -0.014530057 0.028319273 0.01375231
000080 96 04 ca 3d f1 f0 68 bd 04 59 0d bd b7 6d 31 3e
       0.09864156 -0.056870405 -0.03450872 0.17327009
000090 45 d5 cc bc 8a 7a 0a be 05 fc 51 3d ae 90 3f bc
       -0.025004039 -0.13523307 0.051265735 -0.011692209
0000a0 56 4f ad 3d d6 68 3d 3c fb bd 67 bd 00 ad 2f 3d
       0.08462398 0.011560639 -0.056577664 0.042889595
0000b0 f8 5a c8 3c 8b e6 7c bd 89 93 75 bd f8 ee 9b bd
       0.02445744 -0.0617433 -0.059955154 -0.07613939
0000c0 a4 e1 00 bd 50 94 9e 3c 3b 2c e1 bd 3c 68 8d bb
       -0.031465188 0.01935783 -0.109947644 -0.004315404
0000d0 bc 26 80 bd 43 71 3d 3b ee 7a 19 bc 9d 5b e9 bd
       -0.06257388 0.002890662 -0.009367688 -0.11394427
0000e0 d6 a8 76 bd 5a a2 77 bb 69 78 8b bd e7 8a 0d 3b
       -0.06021961 -0.0037785978 -0.06810076 0.0021597685
0000f0 d1 cf d5 bd b1 cc 8f bd 6f d2 78 bd 21 15 a6 bb
       -0.104400285 -0.07021464 -0.06074756 -0.0050684367
000100 38 f5 24 bd 89 f9 a6 bb 07 d7 d0 bd e6 e7 e4 bd
       -0.04027292 -0.005095665 -0.10197263 -0.111770436
000110 51 6c 31 bd 29 1e 10 bd a9 66 05 bd ca 13 ca bc
       -0.04331619 -0.035185013 -0.032568607 -0.02466764
000120 79 e5 c4 bc 8e d0 21 bd e0 17 41 bd 9e dd 6a bd
       -0.024035202 -0.039505534 -0.04714191 -0.057340257
000130 ad a5 70 bd 90 eb 01 bc e4 01 4d 3d 99 ae b6 3d
       -0.05875175 -0.007929698 0.05005063 0.089200206
000140 53 74 21 be e9 7e 23 bc ec 06 f0 bd 77 7c 35 3b
       -0.1576703 -0.009978988 -0.1172007 0.0027692595
000150 10 2f 8b bc e2 e4 f2 bd 40 91 09 3d 26 f9 f4 3d
       -0.016990215 -0.11860062 0.033585787 0.11961584
000160 80 a5 9b bd fd c7 4f 3d 02 8c 3d 3d 49 65 9a bc
       -0.07599926 0.050727833 0.0462761 -0.018847125
000170 46 90 ac bd f7 3a dd 3c c9 64 2e 3b 9d bf 31 be
       -0.084259555 0.027005656 0.0026610366 -0.17358251
000180 d1 d2 10 bd 66 9e ca bd de 90 6e bd fc 3e 47 3d
       -0.0353573 -0.09893493 -0.058243625 0.04864405
000190 0d 7e 16 3d 62 a2 aa bd 73 ac 66 3b 3b 64 70 3d
       0.036741305 -0.08331753 0.0035198003 0.058689337
0001a0 93 3a 0e 3e 32 d5 2c 3d ae a5 d0 3d f3 8d c4 3b
       0.13889532 0.042195506 0.10187851 0.005998367
0001b0 de db 4a bd 7f be 2e 3b 1b 86 dc 3d 6d 7e c0 3c
       -0.049526088 0.0026663837 0.10767766 0.023497785
0001c0 d7 aa 37 3d ec 3d ee bc f0 55 9c 3d d9 71 ec 3a
       0.04484066 -0.029082261 0.07633579 0.00180393
0001d0 75 f8 d0 bc 74 7c 9c 3d ae 58 9e 3c 47 85 9c bd
       -0.025509099 0.07640925 0.019329395 -0.07642608
0001e0 f0 8e e7 3d 87 ef 2c 3e e3 04 84 3c 2e 79 c5 bd
       0.1130656 0.16888247 0.016115611 -0.09642254
0001f0 a7 72 11 bd 40 e1 fa 3d 03 d6 a3 bd 28 f4 b7 3d
       -0.03550973 0.12249994 -0.07999804 0.08982116
000200 a2 83 36 3e f4 ba a0 bd 84 30 39 3e 28 b3 58 bc
       0.17823651 -0.078481585 0.18084913 -0.013226308
000210 2a 08 6d bd c7 3a a6 bd 4a 9d d0 3a ca a8 38 3e
       -0.057869114 -0.0811668 0.0015916016 0.18033138
000220 6f fd b5 3d 1a 87 19 3e a9 ae 8d 3c aa 45 87 3d
       0.08886229 0.14992943 0.017295199 0.06605084
000230 0f af ea bb 1a 49 17 be 5a 89 0c be 97 e0 95 3c
       -0.007161982 -0.1477398 -0.1372427 0.01829557
000240 f5 e7 4e bd 23 d8 99 3d 18 3f d8 bb dc be 1b be
       -0.05051418 0.07511928 -0.0065993182 -0.15209526
000250 42 9e c8 bc 52 2a 70 3d 2a 90 b5 bd 86 85 cb bb
       -0.024489526 0.05863411 -0.08865388 -0.0062109856
000260 55 12 21 3b 92 09 c4 3d c2 f2 05 3d 96 fd fc bb
       0.0024577577 0.09572138 0.032702215 -0.0077206595
000270 ee 4c 14 bd e9 9f 90 3d b3 4c fa bc 17 19 83 bd
       -0.03620618 0.070617504 -0.030554151 -0.0640127
000280 51 df 94 3d 52 78 ed bc 9c 82 09 bd 72 78 81 bd
       0.07269157 -0.028988037 -0.033571824 -0.06321801
000290 a2 f4 de bd f4 01 a0 bb 45 40 2e bd 96 82 a6 3c
       -0.10886504 -0.0048830453 -0.04254176 0.02032594
0002a0 e1 c3 0a be a4 74 c2 bc 1f 34 e3 3c d6 97 86 3d
       -0.13551284 -0.02373726 0.027734814 0.06571929
0002b0 6d f7 6b 3d 35 7f 6a 3d b6 df 80 3d f0 6f 8d 3c
       0.05760901 0.05725022 0.062926695 0.01726529
0002c0 15 ad c1 3d f4 b2 05 3d cb 4e d6 bc 6c db a5 bd
       0.09456841 0.032641366 -0.026160618 -0.08098492
0002d0 28 8d af bd 65 bb 84 bc fc 26 1c be 2a 38 00 3e
       -0.08571845 -0.016202638 -0.15249246 0.12521425
0002e0 e5 11 ce 3c 66 a3 53 bd 31 d0 87 bd 41 29 5e bd
       0.025155017 -0.0516695 -0.06631506 -0.05423856
0002f0 89 1a 03 be cc b1 16 3d 9f 78 bb bc 02 7e d5 bd
       -0.12803091 0.036790654 -0.022884665 -0.10424425
000300 ac 0f c1 bd 13 28 ca bc 8d e5 d8 3c 08 b6 86 bd
       -0.09426817 -0.024677312 0.026476646 -0.065776885
000310 73 7b 10 3d 0b 8e 61 3c 77 b3 38 3c 0d 44 b6 3d
       0.03527398 0.013766776 0.0112732565 0.088996984
000320 7d db 32 3e 08 a5 83 bd 0a 35 40 3d fa c3 5b bd
       0.1746654 -0.064279616 0.046925582 -0.053653695
000330 08 27 53 bd d6 47 fb 3d 2c cb a1 3d 2f 1b cc bd
       -0.051550895 0.12269561 0.0790008 -0.09966122
000340 35 2f 4d be 03 83 ab bd 31 75 76 bd c0 9a 35 bd
       -0.2003754 -0.08374598 -0.060170356 -0.044337034
000350 8f be 26 ba 1d 80 02 3c 42 81 b8 3c 5b 0c e1 3b
       -0.0006360793 0.007965115 0.022522572 0.006867928
000360 c3 3b c3 3d a2 35 0b 3d 66 6a df 3d 63 90 0f 3e
       0.09532883 0.033986695 0.10908966 0.14019923
000370 6a 99 d1 3d 84 77 07 bd 57 77 84 3d 1a 3e 43 3e
       0.102343395 -0.033072963 0.06468075 0.19066659
000380 f2 d5 33 3d e0 b9 36 3d 99 2b 9d 3d 3e 3f 3d bd
       0.043905206 0.044610858 0.07674331 -0.04620289
000390 8f aa 12 3c 6f 20 ec bd b0 b2 9c 3d 72 47 d3 ba
       0.008951797 -0.11529624 0.076512694 -0.0016119315
0003a0 18 50 1c bd 3d b2 8b bd eb 08 c1 3a 37 3e 0f 3c
       -0.03816232 -0.06821106 0.0014727389 0.0087428605
0003b0 f8 3c e4 bc a6 64 d7 3d 71 06 18 bd ad 34 e0 3c
       -0.027861103 0.10517244 -0.037115518 0.027368868
0003c0 f5 83 64 bd 42 c0 1a 3d 19 7f 59 bd 89 c4 ef 3d
       -0.055789907 0.037781008 -0.053099725 0.11707408
0003d0 24 20 eb bd 33 3c 07 3d 34 ef 02 3e 4e 1b 86 3d
       -0.1148074 0.033016395 0.12786561 0.06548177
0003e0 8a 2e 61 bc 73 97 f0 3d 0e 43 7f 3c f3 00 37 be
       -0.013744006 0.11747637 0.015579952 -0.17871456
0003f0 5a 2b d8 3c f0 46 de 3c f2 e6 11 3e 81 73 42 3e
       0.02638786 0.027133435 0.14248255 0.18989374

layer.13.bias f4 [40]
000000 50 5f 39 bd 7e d4 49 bc 24 b0 1d bb aa 44 d2 bc
       -0.045256913 -0.0123187285 -0.0024061287 -0.025667507
000010 82 92 31 bc 5a 8c ef bb f0 a7 23 bd 69 2d c8 bc
       -0.010838153 -0.0073104324 -0.03995508 -0.024435716
000020 94 fd bb 3c 50 3a 2e 3a cc 2c 73 bc 27 11 ab 3c
       0.022948064 0.00066462625 -0.014842223 0.020882202
000030 b4 b4 f5 bb a5 04 b4 bc 83 e8 9e bb a7 1e 79 bb
       -0.007498348 -0.021974871 -0.004849495 -0.0038012655
000040 00 c6 2c bc 73 1d 1f bd 46 0a f0 bc 53 db 6f bc
       -0.010545254 -0.038846444 -0.029301774 -0.014639693
000050 2d d3 48 bc 35 d5 92 bc d1 22 de bb 73 a0 12 3d
       -0.0122573795 -0.01792393 -0.006779053 0.035797548
000060 89 9f e8 bc 2f 6c 25 3c 1a 15 40 bc 24 3a 80 bc
       -0.028396385 0.010096594 -0.011723781 -0.015652724
000070 c7 0d 07 bc 3f 65 3e 3b b0 d9 17 3c bb c5 e6 3c
       -0.008243031 0.0029052047 0.009268209 0.028170457
000080 41 bb 26 bc 47 49 3a 3c 4a cd d4 3b f0 cf d6 3a
       -0.010176481 0.01137001 0.006494199 0.0016388875
000090 c6 de 31 bc 64 79 af bb 69 06 cd bc ee 31 bf 3c
       -0.010856336 -0.005355047 -0.02502747 0.023339238

layer.17.weight f4 [40, 40, 3, 3]
000000 8d ac f6 3c 2c 5b 6f 3d 7e 43 a2 3d 70 6c 80 bc
       0.030111575 0.058436558 0.07923029 -0.015676707
000010 3a 55 f5 3d 23 b1 06 3d ba a0 27 3e f3 c7 0b 3d
       0.11979146 0.032883774 0.16369906 0.034126233
000020 b5 dc 3c bd 1b 64 27 bd 8b 19 11 bc 5f 14 02 be
       -0.04610892 -0.040866952 -0.008856188 -0.12703083
000030 2e 04 36 bc 45 5c 8e 3d 37 58 9a bc 31 8a fc bc
       -0.011109395 0.06951193 -0.018840892 -0.030827614
000040 36 ad 42 3c 58 51 9b bc d9 b0 08 bd e5 b5 69 3c
       0.011882117 -0.018959686 -0.03337178 0.014264558
000050 87 84 61 be d4 ee 25 3e 48 cf b3 3c 04 39 cc bd
       -0.22023211 0.16204387 0.021949425 -0.09971812
000060 09 ce d7 bd 72 ed 19 be b7 17 0f be 94 c9 84 3d
       -0.10537345 -0.15031984 -0.1397389 0.064837605
000070 ca 01 11 bd bd 93 9b bd 97 d4 22 bd ba c0 81 3d
       -0.035402097 -0.07596538 -0.039753523 0.06335588
000080 cd e5 52 3c 45 a7 02 3e 21 ae d7 bd 7e c7 7f bd
       0.012872172 0.12759121 -0.10531259 -0.06244611
000090 5b bc 95 bd 11 24 3c bd 8c 08 4e bd 4a 2b cb 3b
       -0.073113166 -0.045932833 -0.05030112 0.006200229
0000a0 21 76 96 3c 6c 50 0d be 5c f4 2d 3d 64 4c aa bd
       0.018366875 -0.1380021 0.042469367 -0.083153516
0000b0 dc e3 20 be e2 aa 83 3d 01 63 fd 3c 88 6b 0a be
       -0.15711921 0.06429078 0.030930998 -0.13517582
0000c0 80 38 dd bd 68 2c b0 bd 4c 0d 8c bd 12 5e 56 be
       -0.10801792 -0.0860222 -0.06838474 -0.20934322
0000d0 93 d2 11 bd 5e 52 a0 bd 1b 30 40 be af c9 91 bc
       -0.03560121 -0.0782821 -0.18768351 -0.017796366
0000e0 a7 e5 8c 3d a4 ff 40 be 0e dd ca bd 1b 2c 08 3e
       0.0687974 -0.18847519 -0.09905444 0.13298075
0000f0 04 ba 32 be 07 10 27 be d0 9c 76 bc 84 71 f7 bd
       -0.17453772 -0.16314708 -0.015052035 -0.12082198
000100 db 58 ff bc a9 c2 27 bd 15 b5 9f bd 18 02 eb bd
       -0.0311703 -0.040957127 -0.077982105 -0.11475009
000110 d5 d4 c3 bc 37 d9 25 bd b4 73 37 bc 1b ee 64 bd
       -0.023905197 -0.040490355 -0.011197019 -0.055891138
000120 eb e6 44 bc 2d 77 2d bd a1 ac 7a bd c1 07 18 bc
       -0.012017946 -0.042349983 -0.061199788 -0.009279192
000130 19 cb 5c bc 43 33 36 3d 81 38 e4 bb 99 46 1a 3d
       -0.013476157 0.04448248 -0.0069647436 0.037664983
000140 cd 85 07 bd 30 1a a7 3d cf fd a6 3d c2 0a 8d bd
       -0.033086587 0.08159292 0.08153879 -0.068868175
000150 dd 50 71 3e 0b 2f 8e bd 12 13 b4 bc f6 95 c3 3d
       0.23566003 -0.069425665 -0.02198175 0.09550087
000160 d6 8a d2 3c d4 22 a7 bb d6 6e 1b bc 99 d2 ad 3d
       0.025700968 -0.0051005874 -0.009486875 0.08487434
000170 32 e0 46 3b d7 c6 82 bc 6c 5c e5 3d 1e 09 5e bd
       0.0030346033 -0.015963955 0.11199269 -0.054207914
000180 dd ec 59 be 61 6c fd bc 2c 65 80 3c 29 b6 4a 3d
       -0.21281762 -0.030935468 0.015673243 0.049490128
000190 03 f4 ba 3c d7 54 3a 3b 2b 9b ef 3d 57 53 10 3e
       0.022821432 0.0028431916 0.11699518 0.14094292
0001a0 d8 e2 91 bd 01 02 8d 3d 54 88 13 3d a4 9f d5 bc
       -0.07123345 0.06885148 0.036018685 -0.0260771
0001b0 ca 62 ee bc e8 8b 74 bd a7 42 88 bd 66 45 45 3d
       -0.02909984 -0.059703737 -0.06653338 0.048161887
0001c0 04 39 97 bb 89 33 4d 3d d7 e1 7a 3e 4a 05 11 3e
       -0.004614951 0.050097976 0.24500214 0.14162174
0001d0 54 56 aa bd bf b8 f2 bc 1b af 9f 3d 67 39 da 3c
       -0.08317247 -0.02962911 0.077970706 0.0266387
0001e0 21 31 db bc ee 62 a6 bc 48 5f df bc 26 cb f6 bd
       -0.026756825 -0.020310845 -0.027267113 -0.12050466
0001f0 01 04 5b bc 89 e0 25 bd ff e7 4e 3d 3d d8 ce 3d
       -0.013367654 -0.040497337 0.050514217 0.10099838
000200 5d a5 a0 3d e1 d6 5c bd 95 b6 9d bd de f4 84 3d
       0.078440405 -0.053915862 -0.077008404 0.06492017
000210 ff fa 17 be 4e 6c 4f bd 1a db a6 bd b1 6f be 3c
       -0.14841841 -0.050640397 -0.08147259 0.023246618
000220 b7 71 aa bd 80 b0 2f 3d b5 6f 3a be 5d 9e 72 be
       -0.08322471 0.042892933 -0.18206675 -0.23693223
000230 04 4d 45 bd 60 fb c1 bc 1d b9 03 be 56 f3 a7 bc
       -0.04816915 -0.023679435 -0.12863584 -0.020501774
000240 1c ba 30 3c d3 b7 eb 3c 1e ae 78 3d 71 0f 06 be
       0.010786559 0.028774178 0.060712926 -0.13091828
000250 c6 0f c2 3c 99 f5 53 3d 13 dd e9 bd 2a 29 2a be
       0.023689162 0.051747892 -0.1141912 -0.16617265
000260 cd d4 ad bd 23 97 01 be 99 ff 54 bd 8e 47 0f be
       -0.08487854 -0.1265531 -0.05200157 -0.1399214
000270 c6 29 82 3b c9 ee 23 bd 73 f6 ec 3c 10 f5 fa 3c
       0.003972265 -0.040022645 0.02892611 0.030634433
000280 e8 c8 0b 3e 44 5f 23 3c b0 c5 54 3d 04 60 fb bd
       0.13650858 0.009971444 0.051946342 -0.12274173
000290 e9 03 08 3e 42 73 5e be 48 db 9a bd 47 13 db 3d
       0.13282742 -0.21723655 -0.07561356 0.10697036
0002a0 59 9d 00 be 3b 01 60 be 58 58 a4 bd f9 20 ed 3d
       -0.12560023 -0.2187547 -0.08024663 0.11578555
0002b0 0c 83 0f bd 0f bc ca bc 71 87 8a bd c4 34 89 bc
       -0.035037085 -0.024747876 -0.06764115 -0.016748793
0002c0 71 77 a3 bd af 47 2b bc 2a 23 99 bd b1 0c c0 bc
       -0.07981766 -0.010454102 -0.0747741 -0.023443552
0002d0 67 a9 90 bd 14 87 df 3d 3d 5c 73 3d 8e f5 33 be
       -0.07063561 0.10914436 0.059414137 -0.1757414
0002e0 8c f4 67 3d 89 68 4b bd bb 97 51 bd fa 9a 33 be
       0.056629702 -0.04966024 -0.051170092 -0.17539588
0002f0 3f e8 ee bb c1 c7 5c bd bc cc 62 bd ab 36 b0 bd
       -0.0072908695 -0.053901438 -0.05537103 -0.08604177
000300 a1 49 98 bd 23 a1 92 3c d2 52 9d bc b3 8d 9a 3b
       -0.074359186 0.017899102 -0.01920453 0.004716599
000310 41 14 e8 3b 61 57 b0 bd a0 f0 70 3c fc f8 a2 3c
       0.0070824926 -0.08610416 0.014705807 0.019894116
000320 00 52 d7 bb eb 66 c3 3d ac 7c 61 3b 26 b1 e7 bc
       -0.0065710545 0.095411144 0.0034406586 -0.028282713
000330 b2 6d e9 3d a3 93 95 bd d4 da de 3d 90 fc 70 bd
       0.11397876 -0.0730355 0.10881582 -0.058834612
000340 76 71 a7 bd c9 56 eb ba 3e 26 ac bd 3f 88 f5 3b
       -0.08175938 -0.0017954941 -0.084057316 0.0074930484
000350 31 5a e1 bd 06 06 b2 bd 66 e0 60 bd 01 dc 39 3e
       -0.11003531 -0.08692555 -0.054901503 0.18150331
000360 1a 33 2a bd f8 f6 f4 bc e2 6b 59 3d 4f f3 ec 3d
       -0.04155264 -0.02990292 0.0530814 0.11569845
000370 40 55 bc 3d 2b f9 ae bd 45 67 96 3d c1 27 bc 3c
       0.09195948 -0.08543619 0.07343916 0.022968175
000380 fc 44 83 bc c4 49 21 3e c4 65 a6 3d bd 29 d6 3d
       -0.016024105 0.15750796 0.08124879 0.1045718
000390 1c af a4 3d af 92 39 3e cc 44 06 3b 10 e7 13 3e
       0.08041212 0.18122362 0.0020487783 0.14443612
0003a0 00 ca 41 3e fa 43 75 bd 73 ec 55 3d fc 90 05 3d
       0.18924713 -0.05987928 0.05222745 0.03260897
0003b0 de fb ec bd 20 0d 02 3c 64 73 ac 3c 33 61 ad bd
       -0.11571477 0.0079377 0.021051116 -0.08465805
0003c0 1b 34 90 3b c7 0e e4 3c da b2 63 3d e9 67 d6 bd
       0.0044007427 0.027839078 0.055590488 -0.10469038
0003d0 4e f7 08 3d b0 e7 f3 bd 32 f5 b6 bd 3b 3e f9 bd
       0.033438973 -0.11909425 -0.08933486 -0.12170073
0003e0 af e6 52 be 2d ae 25 3d f2 5c cd bd c1 d9 02 be
       -0.20595811 0.04044931 -0.100274935 -0.12778379
0003f0 8f a2 ee bd 2d 14 33 3b a1 72 23 3d 7d 08 0f 3d
       -0.11652099 0.0027325258 0.03990424 0.034920204
